checkpoint.pt (torch, 416237 bytes, 8 tensors)

fc1.weight f4 [200, 108]
000000 82 d4 92 bd da 46 8f bd d5 81 a0 bd 33 e0 06 bb
       -0.07169439 -0.06995936 -0.078372635 -0.002058041
000010 97 c3 88 bd d4 01 36 bd ee 96 1a bc eb db f2 bc
       -0.06677931 -0.044435337 -0.0094353985 -0.02964588
000020 95 a1 b2 bd 60 7c a0 3a 52 22 a6 bd 9f cd ba bd
       -0.087222256 0.0012244098 -0.08112015 -0.0912125
000030 f8 a1 d3 3c cd 33 d9 3d 43 70 cb 3d 2f 61 cc 3d
       0.025834069 0.10605583 0.099335216 0.09979474
000040 a2 bc 14 3d ab de bb bc 7c 21 94 3d f6 fd a6 bd
       0.036312707 -0.022933325 0.07232949 -0.08153908
000050 04 39 4b bd 47 72 a2 3d 72 92 27 bd 77 e3 2b bd
       -0.04961492 0.07931953 -0.040911146 -0.041964974
000060 09 80 9e bd b5 79 2e bd cb 2f 5d 3d 93 c9 8a 3d
       -0.077392645 -0.042596538 0.054000657 0.067767285
000070 2a a4 70 3c 65 c3 65 3c 58 18 b3 3d 2f ff b8 3d
       0.014687577 0.0140236365 0.087448776 0.090330474
000080 a0 f9 fe bd 95 53 c4 3a 2d 2f 39 3d ec 51 c1 ba
       -0.12449956 0.0014978523 0.045211006 -0.0014749146
000090 0b 89 76 3d 07 06 c4 bd 58 ef f9 bc 44 2a 47 3d
       0.060189288 -0.09571462 -0.030509636 0.048624292
0000a0 8a 26 3d 3d 14 65 65 bd 26 82 a1 3d e1 cf 81 3d
       0.04617933 -0.0560046 0.07886152 0.06338478
0000b0 a9 90 18 3c 28 4e 53 bd 29 e3 70 bc 71 4e e5 3d
       0.009311833 -0.051588207 -0.014702597 0.11196602
0000c0 3d e8 d6 bc 51 87 a4 3d d1 37 eb bd 56 ba ea 3c
       -0.026233787 0.08033622 -0.114852555 0.028653305
0000d0 db ab 8a 3d b6 df eb bd 25 60 a4 3d b0 c7 67 3d
       0.0677106 -0.11517279 0.080261506 0.05658692
0000e0 ac 64 a1 3c ca b2 82 bc ea 10 0a bd 4f 14 bc 3c
       0.019701324 -0.015954394 -0.033707537 0.022958903
0000f0 6e 40 50 bd 29 d5 a7 bc aa 8a 91 3d f3 95 b7 3d
       -0.050842695 -0.020487385 0.07106526 0.089641474
000100 fc 81 4d bc c4 a1 01 bd b8 1c f0 3b 24 11 5c 3d
       -0.012543198 -0.031648412 0.0073276423 0.053727284
000110 6e 05 8f 3c c4 c5 a1 3d 33 a6 98 bd 5e 92 14 3d
       0.017458644 0.07899049 -0.07453575 0.0362724
000120 ca e0 01 be 54 2a 82 3c ca 24 c0 3c c3 aa 94 3d
       -0.12683406 0.015889324 0.023455042 0.07259133
000130 b1 ff c4 bd 2b 42 61 3c 3d ac 7f 3d 99 11 ae 3d
       -0.09619082 0.013748686 0.06242012 0.0849945
000140 1b a0 4d 3b 56 ed a4 3c 0e 6a 89 3d a2 13 73 bd
       0.0031375948 0.020132702 0.067096815 -0.059344895
000150 83 e5 83 3d 11 e7 b6 bb 49 8b 6b bd 0f 45 1a bd
       0.0644026 -0.0055817445 -0.05750588 -0.037663516
000160 09 d1 37 bd e2 86 29 bd ac 72 83 3d 0d 5d bb 3d
       -0.044877086 -0.0413884 0.06418356 0.091486074
000170 2c 7d 81 3d 04 94 27 bd ee 90 c1 bd f1 7e 35 bd
       0.06322703 -0.040912643 -0.09451471 -0.044310514
000180 13 1f d9 bd 32 e1 7e 3d f1 b4 07 bd 83 46 94 3d
       -0.1060163 0.06222648 -0.033131544 0.072400115
000190 ee 81 b3 3d ba 05 9e 3d a1 a3 0f 3d a8 65 5f 3d
       0.087650165 0.07715936 0.035068158 0.054540306
0001a0 b9 df 3f 3d 69 aa 59 bb 06 42 80 bd 81 e8 9d bb
       0.046844218 -0.0033213145 -0.06262593 -0.0048189764
0001b0 28 fd b6 3c 3f ee 3c 3d 49 5d b5 3d e8 06 ec 3d
       0.022337511 0.046125647 0.08855683 0.11524755
0001c0 c9 6e f0 bc 93 dc 8f bc ad f2 db bd f7 a3 a8 bd
       -0.029349701 -0.017561233 -0.10739646 -0.08234399
0001d0 39 ff ca bd 2e f0 aa bd ad 22 02 3d d8 66 94 bc
       -0.09911961 -0.08346592 0.03177135 -0.018115446
0001e0 ba 83 52 bd fb 90 a6 3d 21 46 45 3d 99 3d b2 3d
       -0.051395155 0.081331216 0.048162583 0.08703155
0001f0 3b 9e a5 bd e1 b5 22 3d ec 2d 90 3d ca d7 d1 bd
       -0.08086821 0.039724234 0.07040009 -0.102462366
000200 b7 ba 38 3d f3 a9 9a 3d fe dc a2 bd 9b b4 6e bd
       0.04509994 0.075519465 -0.07952307 -0.058277708
000210 67 a0 af 3d e3 11 a8 bd a8 4a de bb 7b 22 f5 3d
       0.08575516 -0.082065366 -0.006783802 0.11969467
000220 19 f6 10 bd ba b6 69 bd 84 6e 7e 3d c7 3a 90 3c
       -0.035390947 -0.057059027 0.062117115 0.017606152
000230 34 51 0f bd 3a a0 73 bd 41 51 a7 3d 8e 98 cd bd
       -0.03498955 -0.059478976 0.08169795 -0.10038863
000240 1f d1 34 3c e9 04 39 3d f9 a2 c3 bc 33 da 8a 3d
       0.0110361865 0.0451707 -0.023881422 0.067798994
000250 7f 2c 85 3d cb 21 58 bd 65 a0 bf 3c 2f 60 c2 3c
       0.065026276 -0.052766602 0.023391912 0.023727505
000260 ea b3 86 3d 20 10 d8 3d 09 25 4d 3c 9b e0 ed 3d
       0.06577285 0.105499506 0.012521037 0.11615106
000270 cf c3 7a bd cf c0 27 3d 0c 98 e0 bd da aa 77 3b
       -0.061221894 0.04095536 -0.10966501 0.0037791044
000280 1d b9 9d 3d 2b ad 3c 3d c8 40 84 3d f2 88 f6 bc
       0.07701323 0.046063583 0.064576685 -0.030094597
000290 fd a1 3b 3d 43 f8 06 bd 97 97 6a bd 68 a0 f2 bb
       0.04580878 -0.032951605 -0.057273474 -0.007404376
0002a0 0d 59 de bb 13 ce 3b 3d 92 d8 6d 3d f7 f0 be 3d
       -0.006785518 0.045850825 0.058067866 0.09323304
0002b0 03 76 90 bd 8f 1d fe 3c 77 dd 13 3d 6b 73 33 bd
       -0.07053759 0.031019954 0.036099877 -0.043811243
0002c0 70 6b cf bc cd 18 be bc 45 cd ea 3c d3 bf 2e 3d
       -0.025319785 -0.023205185 0.028662333 0.042663407
0002d0 ce 3f e7 3b d4 30 5e bd 9c 7d c0 3d b0 cb 36 3d
       0.0070571667 -0.054245785 0.09398958 0.044627845
0002e0 f8 3d 6e 3d 5e 02 b4 3c df d3 30 bc 58 ff 12 bd
       0.058164567 0.021973785 -0.0107927015 -0.035888046
0002f0 82 4b 06 3c 98 17 ba 3d dd 67 7a 3d 50 4e 4c 3d
       0.008196713 0.090865314 0.061134208 0.049879372
000300 ab 40 a5 bc e8 83 e5 3b 5a 94 81 bd fc 23 54 bd
       -0.020172438 0.00700425 -0.06327124 -0.05179213
000310 8e ee 8b 3d 08 0e 70 3d bd ce af 3c 6f 8e c6 3d
       0.0683261 0.05860713 0.021460885 0.09695136
000320 8e 0f 00 bd ae 75 e9 3c 47 64 96 3d c6 e8 b9 bd
       -0.031264834 0.028498497 0.07343345 -0.09077601
000330 11 08 19 bd e7 72 d5 bc 7c c7 c1 bd f6 d8 34 bd
       -0.03736121 -0.026055766 -0.09461877 -0.044152223
000340 0e 5f cd 3c 14 38 a2 3d 36 48 d3 3d 49 73 b0 bc
       0.02506974 0.07920852 0.103165075 -0.021539347
000350 9b 54 7b 3d 5b 40 99 bd f2 7c 86 3d bc 60 ae bd
       0.061359983 -0.07482978 0.065668 -0.08514544
000360 6f d3 95 bd 9f 61 a9 3c cc 00 73 3a 78 ae e1 bd
       -0.073157184 0.020676432 0.0009269833 -0.110196054
000370 25 09 0c 3d c8 a8 b3 bd b4 00 ca 3c eb c7 d9 3d
       0.03418841 -0.08772427 0.024658538 0.106338345
000380 96 de b8 bd 6f de 5a bd 2b 10 c2 bd 59 7c e4 3d
       -0.0902683 -0.053434785 -0.0947574 0.1115653
000390 c1 84 5a bd 62 b4 86 3d 8a 44 af bd 2b 72 71 bd
       -0.05334926 0.06577374 -0.08557995 -0.05894677
0003a0 4d 77 02 3d 18 2b d6 bc d7 6d 08 3d 0f 37 78 3d
       0.031852055 -0.026143596 0.033307876 0.060599383
0003b0 0e 4c ca 3d 68 29 94 3d 4b 23 d4 bd 48 bc 17 3e
       0.098777875 0.0723446 -0.10358294 0.14817917
0003c0 dc 01 ef 3c bd b7 09 bd 8c 39 b6 bd 26 36 a5 bc
       0.029175691 -0.033622492 -0.08897695 -0.020167422
0003d0 5b d1 ab 3c 84 07 d6 bd df 28 c0 bc 95 95 b5 bd
       0.020973852 -0.10450652 -0.023456989 -0.08866421
0003e0 89 16 5c bd da 4a e1 3d 27 e9 09 3d 0b ca cb 3c
       -0.05373243 0.11000605 0.033669617 0.024876615
0003f0 01 8b 4d bd 1e 04 b3 bd 08 15 85 3c c4 e8 40 bd
       -0.050181393 -0.0874102 0.01624538 -0.047096983

fc1.bias f4 [200]
000000 d7 f6 07 3e af 51 a6 3c a6 05 47 bc d6 a5 ab 3c
       0.13277756 0.020302622 -0.012147343 0.0209531
000010 ee 89 69 3d e4 d5 ba ba 2b 65 13 bd a7 0a 8d 3d
       0.057016306 -0.0014254418 -0.035985153 0.068867974
000020 e7 24 43 bc 15 ad ab 3d 6e 67 fc 3d ca c4 15 3e
       -0.011910654 0.08382622 0.12324415 0.1462585
000030 96 ec 1d 3c 1a f1 db 3d e3 f9 37 bd b5 60 21 bd
       0.009638926 0.10739346 -0.044916045 -0.039398868
000040 3a 3e f4 3d ed 80 10 3e e4 ec 3e 3d a1 90 5b bd
       0.11925931 0.14111681 0.046612635 -0.053604726
000050 1b a4 81 3c 28 55 67 3d 39 ee 58 3d 41 ff c0 3c
       0.015825322 0.056477696 0.05296156 0.023559215
000060 a1 ba 8d 3b e9 bb 1d bc 80 9a 32 bd 3b cf ce 3c
       0.0043252264 -0.009627321 -0.043604374 0.0252453
000070 a7 59 58 3d d1 47 f7 3d 7f 4a c7 3d e0 df e7 bb
       0.052819874 0.12074245 0.09731006 -0.0070762485
000080 d7 d9 fd 3c af bf 04 3d 71 43 5e bb 35 a6 cb 3c
       0.030987663 0.032409366 -0.003391471 0.024859527
000090 81 16 85 bd 56 a1 90 3d 63 a1 39 bd f5 4b 45 bd
       -0.06498433 0.070620224 -0.045319926 -0.04816814
0000a0 2d 13 dd 3d 79 16 6f 3d b6 df cb bb e6 de b0 bb
       0.10794673 0.05837104 -0.006221737 -0.0053976653
0000b0 65 8d 18 3d d0 62 e7 3d 62 d2 db 3d 5f 8a f9 3d
       0.03724422 0.11298144 0.10733487 0.12184595
0000c0 0b 68 32 3c f1 f1 b3 bc f1 26 f2 3d 60 79 6e bd
       0.010889064 -0.021965953 0.11823834 -0.05822122
0000d0 5c e6 d6 3d 27 2c cf 3d 64 fc a8 3d 9a 34 c3 3d
       0.10493156 0.10115843 0.08251265 0.09531517
0000e0 f0 78 85 bd f0 a3 49 bd 30 4b a0 3d 12 b7 7c bd
       -0.065172076 -0.04922861 0.07826841 -0.061698027
0000f0 37 de ec bc bf 7a 4e 3d ad 9f 94 3d 28 af 9a 3d
       -0.028914554 0.05041003 0.07257018 0.0755294
000100 9c 70 0e bd bb ec cc 3d 1e 03 d9 3d 52 8f 37 3d
       -0.03477536 0.1000609 0.10596298 0.044814415
000110 9d 50 a0 3d 06 d0 be 3d 77 8e ca 3d 4d 75 ba 3d
       0.07827876 0.09317021 0.09890454 0.091044046
000120 e1 c8 d7 3d 31 ca 58 bd 84 6e 90 3d 2c 96 9b 3d
       0.105363615 -0.0529272 0.07052329 0.075970024
000130 52 79 09 bc 7c 24 ef 3d 34 4d ff 3d 91 bb 37 bd
       -0.008390741 0.11676881 0.12465897 -0.04485661
000140 b7 64 8f 3d 41 d6 85 3d 20 c7 4d bc 9e 1c 79 3c
       0.07001632 0.06535006 -0.012559682 0.015204577
000150 cb 71 47 3d 7b 2d ff 3d e7 10 b5 3d 51 a4 5b bc
       0.048692506 0.124598466 0.088411145 -0.013405875
000160 2a 88 11 bd 0b ba 32 3d 43 2c c9 3d 70 b4 64 bd
       -0.035530247 0.043634456 0.098228954 -0.05583614
000170 8b 45 31 bd 21 52 cf 3d 31 82 bc 3c 25 c5 4a bc
       -0.043279212 0.10123087 0.023011299 -0.0123761045
000180 72 a0 d3 3d 84 fe 9e bc 36 e4 d9 3c 78 f9 62 3d
       0.10333337 -0.019408472 0.026598077 0.055413693
000190 03 02 3d 3d 97 bd 01 3e 12 fe c7 3d 38 9d 7d 3d
       0.046144497 0.12669979 0.09765257 0.061917514
0001a0 52 bb 2f 3d 55 09 03 3e f4 94 66 3c 35 e9 7e 3c
       0.042903252 0.12796529 0.014073599 0.015558531
0001b0 61 09 de 3d 7c 10 a9 3d 37 34 14 3d 48 c5 d0 3c
       0.10841633 0.08255097 0.03618261 0.025484696
0001c0 d6 6b 50 3d 33 b1 38 3d 31 59 11 bd 4a 84 ab bd
       0.05088409 0.045090865 -0.03548545 -0.083748415
0001d0 5e 73 7c 3d 84 71 2d 3d ab 8e 21 3c 2d e3 ba 3c
       0.06163346 0.042344585 0.009860675 0.022813404
0001e0 e6 1a cb 3d a0 93 73 3c 47 26 47 3d 7c a6 b2 3c
       0.0991724 0.0148667395 0.04862049 0.021807902
0001f0 65 01 1b 3d 26 ad 6f 3d 7e fe 36 bc c6 ab 84 bc
       0.037843127 0.058514737 -0.011169074 -0.01619519
000200 02 23 ad 3d 81 d6 57 bc b8 2b 18 3d e4 76 ca 3d
       0.08453943 -0.0131737 0.03715107 0.09885958
000210 a9 85 f8 3d 9e 99 8e 3b 1c 7e 5b bd 67 fd de 3b
       0.12134869 0.0043518087 -0.053587064 0.0068051103
000220 a5 8e 62 bd d9 70 d8 3d 69 fa 50 bd 2b b1 1b 3d
       -0.055311818 0.10568399 -0.05102006 0.038010757
000230 e4 02 99 3d 2d 3f 8c 3d be d3 c8 3c 00 4d 10 3e
       0.074712545 0.06847987 0.024515029 0.14091873
000240 e7 df b1 bc 9d bf 2a bd 34 62 e3 bc f0 68 b6 ba
       -0.02171321 -0.041686643 -0.027756788 -0.0013916772
000250 17 1f 83 3d 48 b7 2e 3d 4c 4d d8 3d 4c 82 bb 3d
       0.06402414 0.04265526 0.10561618 0.091557115
000260 3b de b4 3d b4 be c0 3d 9b 3a 21 bd 32 d6 d6 bc
       0.088314496 0.09411374 -0.03936253 -0.026225183
000270 12 ee fb 3d 9a 09 9b 3c 59 c0 8a bc 91 6f 59 3d
       0.12301268 0.018925477 -0.016937422 0.053084914
000280 d8 22 e8 bc 71 14 f9 3d de 63 9a 3d 9c 14 65 3d
       -0.028336927 0.12162102 0.075385794 0.055927858
000290 fa c6 5a bd f0 c5 cf 3d d5 dd bd 3d c5 87 2e bd
       -0.053412415 0.101451755 0.09270827 -0.04260995
0002a0 4f 0b 3f bd a7 d9 e2 3d c2 3e 8e bc d0 f9 3e 3d
       -0.046641644 0.1107667 -0.01736391 0.04662496
0002b0 ad 25 c6 3d 98 4b 92 3d 09 cf ed 3c e7 b0 e7 3d
       0.09675155 0.071433246 0.029029386 0.11313038
0002c0 1e 0c d0 3c fe 0f 3e bd d8 40 de 3d b7 58 a2 3d
       0.025396403 -0.04640197 0.10852212 0.07927077
0002d0 6a 38 30 3d 07 34 1b bc 4f 01 ca 39 71 d1 01 3d
       0.04302255 -0.0094728535 0.00038529417 0.03169388
0002e0 38 15 a9 3d 66 12 d5 bc f0 49 01 3e 0a 3d 9b 3d
       0.08256 -0.02600975 0.12625861 0.07580002
0002f0 fa f4 c0 3d c4 5c d0 3d 43 76 86 3d 14 50 18 3d
       0.094217256 0.10173944 0.065655254 0.037185743
000300 21 f3 c0 3d 9e 5f 0f 3d dd a8 91 3d 91 ff 32 3d
       0.09421373 0.035003297 0.07112286 0.04370076
000310 7a c7 80 3d 9e a4 f3 3d 7b b9 5f bd 45 9a df 3d
       0.06288047 0.118966326 -0.054620247 0.109180965

fc2.weight f4 [200, 200]
000000 61 35 6b 3c 8d a5 27 bd a9 fe 96 3c 6e 52 78 3d
       0.014355988 -0.040929366 0.018431978 0.060625486
000010 b5 a7 4c bc 77 4d d2 bc af 79 bf bc 21 31 ad 3d
       -0.012491156 -0.025671704 -0.023373453 0.08456636
000020 e2 b8 a4 3d 55 09 06 bd 99 77 57 bc 73 4f 30 bd
       0.08043076 -0.032723743 -0.013151073 -0.04304452
000030 3d 97 0f bd c2 af 09 bc 83 89 1c bc 0f b5 b1 bb
       -0.03505634 -0.00840372 -0.00955427 -0.005423195
000040 42 bf b0 3c 86 95 a1 3b 9a 1f 6f 3d 76 5a 53 3d
       0.021575574 0.0049311547 0.058379747 0.051599942
000050 af 3d 90 3d c4 76 cc 3d 93 0b 94 bd 49 5e 92 3c
       0.07043015 0.0998359 -0.0722877 0.017867224
000060 f0 6a 63 3d 85 f8 5b bc 03 79 f7 bc c7 9c 52 3d
       0.055521905 -0.013425951 -0.03020907 0.051419046
000070 d0 57 47 bd b4 95 c6 3c ad 94 87 bc 00 8e b0 3c
       -0.04866773 0.024241306 -0.016550386 0.021552086
000080 35 12 03 3d 4a 0d 1d 3d 2d d6 6f bd 5a d4 2e 3b
       0.031999785 0.03834275 -0.058553863 0.0026676864
000090 b7 4c 1d bd ed e4 a6 3d 9f 1e 4d bc e5 51 98 bd
       -0.03840324 0.08149133 -0.012519508 -0.07437495
0000a0 4b 0a 85 3d a1 92 33 bb d1 4b 39 3d 3c 66 50 3c
       0.06496104 -0.002740063 0.04523832 0.012719687
0000b0 5c c2 0e 3d b7 47 cf 3d a5 1c 56 bd 29 e0 b5 bc
       0.034853324 0.101211004 -0.05227341 -0.022201614
0000c0 b9 0f ad bc 1a 43 f4 bc b4 c5 d5 3d 06 88 a2 3d
       -0.021125661 -0.029817153 0.104380995 0.07936101
0000d0 bf cd 9c 3c 6b 61 1e bd a8 a1 d2 bc 5e f8 1a 3d
       0.019141076 -0.038667124 -0.02571185 0.037834518
0000e0 9a 9f 24 bc fe 84 38 3d fe 2d 99 3d ef 83 a5 3d
       -0.010047818 0.045048706 0.074794754 0.08081805
0000f0 e8 bd 95 bd 77 45 61 3d 80 bc ac 3c cd 1a 47 bd
       -0.07311612 0.054997887 0.021085978 -0.048609544
000100 db 05 26 bd ea a8 91 3d a8 41 03 bd 90 b5 2d bd
       -0.040532928 0.07112296 -0.032045037 -0.04240948
000110 7a ab b9 bc 59 ba f8 bc eb d0 b7 3c f0 f6 65 3d
       -0.022664774 -0.030362295 0.022438487 0.0561437
000120 01 f8 9f ba 76 04 19 bc 3a 84 0e bc ec 22 17 bc
       -0.0012204648 -0.0093394425 -0.008698517 -0.009224635
000130 f5 b8 1f bd 32 9e 57 3d 72 44 fc 3c a6 d3 a9 bc
       -0.03899475 0.0526411 0.030794356 -0.020730805
000140 bb 3e 9c 3d 02 25 78 3d d5 95 0c 3d ca 16 f0 3b
       0.076291524 0.06058217 0.03432258 0.0073269354
000150 41 c3 02 bc 9c 20 b2 3d af 59 9f bd 9c a0 92 bc
       -0.0079811225 0.08697626 -0.07780778 -0.01789885
000160 dd 85 60 3d 2d ea 29 bc 18 89 58 3c d8 94 ed bc
       0.054815162 -0.010370773 0.013216279 -0.029001638
000170 78 44 65 bc a7 45 52 bd fb 73 c6 3c bf 10 89 3d
       -0.013993375 -0.051335957 0.024225226 0.06692647
000180 66 9f 0a 3d 52 80 60 bd c1 35 79 3c 65 11 94 3d
       0.03384342 -0.054809876 0.01521057 0.0722988
000190 38 6d 71 bb d6 c7 aa bc b9 4b dc bc ac dd 94 bc
       -0.003683878 -0.020847242 -0.026891576 -0.018172108
0001a0 ac 83 19 bd fe 37 4c bc 71 ed e4 3c 96 2e 9a 3d
       -0.037479088 -0.012464521 0.027945252 0.07528417
0001b0 65 5c d2 3d 29 a6 0e 3d 3a 9c 12 bd ac a3 66 bd
       0.10271529 0.03482643 -0.03579352 -0.056308433
0001c0 a7 4e 5e bc c7 ba 53 3d df 18 1c 3c d6 2f 09 bd
       -0.013568557 0.051691797 0.009527414 -0.033492886
0001d0 e9 16 fe 3a 7e 42 8e 3a 04 9d 3f 3d 0c b9 e1 ba
       0.001938549 0.0010853556 0.0467806 -0.0017221286
0001e0 cf 95 b4 3b 8e 9d 41 bc b6 a9 74 3d f3 e0 7d bd
       0.0055110226 -0.011817349 0.05973216 -0.061982106
0001f0 a3 fe 1e 3d 2d af 63 bd 7f a3 6f 3d 88 8d b7 bc
       0.03881706 -0.055586983 0.05850553 -0.022406355
000200 b4 0b d0 3d 5e fa 2f 3d d1 5c 7b 3c 86 81 9d bd
       0.10158482 0.042963378 0.015341953 -0.0769072
000210 ec 04 87 bd ec 81 11 3d da 69 ef 3c d9 6d 6f bc
       -0.06592736 0.035524294 0.029225279 -0.014613592
000220 41 7b 9c 3c 58 3c 86 3a 98 dc 73 3d ea cc ce 3c
       0.01910174 0.0010241373 0.059536546 0.025244195
000230 a7 90 51 3d 87 bd 0b bc 4e e2 80 3c cb 0c 3c bd
       0.05116334 -0.008529074 0.01573291 -0.045910638
000240 89 02 7b bc a1 94 e4 bc c0 a8 6c 3d 8b a4 eb bc
       -0.015320429 -0.027902903 0.05777812 -0.028764984
000250 bb 5f 13 3d 4e 88 3f bc 9b 0b eb bb ae e9 84 3c
       0.035979968 -0.011690212 -0.0071730143 0.016224708
000260 ea ed 56 bb 48 28 a4 bc 71 21 9d 3c 84 91 55 bb
       -0.0032795616 -0.020038739 0.019180985 -0.0032587955
000270 84 98 8d 3c 9a d9 9f 3b ae 6b 07 bd 5c 49 d4 3d
       0.01728464 0.004878235 -0.033061676 0.10365555
000280 28 09 69 bc 36 ca a2 bc 7c 75 9a bc fd d0 b9 3c
       -0.014223374 -0.019871812 -0.018854849 0.022682661
000290 86 4f 1a 3d 48 4c 0d 3d 02 51 9d 3d cd a7 11 bd
       0.037673496 0.034496576 0.07681467 -0.035560418
0002a0 38 d5 fe 3b f0 2e 7e bd a8 c3 83 3d 23 ba 92 3d
       0.0077768825 -0.06205648 0.06433803 0.07164409
0002b0 bc 7d ba 3d 5d 19 99 3c 60 2b 26 3d 1b 33 39 3c
       0.09106013 0.018688852 0.04056871 0.011303688
0002c0 7d a9 9b bc f5 d9 8b 3d 50 ba 33 3c a2 10 20 bd
       -0.019001717 0.068286814 0.010969713 -0.039078362
0002d0 f8 64 5c bd 17 2e 75 3d 9a 6d d6 3c 1f 6b 77 bd
       -0.05380723 0.059858408 0.026175309 -0.060404893
0002e0 63 ad d3 3c d2 73 08 3d 40 c8 eb 3d 4d 1a 86 3d
       0.025839513 0.03331358 0.11512804 0.06547985
0002f0 67 be 3b 3d 9d da ce bc a8 c0 c8 3c ab a8 2c 3d
       0.04583588 -0.025250727 0.024505928 0.04215304
000300 49 b7 bc 3a 25 b9 b4 3d de d1 bc bc bd 5f ec 3c
       0.0014397885 0.08824376 -0.023049291 0.028854245
000310 7a ce c1 bc ab c1 a1 3d 66 5c 11 3d 3b e0 49 3d
       -0.023658026 0.07898267 0.03548851 0.04928611
000320 6f 5a ee bb d2 71 5a 3d 4c 56 c8 3c 86 a7 eb 3c
       -0.007273964 0.053331204 0.024455212 0.028766405
000330 bb 1f 79 bd 48 af 0a 3d 84 ba 41 3d 3e 48 76 3d
       -0.060821276 0.033858567 0.047297016 0.06012749
000340 ce 41 03 3d e4 ac 70 bd 03 76 b3 bb ee 3b a6 bd
       0.032045178 -0.05875863 -0.0054767146 -0.081168994
000350 1c 22 43 3d aa e7 77 3d 56 9d 1e bc d8 ed 02 3d
       0.04763995 0.060523666 -0.0096810665 0.031965107
000360 e7 66 84 bd fd 12 c6 bc 85 7b 84 bd 29 a4 94 bd
       -0.064649396 -0.024178976 -0.06468872 -0.072578736
000370 b2 73 02 bd 32 27 80 bc 92 2f 10 bd da 93 56 bd
       -0.031848617 -0.01564369 -0.035201617 -0.052387096
000380 f8 56 d6 bc 55 ae 83 3d e9 93 7d bd 5e 19 83 bd
       -0.026164517 0.064297356 -0.061908636 -0.06401323
000390 b3 d7 df bc e1 9c ca 3c a9 a9 c5 bc 9f ec 5b bd
       -0.027324533 0.024733009 -0.024128752 -0.053692456
0003a0 96 08 01 bd f1 a0 e1 3c 7f b6 ad 3d cd 0f 42 3c
       -0.03150233 0.027542563 0.08482074 0.0118445875
0003b0 f3 73 27 bd b2 98 60 3c 1c 40 81 3d 13 1b 1a 3d
       -0.040882062 0.01370828 0.06311056 0.037623476
0003c0 22 7f 28 3d cf 0c 89 3d bd 18 ed 3d c2 5f 3d 3d
       0.04113687 0.06691896 0.11576984 0.0462339
0003d0 54 b8 2c 3d 8f f6 35 bd 5b cf 30 3d 47 3a e2 bc
       0.042167976 -0.04442459 0.0431665 -0.02761568
0003e0 d2 0d 60 3c 01 0c 9a 3d 69 e2 a2 3c 97 9c 89 3d
       0.01367517 0.07521821 0.019883351 0.0671932
0003f0 82 46 3a 3d 96 29 de bc 74 40 8b 3d 71 d9 bf bc
       0.045477398 -0.02711944 0.06799403 -0.023419114

fc2.bias f4 [200]
000000 17 2d d3 bc d7 cd e4 3c 18 1d d7 3c c6 8f 48 3d
       -0.025778336 0.027930183 0.02625899 0.048965238
000010 7b 7d 18 3d 0a df 7e bc e2 f6 8d 3d 45 95 d4 3c
       0.037229043 -0.015556106 0.06931855 0.025950084
000020 93 01 7b 3d 43 d6 ab 3b 9d 15 d9 3c 55 80 67 bc
       0.0612808 0.005244048 0.026499564 -0.014129718
000030 e4 99 97 bb 0b 96 1e bd 36 9d 1c bd b6 4b 1d bd
       -0.0046264995 -0.03871731 -0.038235866 -0.03840228
000040 60 3a 2b bc 71 32 a0 3c 53 b0 26 3d 92 9a 13 bd
       -0.010450929 0.019555302 0.0406955 -0.03603608
000050 30 68 29 3d f0 b0 91 bc 9c 05 ae bb 2d 41 02 bd
       0.041359127 -0.017784566 -0.0053107273 -0.031800438
000060 70 de de 3c e6 7e 18 3d 15 70 29 3d b5 f3 02 3d
       0.027205676 0.037230395 0.041366655 0.0319707
000070 82 2c 32 3d f8 d6 30 3d bd 13 dc 3c 22 b4 3a 3d
       0.043499477 0.04317376 0.02686488 0.045581944
000080 ee 81 54 bd 23 0a b3 3d 82 f9 47 bd bc f8 cb 3a
       -0.051881723 0.08742168 -0.048821934 0.00155618
000090 74 dc bb bb 8b 32 76 3d b4 90 1d bd 51 d0 6a 3c
       -0.005733067 0.060106795 -0.038468078 0.014331893
0000a0 a4 e9 53 3b 29 9c ee bb 60 f6 b5 3d 45 51 90 3c
       0.0032335306 -0.0072817993 0.08884883 0.017616877
0000b0 48 8d 19 bd 96 fb 69 3c 32 9b 1c bd 2f 05 0e bd
       -0.037488252 0.014281174 -0.038233943 -0.034672912
0000c0 49 57 e4 3c c5 15 34 bd 7f 6b 0c bd 7b 58 0e bd
       0.027873652 -0.043966074 -0.034282204 -0.03475235
0000d0 59 a8 d5 3b 92 09 07 3d 3b 05 74 3d 33 6b 19 3d
       0.0065203127 0.03296811 0.0595753 0.03745575
0000e0 2c 35 b6 3d 3e 06 24 bd 4f 22 63 3d 37 b2 80 3d
       0.088968605 -0.040045016 0.05545264 0.06283992
0000f0 f5 68 47 bd 16 1d 27 bd 96 d4 6c bd 48 fc b0 bb
       -0.04868408 -0.040799223 -0.057819925 -0.005401168
000100 36 a9 83 3d 4e a4 e5 bb cb d2 9c bc 1a 2f 1f 3c
       0.06428759 -0.007008112 -0.019143483 0.00971582
000110 db 20 98 3c 86 1f 4a 3d 0c a7 ea 3b e8 b2 53 3d
       0.018570354 0.04934647 0.007161027 0.05168429
000120 60 44 a5 ba db fb 4f bc 39 f2 95 bc 56 05 7a bc
       -0.0012608878 -0.012694324 -0.018303977 -0.015260061
000130 1f 76 1c 3d db 54 bb 3d 42 a0 ad 3d f4 14 b9 3d
       0.038198587 0.09147044 0.084778324 0.090371996
000140 3b f2 d3 bb 1f 36 98 3d 7a da 34 bb 33 b5 1a 3d
       -0.006468085 0.07432198 -0.0027596042 0.03777046
000150 97 b9 b7 3c 17 58 e1 bc 15 e1 97 3d 7d 05 b6 3c
       0.022427363 -0.027507825 0.07415978 0.022219414
000160 19 ff 49 bc 6b b2 24 3d 81 70 85 3d cf 7d 0e bd
       -0.012328886 0.040209215 0.06515599 -0.03478795
000170 d7 a7 38 3d 40 3e 5e 3c e4 31 05 bd 28 e7 06 3d
       0.04508194 0.013564646 -0.032518283 0.03293529
000180 2e 6b 15 3d eb 59 86 3d be a1 ad 39 79 ff 1a bd
       0.036479168 0.06560119 0.0003311764 -0.037841294
000190 17 8a 8a 3d 98 4e 3a 3d ee 6f f5 3c 04 c7 16 bd
       0.0676462 0.04548511 0.029960599 -0.03681089
0001a0 58 d3 4c 3d 53 b0 c5 bc 6f dd 97 3d 33 0a 16 3d
       0.05000624 -0.02413193 0.07415282 0.03663082
0001b0 cb 46 3d 3d 5f db 95 3d 50 42 0a 3d e2 5c e8 bc
       0.04621009 0.07317232 0.033754647 -0.028364602
0001c0 18 f7 72 3d 62 01 20 bd 42 ac 29 bc 2f 17 b5 3b
       0.05931768 -0.03906382 -0.010356011 0.0055264453
0001d0 d0 18 14 bc 4a bf e5 bc 2e d2 ce bb 2b 48 43 3d
       -0.009039119 -0.028045315 -0.0063116765 0.047676247
0001e0 ff 53 38 bd f7 75 0b bd 0b 54 0b bd 2e 8c 8f 3d
       -0.04500198 -0.034048047 -0.034015696 0.07009159
0001f0 de f6 16 3d 0f d2 77 3d 6f 6f 8c 3c 33 a3 ca 3d
       0.036856525 0.06050306 0.01714298 0.09894409
000200 c3 53 92 3c 11 fa 53 3d c3 3e 20 bd ce 18 89 3d
       0.017862206 0.051752154 -0.039122354 0.06694184
000210 51 5f 3d 3d 2b c6 08 3d 15 2d c1 3d a5 1b f0 3c
       0.04623348 0.033392113 0.09432427 0.029310057
000220 98 4f 13 3c ea c3 62 3d 8f 65 1a 3b 3e b4 1a 3c
       0.008991145 0.05536262 0.0023559069 0.009442387
000230 57 1c 73 3c 47 29 32 3d 3a 50 b2 3d 74 d9 0a bd
       0.0148383 0.043496396 0.08706708 -0.033898786
000240 8f 89 a7 3d 98 19 83 3c 4c cd e4 3c fe 96 0d 3d
       0.08180534 0.016003415 0.027929924 0.034567825
000250 fa ab 65 3b 83 77 4c bc 9c a2 cd bc d2 a6 4f 3b
       0.0035045133 -0.012479666 -0.025101952 0.0031685126
000260 11 03 08 3d b4 b9 7f 3d 5c 61 95 3d 1e 2f 38 3d
       0.03320605 0.06243296 0.072939605 0.04496681
000270 e1 dd 0a bd a0 6c 9b bc 6b a2 0f 3d 0e c6 3d bd
       -0.033903006 -0.018972695 0.035067003 -0.046331458
000280 12 cd 07 3d 72 22 90 bc ce fe 20 bd fc 8c a8 3d
       0.033154555 -0.01759455 -0.0393055 0.08230016
000290 02 2c 6f bd c7 c8 aa 3c fb a4 94 3d a8 b3 12 3d
       -0.05839158 0.020847691 0.0725803 0.035815865
0002a0 50 fd ac 3d 8f 59 08 bd 8d 93 1b bd d1 6a ac 3a
       0.08446753 -0.033288535 -0.037982512 0.0013154392
0002b0 55 d9 86 3d b5 87 c8 ba f9 d0 b0 3d 51 8b 53 bd
       0.065844215 -0.0015299233 0.08633608 -0.051646534
0002c0 6f cd c0 3d 1c e3 4d bc df 33 8a bc 60 58 d5 3c
       0.09414183 -0.012566354 -0.016870437 0.026043117
0002d0 82 8f 2b 3d 16 37 80 bb 79 56 8a ba 47 5d 49 3c
       0.041884907 -0.0039128168 -0.0010554335 0.012290305
0002e0 0c cd 9f 3b 73 bb 94 3a 03 a1 05 3d 95 f2 7c 3c
       0.0048767384 0.0011347368 0.032624256 0.015438695
0002f0 3d 3e 81 bc a7 c5 20 ba c3 bd 34 3c ec 15 80 3d
       -0.015776748 -0.0006132968 0.011031571 0.06254181
000300 99 c7 b2 3d 1f 5b 38 3d 21 eb 34 3d f2 07 9f 3c
       0.087294765 0.045008775 0.04416955 0.019412968
000310 bb ff 3f 3d a3 36 57 3d 80 5d 24 bd 5f 18 49 3d
       0.046874743 0.05254234 -0.04012823 0.049095508

fc3.weight f4 [200, 200]
000000 34 49 14 3c b3 81 97 bc 84 5a a3 3d 69 83 2d 3d
       0.009050656 -0.018494463 0.07976249 0.04236165
000010 d4 f4 bc 3d b4 dd c1 3d 2b c2 12 3d cd 7e 34 bd
       0.09226385 0.09466115 0.035829704 -0.04406624
000020 e7 7e 69 3d 32 d1 95 3d 88 82 9f 3d eb 80 e6 3c
       0.05700579 0.073152915 0.07788569 0.028137645
000030 cd 3b 64 bc ef 92 1c 3d 72 2b aa 3c a1 2e 6f 3d
       -0.013930273 0.038226064 0.02077267 0.05839408
000040 c3 84 95 3d 83 82 7a 3c 9b 07 9e bd fc 73 ae 3d
       0.07300713 0.0152899055 -0.077162944 0.08518216
000050 13 cb 3a 3d cf 02 52 3d 1f b0 df ba 6b e2 53 bd
       0.045603823 0.05127221 -0.0017066038 -0.0517296
000060 09 79 61 bc af a3 06 bd ca 55 07 bd 99 09 55 3d
       -0.013761767 -0.032870945 -0.0330408 0.052011106
000070 16 58 cf bb f1 83 81 3d e3 8b 84 bc 0f 95 8b 3d
       -0.0063276393 0.06323994 -0.016179984 0.0681554
000080 9e 71 a3 bb 85 da 8e bd 6a b9 e9 bc 31 26 ce 3d
       -0.0049879095 -0.06975273 -0.028530795 0.10065878
000090 65 7e f9 bc ee 6a f7 bb 3c f2 5c 3c e2 71 3b bc
       -0.030455777 -0.007550589 0.013485488 -0.011440726
0000a0 65 61 ce 3d 27 b5 6c bc 39 c0 1c 3c 25 fe 9a 3d
       0.1007717 -0.014447487 0.009567314 0.075680055
0000b0 77 ee 16 3d b3 b1 09 bd 73 77 72 3d 05 54 02 bd
       0.03684851 -0.033616733 0.059195947 -0.03181841
0000c0 0f 65 cd 3d 65 a7 b5 bc 06 2c 1c 3d 95 23 96 3d
       0.10029041 -0.022174546 0.03812792 0.073310055
0000d0 44 7e 4c bd fe eb 87 bd 60 a5 79 3d 6f fa 0e 3d
       -0.049925104 -0.06636809 0.06094873 0.0349068
0000e0 a1 79 45 3b bd d3 8e 3c 55 79 d8 3c ae c9 09 3d
       0.003013231 0.017434949 0.026425043 0.033639602
0000f0 cd 66 07 3d 59 fe 91 bd 49 86 0d 3d f4 4f f7 3d
       0.033057023 -0.07128591 0.034551892 0.12075797
000100 f3 61 6e 3b 38 e1 72 3d 50 83 de 3d e1 2e d4 bc
       0.00363743 0.059296817 0.108648896 -0.02590126
000110 39 c7 d7 3c 6b 1f 22 bc 82 48 46 bd b8 c7 63 3d
       0.026340114 -0.009895186 -0.048408993 0.05561039
000120 48 90 80 bc 62 d9 dc 3c 34 d4 0e bb c9 b1 8d bc
       -0.015693799 0.026959125 -0.0021793963 -0.017296689
000130 a6 5f 0b bc 58 03 41 bc 37 bf 98 3a c4 9f 2d bd
       -0.008506691 -0.011780582 0.0011653666 -0.042388692
000140 c6 58 d9 bc 3b e4 e9 bb ce ed 2a bd b8 1e 6c 3d
       -0.026531588 -0.007137803 -0.041730694 0.057646483
000150 6a 32 b2 bd 9c 62 c3 3d 30 28 bd 3d 5b 3c d2 bd
       -0.08701022 0.095402926 0.09236181 -0.10265418
000160 54 55 80 3d b2 6b 5c bc f1 19 a6 bc e1 cb d8 3c
       0.06266275 -0.013453411 -0.020276042 0.026464405
000170 cc e7 5d bd d2 6e 4d 3d bd d2 05 bd 28 af 6b bd
       -0.054176137 0.050154515 -0.03267168 -0.05754009
000180 74 81 a4 bc d3 0f 92 bd 68 c0 bc bc f9 a8 8f bd
       -0.02008126 -0.071319245 -0.023040965 -0.07014651
000190 89 34 9c bc de 6a bc 3c 59 3a 41 bd 9f f3 b1 3d
       -0.01906802 0.023000177 -0.047174785 0.08689045
0001a0 f9 99 da bc 7a aa 11 3c 84 0f ce bc 7d f3 74 3b
       -0.026684748 0.008890742 -0.025153883 0.0037376576
0001b0 1d 7f a8 bc 54 f2 46 3d d5 e2 70 3c d7 3d 65 bc
       -0.020568425 0.048570946 0.0147025185 -0.013991795
0001c0 c4 40 04 3e c7 f5 3b 3d 98 75 17 3d 40 5d bb 3d
       0.12915331 0.04588869 0.03697738 0.091486454
0001d0 78 68 b9 3d af 5c 1a bd ea 91 25 3c 34 c1 82 bd
       0.09053129 -0.037686046 0.010105589 -0.06384507
0001e0 74 f1 56 bd e7 fc cf 3d e0 44 8b 3d 67 22 f9 3c
       -0.05247636 0.10155659 0.06800246 0.030411912
0001f0 e7 9a 4d bd 38 a2 ac 3d e6 e9 a1 3d cd 31 7c bd
       -0.050196555 0.08429378 0.07905941 -0.06157093
000200 02 19 e6 3c 55 80 8a 3d 50 5d e3 bc 04 1f c8 3d
       0.028088097 0.06762759 -0.027754456 0.09771541
000210 0b 36 10 bd 04 28 84 3c 72 b0 72 bd 7f 86 88 3d
       -0.03520779 0.016132362 -0.059250303 0.06666278
000220 e3 a9 92 3d 72 9e d7 3b 61 3b 2d bc 5f 8b b0 bb
       0.071613096 0.0065801675 -0.010573239 -0.005387708
000230 88 87 40 bb 10 b8 78 ba 19 9d 74 bb 41 cd 04 bd
       -0.0029377658 -0.00094878767 -0.0037325083 -0.032422308
000240 30 98 47 bd 49 a1 00 3d d4 de 72 bd c4 47 c7 3d
       -0.04872912 0.031403814 -0.059294537 0.09730485
000250 56 34 a2 bd 93 16 79 bd 91 01 6f bd 86 64 73 3d
       -0.079201385 -0.060812544 -0.058351103 0.05942204
000260 ee c7 74 bd 7c fe 1d bd 11 e4 0d 3c 8d e7 ac bc
       -0.05976098 -0.038572773 0.008660332 -0.021106506
000270 f4 0f 40 3d df 00 2f 3d b9 fc 5c 3d 89 43 bd 3d
       0.046890214 0.04272544 0.053951953 0.09241397
000280 59 4e 38 3d e8 19 e0 3c d6 ce 95 3d 2f 16 94 3d
       0.044996593 0.027356103 0.073148414 0.07230794
000290 17 d4 01 bd 7c dd ab bc f0 70 43 3c 72 ad 50 bd
       -0.031696405 -0.020979635 0.011928782 -0.05094666
0002a0 80 4a 22 3d ad 25 7a bc fd 36 a2 3c 6f 77 8a bd
       0.03962183 -0.015267772 0.019801611 -0.067610614
0002b0 76 1e d0 3d 72 3b a5 3b 1e bd 7b bb c9 7c 9e 3b
       0.1016206 0.005042487 -0.0038412283 0.004836653
0002c0 86 11 91 3d 3f 38 8e 3d c0 78 a0 3d 80 1d 38 bd
       0.070834205 0.06944322 0.07835531 -0.04495001
0002d0 44 0a a3 3d 04 15 aa 3c 80 aa 8c 3c 33 36 13 bd
       0.079609424 0.020761974 0.017171144 -0.03594036
0002e0 23 39 85 3d 12 39 b0 3b 44 68 1b 3b 93 cd 7a bd
       0.065050386 0.005377897 0.002371327 -0.061231207
0002f0 df 31 31 3d ea d7 ff 3b 23 db df bb a2 59 bd 3c
       0.04326045 0.0078077214 -0.006831543 0.02311403
000300 67 31 25 ba 09 29 eb 3d 93 40 60 3d bd 4a 65 bd
       -0.0006301612 0.11482436 0.054749083 -0.05597948
000310 77 31 89 bd 10 1a 4b bd e6 42 55 bd 94 96 89 3d
       -0.06698888 -0.049585402 -0.052065752 0.067181736
000320 52 d9 7f bc 95 4b 29 bd e0 0c 21 bd 12 aa 19 bd
       -0.015615778 -0.041331846 -0.03931892 -0.037515707
000330 dd c8 f0 3c 62 5e b3 bd f0 ae 07 3d 1f fd 0f 3c
       0.029392654 -0.087582365 0.033125818 0.008788376
000340 16 07 8d bd 40 d3 73 3d c5 ef be bc 03 b6 3e bd
       -0.06886117 0.059527636 -0.02330769 -0.0465603
000350 69 20 57 bb e6 98 d1 3c f1 f4 9a bc d3 31 10 bd
       -0.0032825714 0.025585603 -0.018915625 -0.035203766
000360 37 77 35 bd 21 49 49 bc a4 36 a2 3d 65 78 56 bd
       -0.044303145 -0.012285502 0.07920578 -0.05236091
000370 64 58 9e bd 6b 5a cf ba 1b bf 96 3d aa 78 35 bd
       -0.07731703 -0.0015819793 0.07360669 -0.044304527
000380 d0 70 86 3d 89 46 2a 3d e4 52 b5 3d 3f 74 97 3d
       0.06564486 0.041571174 0.08853701 0.07395219
000390 65 95 8f 3d d1 bc 44 3d 3f d7 84 3c 5e b7 1e 3b
       0.070109166 0.04803163 0.016215919 0.0024218182
0003a0 1a be b6 3b 8d da d5 3c ef 17 13 bd 26 4d 23 3d
       0.005576861 0.02610519 -0.035911497 0.039868496
0003b0 12 cf 1f 3d fb 49 70 3d d5 6e 93 bc 82 be 31 bd
       0.039015837 0.058664303 -0.017997185 -0.043394573
0003c0 aa be ff bc 2d c4 bb bc d2 c7 97 3d 61 b8 65 bd
       -0.031218845 -0.022920692 0.074111596 -0.05608404
0003d0 15 6a 03 3c a0 6d 3c bc ac b3 54 bd 4a 95 50 3d
       0.008020897 -0.011500746 -0.05192916 0.050923623
0003e0 05 a3 8b bd 50 6b 93 bb 97 c1 0a bc 35 9b 64 bd
       -0.06818203 -0.0044988766 -0.008469007 -0.05581208
0003f0 24 44 ed bc e9 5f 55 bc dd 05 d8 3c 02 f2 20 3c
       -0.028963156 -0.013023355 0.026369983 0.009823324

fc3.bias f4 [200]
000000 c0 16 07 3d c9 36 54 3d f4 bd 80 bd e4 aa 1e 3d
       0.03298068 0.05181006 -0.06286231 0.038737193
000010 56 66 50 bc 12 28 8b 3d 37 53 2b bc 9d 3c 66 bd
       -0.012719711 0.06794752 -0.010456852 -0.05621015
000020 4c 41 5d bd 49 ad b2 bc 07 eb 26 3d 6e 8c 6a 3d
       -0.05401735 -0.021811144 0.040751483 0.05726283
000030 91 6b 8c 3d fd 6d 51 bc 85 51 29 bd a4 9b a4 3d
       0.06856454 -0.012782571 -0.04133751 0.080374986
000040 39 35 6f 3c 3f e5 3b 3d 67 11 8b bd 81 4e 43 3d
       0.014600092 0.045872923 -0.067904286 0.04768229
000050 d7 7f 06 3d 7b 29 90 3b 65 bb a0 bc e6 f1 e9 3c
       0.03283676 0.004399476 -0.019620607 0.028557729
000060 b8 64 82 bb 83 a9 97 3c 6b b0 ee bc 48 1b 5f 3d
       -0.0039792918 0.018513447 -0.029136857 0.054469377
000070 6b 50 5a bd 47 4c 80 3d d2 3d 6b bc 82 e0 65 bc
       -0.05329935 0.06264549 -0.014358001 -0.014030578
000080 f5 18 9e 3d f3 bf 51 3d 2d 05 b9 3c a5 e5 3b 3a
       0.07719604 0.051208448 0.022585476 0.00071677036
000090 37 bf 4a bb aa b5 2f bd bf ee 7c 3d c2 b5 08 3c
       -0.0030936727 -0.042897858 0.061751124 0.008344116
0000a0 bc 53 85 bc 24 50 00 bc 28 27 21 3d b7 4a 52 bb
       -0.01627528 -0.007831607 0.039343983 -0.003208799
0000b0 1d dd b8 bc 6e bb 26 bd 27 14 88 3d f4 65 29 3b
       -0.022566373 -0.04070609 0.06644469 0.0025848122
0000c0 0f 69 af 3c e3 1a cd 3b 65 a5 1e bd 5a 94 76 3d
       0.0214124 0.0062593087 -0.03873195 0.060200073
0000d0 fc d2 61 3c f8 f9 38 3d 6b 70 2b bc 8d 81 71 3d
       0.013783213 0.045160264 -0.010463814 0.05896144
0000e0 e2 ac 57 3d 31 21 9a 3d 47 46 5f bd 2e 86 3e bd
       0.05265511 0.07525862 -0.05451038 -0.046514682
0000f0 ab 0f 6e bd 51 90 89 bd 0e 96 17 3d d6 e8 43 3d
       -0.05812041 -0.06716979 0.037008338 0.04782947
000100 6a 62 33 3c a5 80 81 3b 10 89 97 3d 3d 11 97 bb
       0.010948757 0.003952103 0.073991895 -0.0046102093
000110 ac ff 5f 3d f2 7a c9 3c cb b7 39 bd 6b c8 1c 3d
       0.054687187 0.024594758 -0.045341294 0.03827707
000120 1b 43 00 bd f1 3b 81 3d f6 5e 94 bc 32 ec 86 3d
       -0.031313997 0.06310261 -0.018111687 0.065880194
000130 c8 48 15 3d 81 f4 dd 3c a8 aa 31 bd 2b 2b 4c bd
       0.036446363 0.027094128 -0.04337564 -0.049845856
000140 d6 34 4e 3d 94 26 0a bc 27 6f 40 bb d2 3f 7a bd
       0.050343357 -0.008432049 -0.0029363127 -0.06109602
000150 17 5e 0f bc af ab 3a bd 61 e0 3a 3d 71 89 e3 bc
       -0.00875046 -0.045573886 0.04562414 -0.027775498
000160 71 50 db bb 07 99 28 3c 30 da 42 bd a4 84 96 3d
       -0.006692939 0.010290391 -0.04757136 0.07349518
000170 e7 d3 9d bb 0e d3 42 3d 0f dd dd 3b 58 93 1a 3c
       -0.0048165205 0.04756456 0.006770737 0.009434544
000180 89 bd 68 3d 54 d7 1b 3d f7 50 e8 bc 0f 04 f8 3c
       0.05682138 0.03804715 -0.02835892 0.030275373
000190 bc 34 9c bc 09 84 76 3c bf 8e 9f 3c bb e8 ed 3c
       -0.019068114 0.015046128 0.019477246 0.029041639
0001a0 28 c3 73 3d 1c 58 60 bd a0 cf 13 3d c4 e9 7f 3d
       0.059512287 -0.054771528 0.03608668 0.062478796
0001b0 b3 d3 5c 3b 83 04 12 bd ce 79 16 3a cc 1d 59 3d
       0.0033695519 -0.035648834 0.0005740196 0.053006932
0001c0 67 40 54 3d e1 4e 43 bd 16 bf 47 3d ab 4d 66 3d
       0.05181923 -0.047682647 0.048766218 0.056226414
0001d0 7e d9 c0 3c d0 3b 4e bc f6 e5 35 3d 41 94 11 bd
       0.023541208 -0.012587503 0.04440876 -0.035541777
0001e0 99 41 a0 3c 1c 27 cd 3c f6 8c 84 bd 0a 4e 95 3c
       0.01956253 0.025043063 -0.06472199 0.018225688
0001f0 e4 47 65 3d 7c ac a8 3d a8 f5 0e bd da f3 8a 3c
       0.055976763 0.08236024 -0.034902245 0.01696198
000200 4f 01 c8 bc c1 18 af 3a 45 46 1e bd c2 0c b1 bc
       -0.024414686 0.0013358818 -0.038641233 -0.021612529
000210 07 f2 65 3d 47 34 21 bd 96 1e ae bc 29 a2 f4 3c
       0.05613902 -0.039356496 -0.021254819 0.02986248
000220 75 34 3c bd 27 e7 8a 3d 45 6b 1a bd 74 04 22 3d
       -0.045948464 0.0678237 -0.037699956 0.039555028
000230 2b 94 de bc ca 03 54 bc 80 bc 9c 3d 14 1e 5c bd
       -0.027170261 -0.0129403565 0.07653141 -0.053739622
000240 a1 03 11 3d fa ca 08 3d 7d 6d 4d 3d d9 38 89 bc
       0.03540385 0.0333967 0.050153244 -0.01675074
000250 b7 ee 96 3d 0f a7 94 bc 10 ef 82 bd 39 cd 46 3d
       0.0736975 -0.018146066 -0.06393254 0.04853556
000260 95 25 1b bd 4c 96 65 3d f2 f7 f1 bb d3 e4 c4 bc
       -0.037877638 0.056051537 -0.0073842937 -0.024034893
000270 10 e2 1f bd e7 69 0c bc 89 cc f6 bc 63 99 01 3d
       -0.03903395 -0.008570171 -0.030126827 0.03164042
000280 9c 9f 82 3d 1c 1f 76 3d 0e 20 80 38 ec 81 ad bc
       0.06378099 0.060088262 6.109486e-05 -0.021180116
000290 6d 56 6a bc 19 a8 12 bd 92 46 09 3d 04 d3 83 3d
       -0.014302832 -0.03580484 0.033514567 0.064367324
0002a0 6f 80 24 bd 7b d4 d4 3c 17 d2 59 bb 76 4a fd bc
       -0.040161546 0.025980225 -0.0033236796 -0.030919295
0002b0 fc 65 07 bd dd db bf bc 7c 32 39 3d 52 96 61 3d
       -0.033056244 -0.023420269 0.04521416 0.055074997
0002c0 cd 82 ac 3d 27 cc 42 3d b4 64 05 bb 9a d0 c2 3b
       0.08423386 0.047557976 -0.0020354213 0.0059452774
0002d0 07 a3 82 3d 52 a2 b2 bb 92 f7 c2 ba 73 9d a2 ba
       0.06378751 -0.005451479 -0.0014874807 -0.0012406543
0002e0 34 31 37 b9 82 69 83 3c f5 c1 64 bd 76 d3 39 3d
       -0.0001747057 0.016041521 -0.055849034 0.04536768
0002f0 f4 8e 8a 3d 8d ca 3c bd 90 53 25 bd b7 72 36 bd
       0.067655474 -0.046091605 -0.040362895 -0.044542994
000300 0a cd 77 3d 0b e3 2b bd ff c4 77 3d 52 07 49 3d
       0.060498275 -0.041964572 0.060490604 0.049079247
000310 28 32 8f 3d db 4e 87 3c d6 0b c5 3c e8 5d 4a 3c
       0.069919884 0.016517093 0.024053495 0.012351491

fc4.weight f4 [6, 200]
000000 e4 ea b5 3d 9c 7e dd bd 96 e4 77 bc 23 97 e4 3c
       0.088826925 -0.108151644 -0.015130183 0.027904099
000010 4f 0e a3 3d 2c c2 96 bd 7a 3b c1 3d ef 0d 8c 3d
       0.079617135 -0.07361254 0.094351724 0.06838595
000020 22 cf 13 bd c3 0d bb 3d c6 2f bd 3d ad 5a 70 bc
       -0.03608621 0.09133484 0.09237628 -0.014670056
000030 8b f7 20 3c a9 47 36 bc 51 d3 bd 3d 83 36 95 bc
       0.009824644 -0.011125484 0.09268821 -0.01821447
000040 ea e6 95 3c 5a d4 53 3d c3 76 1d 3d f6 f0 ea bd
       0.018298585 0.051716186 0.038443338 -0.11471741
000050 e8 c4 b0 bd a4 1c 88 bc 60 f8 1e bd a2 e9 ad bc
       -0.08631307 -0.01661522 -0.038811088 -0.021229569
000060 b2 d8 bf bd 88 4e 6d bc 77 00 00 be 98 38 c5 bd
       -0.09367503 -0.014484055 -0.12500177 -0.09629935
000070 7f 37 c6 3d 14 8e a8 3d 9a e5 32 3d 4d c8 99 ba
       0.09678554 0.08230224 0.043675996 -0.0011732668
000080 fb b8 90 3d d0 6f ca bd c9 c0 91 bc ea 20 b4 bd
       0.07066532 -0.09884608 -0.017792122 -0.0879534
000090 ab 26 42 bd 73 a0 08 3c 5b 8e 5f 3d 25 5d 28 bd
       -0.047400158 0.008339035 0.05457912 -0.041104455
0000a0 f0 4f 6b 3d d2 bb 0e bc ba 25 65 bd 5c 73 3c bc
       0.05744928 -0.008711772 -0.055944182 -0.011502113
0000b0 22 eb 44 bd 70 07 48 bb 6b 75 0f 3d 6e cc 5e bc
       -0.048075803 -0.0030522011 0.035024088 -0.0135985445
0000c0 6b fd 8b bd 0e 3b 3d bd c5 3c c9 bc 43 d9 ec bc
       -0.06835445 -0.046198897 -0.02456511 -0.028912192
0000d0 4c 5c b2 bd 33 fd 16 3d c4 65 54 3d 7e 67 bb bd
       -0.087090105 0.036862563 0.051854864 -0.09150599
0000e0 fa 92 a8 3d 54 00 8f 3d a9 e6 de 3c d6 28 9c bd
       0.082311586 0.069824845 0.027209597 -0.07624976
0000f0 77 49 7b bc 23 4c 2d 3c 43 01 49 bd 25 6c b0 bc
       -0.01533734 0.010577234 -0.04907347 -0.021535942
000100 99 de ca bd 14 36 bd bd a7 c2 fb bc 26 e6 a8 3d
       -0.099057384 -0.0923883 -0.030732466 0.08247022
000110 84 c3 a7 bd 89 dd a5 bd f9 91 31 bd d4 08 5a bc
       -0.081915885 -0.08098895 -0.0433521 -0.013307769
000120 ce 02 6b 3c c4 8c 86 3d 41 fa e5 3b 76 7e 99 3d
       0.01434393 0.06569818 0.007018358 0.07494824
000130 a5 6f 95 3d 60 ef 36 3c 3a 1e a9 bd 75 70 a9 bd
       0.07296685 0.01116547 -0.082577184 -0.082734026
000140 9f 1f 8e 3c 56 20 e8 3c 4c 55 73 bd 66 92 50 bd
       0.017349062 0.028335731 -0.059407517 -0.050920866
000150 56 5f 0f 3d cd 55 fd 3b e2 19 3a 3d df 44 c6 3d
       0.03500303 0.0077311755 0.04543484 0.09681105
000160 66 36 d3 bd 51 9b 9b bd a1 2f 8b 3d 2e 52 b9 bd
       -0.1031311 -0.07597984 0.06796194 -0.09048878
000170 84 fa 78 bd cd 57 c4 bd 34 cd ad 3d 0f 30 4e bd
       -0.060785785 -0.09587059 0.08486405 -0.0503388
000180 07 e6 d5 bd 83 c7 82 bd 71 b9 ac 3d b8 90 c0 bd
       -0.10444265 -0.0638571 0.08433808 -0.09402603
000190 50 87 59 bc da c9 ba bd 24 a0 b8 3d f0 9f 81 bd
       -0.01327689 -0.091205314 0.090149194 -0.06329334
0001a0 11 7c 85 3d 12 0d 68 bd 6c f2 d0 bd bb 25 31 bc
       0.065178044 -0.05665309 -0.10202488 -0.010812218
0001b0 73 28 f6 bb 8a 4c a8 3d 06 a9 b9 3c 98 31 15 bd
       -0.007512146 0.08217724 0.022663604 -0.03642425
0001c0 8a b7 a0 bd 10 67 4e bd 8b 67 27 3d 24 43 68 3d
       -0.07847507 -0.050391257 0.04087023 0.056704655
0001d0 37 63 7f bd 85 ad aa bd 10 28 11 3c 62 4a b2 bd
       -0.062350478 -0.083338775 0.008859649 -0.08705594
0001e0 a9 28 3e 3d e8 82 d5 ba e6 d8 08 3d 3a dc 93 bd
       0.046425495 -0.0016289623 0.033409975 -0.07219739
0001f0 14 88 8b bc 7a a8 9a bd 7b c1 50 ba ae e5 af bd
       -0.01703266 -0.075516656 -0.0007963401 -0.0858873
000200 8a 86 be bd ed c4 62 3d a7 51 78 bd 61 f7 db 3d
       -0.09303005 0.055363584 -0.060624745 0.10740543
000210 3c f7 54 3c de 7a 4b 3d b2 85 ed bc a6 45 9e bb
       0.012998398 0.049677722 -0.028994415 -0.00483008
000220 d0 fd 79 3c 37 87 08 3d 04 78 92 bd 5a 19 69 bd
       0.0152582675 0.033332076 -0.071517974 -0.056908943
000230 12 ef 94 3d ca a6 d4 3d 13 eb aa bd fa 0b 13 bd
       0.072721615 0.10383375 -0.08345618 -0.035900094
000240 2e f7 6e bd 2e 8d 43 3d 9b 6a b8 3d d6 46 89 3d
       -0.058341198 0.04774206 0.090047084 0.06702964
000250 b3 a3 87 3a f2 a8 25 bc e5 e4 a3 bc 54 4a b5 3d
       0.0010348469 -0.0101110805 -0.020006606 0.088520676
000260 c3 81 c0 3d b9 10 31 bd c0 77 8f bd 77 ff c6 bd
       0.0939975 -0.04322884 -0.070052624 -0.09716695
000270 55 73 bc 3d b7 84 6a ba ba a5 ab 3d 14 74 2a bd
       0.09201685 -0.00089461677 0.08381219 -0.041614607
000280 91 36 bf bd 63 8f 96 bd f4 af 86 bd 66 bf 97 bc
       -0.093365796 -0.073515676 -0.06576529 -0.018523883
000290 5a 10 76 bd a1 88 2c bd 52 5a a1 bd 67 3f de 3c
       -0.060074188 -0.042122487 -0.07878555 0.027129842
0002a0 c3 21 c0 bd a1 2a b6 bd 8b 23 b0 3d 4a 1d 19 bd
       -0.093814395 -0.088948496 0.08600529 -0.037381448
0002b0 11 0c 89 3d 83 31 dd bd 91 f1 a4 3d 80 d1 cf bd
       0.066917546 -0.10800459 0.08053888 -0.10147381
0002c0 e6 3f 19 3c bb 5b 41 3d 5f 1e 8d bb a5 b8 a1 3c
       0.0093536135 0.04720662 -0.004306599 0.019741366
0002d0 59 28 0f 3d a8 30 89 bd 14 88 56 bd ac 33 cf 3d
       0.034950588 -0.066987336 -0.052375868 0.101172775
0002e0 5a cf b7 3d a3 4d 9d bd d5 fd 8b 3c 11 61 62 bb
       0.08975096 -0.07680824 0.01708881 -0.003454272
0002f0 78 be d5 bb 03 79 59 bd 2f 3c 6c 3d e8 af a5 3d
       -0.00652295 -0.05309392 0.057674583 0.08090192
000300 33 be cf bd 6e b5 80 3d 2a a1 58 bc 6e 59 43 3d
       -0.101436995 0.06284605 -0.013222018 0.04769271
000310 f4 fc 0c bd 90 2c c4 3d 61 71 98 3d 25 2c 8b 3d
       -0.034420922 0.09578812 0.074435 0.06795529
000320 35 a2 71 3d 7a 3d 05 bc b6 1b be bd 73 31 f8 bd
       0.058992583 -0.008132333 -0.09282629 -0.12118807
000330 ce 4b 68 bd f4 15 47 3d 2d dc 1c 3d a7 98 8c bd
       -0.056712918 0.04860492 0.038295913 -0.068650536
000340 94 80 bd bd c9 79 a2 bb 75 55 f0 bc 1f 8b 25 3d
       -0.0925304 -0.0049583656 -0.029337624 0.04041588
000350 cb 5c ab 3c 52 d7 4c 3d 3d c5 3a bd 35 8b f2 bd
       0.02091827 0.050010033 -0.045598257 -0.11842958
000360 4a b4 5f bd 4c 99 99 3c 5f dc 28 bd df 7d fa 3c
       -0.054615296 0.018749855 -0.041225787 0.030577598
000370 b6 99 9e bc 0b 35 27 bd fe a4 3e 3d 91 a9 12 bd
       -0.019360404 -0.04082207 0.046544068 -0.035806242
000380 d8 72 b3 bb 28 55 96 bd d4 71 6b 3c f9 97 cf 3d
       -0.005476337 -0.07340461 0.0143704 0.10136408
000390 b5 33 bb 3c ae 18 45 bd 33 57 9e 3c 51 03 c5 bd
       0.022851804 -0.04811924 0.01932869 -0.09619773
0003a0 ef 46 b9 3d ce 37 3c bd ee 52 c3 bd 8a 57 ae bb
       0.09046733 -0.045951657 -0.09537302 -0.005320494
0003b0 fc b1 89 3d 4a 1a ba 3d 76 3e f3 bc b4 a1 6e bc
       0.06723401 0.090870455 -0.02969287 -0.01456492
0003c0 86 a2 3d bd b7 e0 96 3d 8b 75 bc 3d 71 23 bc bd
       -0.046297573 0.0736708 0.09202107 -0.091864474
0003d0 97 0c c1 3d 98 df 79 bd e6 7d c4 bd 4a 73 81 3d
       0.094262294 -0.06100425 -0.09594326 0.06320818
0003e0 b3 e2 52 bd c3 c6 af bc ce 14 33 bd 77 3f 4e 3d
       -0.05148573 -0.021457082 -0.043721013 0.050353494
0003f0 d7 8a cd 3d 4f d7 ce bb 39 45 03 3d 45 70 8f 3d
       0.10036247 -0.006312288 0.032048438 0.070038356

fc4.bias f4 [6]
000000 b9 c2 72 3d 74 e3 94 3c cd 9f 85 3c fb 8f 7a 3d
       0.059267733 0.018174864 0.01631155 0.061172467
000010 e3 82 2c 3b 05 d5 35 3b
       0.0026323132 0.0027745378
