checkpoint.pt (torch, 416237 bytes, 8 tensors)

fc1.weight f4 [200, 108]
000000 f8 61 a3 bc 02 a6 65 bd 35 30 78 3c 87 20 63 3d
       -0.019944176 -0.05606652 0.015148212 0.055450942
000010 70 ef b6 bc 77 a2 7a bc 9a 46 b7 bd e7 e2 b1 3c
       -0.02233097 -0.015297524 -0.08949013 0.02171464
000020 dc d6 42 bd 1a dc 5f bd 29 6f a7 bc b5 47 ba 3c
       -0.047568187 -0.054653265 -0.020438747 0.02273927
000030 31 48 e3 3c 9a 98 2c 3c 52 03 58 3d 13 ba 88 bc
       0.027744384 0.01053443 0.05273754 -0.01669029
000040 71 75 1d bc cb 64 b5 bd ce 81 bd bd 2b 33 93 bd
       -0.00961052 -0.08857115 -0.09253274 -0.07187494
000050 6e 3d d9 3c 79 7a 8b bc f2 51 ba bd 4a 42 c6 bd
       0.02651855 -0.017026173 -0.09097661 -0.096806124
000060 43 1a d1 bd f4 fd 23 3d be 77 b1 bd e1 9e 68 3d
       -0.10210087 0.04003711 -0.08665417 0.056792144
000070 bb 7a 90 bc 9a da 3b bd e3 af be 3d 4f 78 a2 3d
       -0.017636647 -0.04586277 0.093108915 0.07933103
000080 fd d1 94 bd d6 e8 0a ba ec b3 cd 3c 82 0e a5 bd
       -0.072666146 -0.00052989775 0.025110207 -0.08059408
000090 01 9d 8a 3c 91 1e 90 ba 9c e6 0d bd b8 5e 01 3d
       0.016920568 -0.0010995438 -0.034643754 0.03158447
0000a0 c9 9e b4 bd c9 9e c2 3d 10 c1 b6 bd e4 77 78 bd
       -0.08819348 0.09502942 -0.089235425 -0.06066121
0000b0 b4 0b a5 3c 27 29 a1 3c 9b 07 8a bd 7e 12 85 bd
       0.020147182 0.019672943 -0.06739732 -0.06497668
0000c0 f7 32 9f bd fa 62 89 3c 67 d7 84 3c 98 e4 a2 bd
       -0.07773393 0.016770829 0.016215993 -0.07953757
0000d0 98 8f ef 3a d6 a8 cc 3c e4 c0 3b bd a1 4f b7 3d
       0.0018277047 0.024982851 -0.04583825 0.08950735
0000e0 15 30 df bc 03 19 cd bd 6b d1 34 bd 50 5b 61 3b
       -0.027244607 -0.10014536 -0.04414503 0.0034386702
0000f0 e7 ea 8b 3d b6 8f a1 3d 1c c9 86 bd df 94 4f 3c
       0.068319134 0.07888739 -0.06581327 0.012669771
000100 8e b9 b4 bd 5f 5d c6 bb 90 bf 72 bd 53 41 90 bd
       -0.08824454 -0.006053611 -0.05926472 -0.070437096
000110 9b d9 bf bd a0 49 bf bd c0 58 7a 3d ee 9f 96 3d
       -0.09367677 -0.09340215 0.061119795 0.07354723
000120 fd 19 a7 b9 54 8b 00 bd 61 9e 9c bc e5 2c 63 3d
       -0.00031872085 -0.031382874 -0.01911849 0.055462737
000130 22 fa bb bd 7b 3f 03 3d 2d 89 0e bd 61 ef e6 3d
       -0.091785684 0.03204296 -0.03479879 0.11276127
000140 00 79 68 3d 22 fe 8e bd 79 93 04 bd fc 13 1c bd
       0.05675602 -0.06982066 -0.032367203 -0.038104996
000150 c5 6e 38 3d ba 47 9a bd 22 6a 7e bd 1d 11 f7 bb
       0.045027513 -0.07533212 -0.062112935 -0.007539882
000160 fa 8b 37 bd cf b5 35 bd b8 d8 f5 bb e0 86 dc 3c
       -0.044811226 -0.04436284 -0.0075026415 0.026919782
000170 f1 3b 76 3d 38 ca ae 3d c2 c9 08 bd b6 c3 b8 bd
       0.06011576 0.08534664 -0.033395536 -0.09021704
000180 7e 0c ff 39 b4 b6 79 bd 9d ba 2f 3d e1 18 c9 3c
       0.00048646698 -0.060965255 0.042902578 0.024547996
000190 6b 06 03 bd 76 12 7f bd 50 f0 b2 3d 13 af 94 bd
       -0.031988543 -0.062273465 0.08737242 -0.07259955
0001a0 c1 82 cf bd b4 ea 28 bd ff 24 a9 b9 33 4f a4 3c
       -0.10132361 -0.041239455 -0.00032261756 0.020057296
0001b0 45 43 62 bc 88 29 1b 3c 7a de 16 bd c8 ee a1 bd
       -0.013809984 0.009470351 -0.036833264 -0.07906872
0001c0 b7 4a 7d bc 4b e3 5a 3d 2e 2e eb bd 57 a8 d6 bd
       -0.015459708 0.05343942 -0.114834175 -0.10481327
0001d0 0e d2 b2 3d cc a7 c8 3b ee 6b ae bd a5 64 cd bd
       0.08731471 0.0061235186 -0.0851668 -0.10028962
0001e0 2a 17 5b bd 8d 6b ab bd c9 f2 86 bc 8a 88 a9 3d
       -0.053488888 -0.08370123 -0.01647319 0.08277996
0001f0 32 5d d2 bd b6 50 d4 bd c9 52 0d 3d 37 82 a8 3d
       -0.10271682 -0.10366957 0.03450278 0.082279615
000200 4b 6b 35 3d d4 8d e7 bc 9c 8a b0 3d 26 03 c5 ba
       0.044291776 -0.028265871 0.08620188 -0.0015030846
000210 85 f9 13 3d b7 5f b3 bd 43 a2 c1 bd 3a 62 93 3c
       0.036126632 -0.087584905 -0.09454777 0.017991174
000220 83 30 1d 3d 2c 34 2d bd f1 16 25 3a 03 a9 9e bc
       0.038376343 -0.042286083 0.0006297669 -0.0193677
000230 21 d4 b9 bd 06 b6 1b bd 83 41 2c bd 20 6c a1 bd
       -0.090736635 -0.038015388 -0.042054664 -0.07881951
000240 49 46 0a bd 13 79 90 3d 46 40 64 bd 2a 25 ab 3d
       -0.033758435 0.07054343 -0.05572536 0.08356698
000250 62 14 1b 3d 36 23 78 bd 8a e7 18 bc c6 5b b3 3d
       0.037861235 -0.060580455 -0.009332547 0.08757739
000260 a3 4b 27 3a d8 49 07 3c ca 09 8b 3d c6 4d 8c 3d
       0.0006381815 0.008257352 0.067889765 0.068507716
000270 54 0f 92 3d 7d 74 02 3d c6 05 85 bc 8f b5 71 bc
       0.0713183 0.031849373 -0.016238105 -0.01475276
000280 f9 7b 61 bd d9 1b c8 bc 2f f1 a2 3d b3 27 34 3d
       -0.05504987 -0.024427341 0.07956158 0.043983173
000290 4e 2b bb bd 0f 0b d9 bc 3e e8 3a 3d d0 32 cd 3c
       -0.09139119 -0.026494531 0.04563164 0.025048643
0002a0 16 84 64 bd 51 b0 9a 3d 92 ce 10 3c ff d3 bc bc
       -0.05579003 0.07553161 0.008838313 -0.023050306
0002b0 08 89 0a bd 50 38 cb bd 16 20 15 bd 1c 16 88 3d
       -0.03382209 -0.0992285 -0.036407553 0.06644842
0002c0 1a 1c 2a bd 73 77 b3 3d 00 97 03 3d 8b 3a 29 3b
       -0.041530706 0.087630175 0.032126427 0.0025822248
0002d0 8c 20 b0 bd 73 16 d5 3c 02 48 5e 3d d6 cd 66 bd
       -0.08599958 0.026011681 0.05426789 -0.056348644
0002e0 35 7f 3d 3d dd 40 89 3d 6d 6a a1 3c 01 a2 e4 3d
       0.046263892 0.06701825 0.019704068 0.11163712
0002f0 84 a9 08 bc 18 ed ac 3c 20 b5 83 3d 31 cb fb 3a
       -0.008341197 0.021109149 0.06431031 0.0019210336
000300 99 d5 ce bd ab 2c 37 3d 59 af 5f 3d c4 79 dc bd
       -0.10099334 0.044720333 0.054610584 -0.107654124
000310 fb 14 50 bc 9f 0a 10 3d 1c 94 78 3d 7a 4b 38 3d
       -0.012700315 0.03516638 0.060688123 0.044993855
000320 51 c8 a2 3d 06 e0 1a bc 3b 5b d6 3c ca b6 c0 bd
       0.079483636 -0.009452825 0.026166549 -0.09409864
000330 3c 2a 9e 3d 3f a9 06 3d 1f 76 93 3c af d5 5c ba
       0.07722899 0.03287625 0.01800066 -0.00084241753
000340 6f 96 ab 3d 47 f6 2a bd eb 55 0c bd ec ac 91 bd
       0.08378302 -0.041738775 -0.034261625 -0.0711306
000350 e1 4f 9c bd ec c9 15 bd 3f 91 a3 3d e0 8a b4 3d
       -0.07632423 -0.03656952 0.07986688 0.08815551
000360 35 68 41 bc 2d d5 0c b9 65 fe 88 bd 17 25 5e 3d
       -0.01180463 -0.00013430855 -0.06689147 0.05423459
000370 6a 42 64 3d 7e 93 3d bd e4 02 34 3d 3f 6b bd bc
       0.0557274 -0.046283238 0.04394807 -0.023122428
000380 86 00 5d 3d 91 17 2b 3d 83 1b a4 3c 65 b8 2e 3d
       0.053955577 0.04177052 0.02003265 0.04265632
000390 ff 24 8f bd e3 0d d4 3c 69 b3 ca 3d 75 1d ad 3d
       -0.06989478 0.025885528 0.09897501 0.08452884
0003a0 4c 26 c7 3d a5 a8 9a bd 2c 15 69 bd de fe f3 3c
       0.097241014 -0.07551698 -0.056904957 0.029784616
0003b0 76 46 84 bc 44 f6 9a 3d ed d7 97 bd 56 ab 82 bd
       -0.01614688 0.07566503 -0.074142314 -0.06380336
0003c0 82 c3 ab 3d f6 4d c3 bd 10 2d 6e bd 92 35 72 3d
       0.083868995 -0.09536354 -0.058148444 0.05913312
0003d0 60 a5 59 bc da 95 2b 3d ed 02 dc bd aa 82 cb 3d
       -0.013284057 0.041890956 -0.107427455 0.099370316
0003e0 15 06 89 bd 8a 92 b3 bd 6c f5 86 3d 33 a5 ad 3d
       -0.06690613 -0.087681845 0.06589779 0.08478775
0003f0 8d 55 a9 bd 9b 45 95 bd ad 9c aa 3d a9 c2 82 3d
       -0.08268271 -0.07288667 0.08330665 0.06384785

fc1.bias f4 [200]
000000 8e f2 0d 3e 7d 73 2f bd bc 25 98 bd ff 3c 96 ba
       0.13862059 -0.042834748 -0.07429072 -0.001146227
000010 2e c2 04 3e be c0 ed 3d 12 66 79 bc 33 a0 94 bb
       0.12964699 0.11609028 -0.015222089 -0.004535699
000020 4b 43 09 3c 36 e4 ea 3d 40 17 55 3d 39 96 a2 3d
       0.00837786 0.11469309 0.052024126 0.07938809
000030 f7 c3 68 bd f7 ac a9 b9 ac 7a 2a 3c 64 88 02 3c
       -0.05682751 -0.0003236306 0.010405224 0.007967088
000040 7b bc ad bd cf c5 c6 3c fc b9 d0 bc a0 a0 d3 bc
       -0.084832154 0.024264244 -0.02547931 -0.025833428
000050 a3 f1 ce bc 4e 5c 70 3c a7 c5 3b bd 36 6d b4 bc
       -0.025261706 0.014670445 -0.045842793 -0.022024732
000060 4c a8 1d 3d eb d9 29 bd cd 73 59 3c a1 e8 ff bc
       0.03849058 -0.04146759 0.013272238 -0.031238856
000070 bb ab 29 bd a0 2b 76 3d f1 61 9c 3d d1 ae f4 bc
       -0.04142354 0.060100198 0.07635868 -0.029868515
000080 6a a3 06 bd e4 87 7e bc 9e 7c b1 3d 2a 86 9f 3d
       -0.032870688 -0.015535329 0.08666347 0.07789262
000090 43 fa a0 3d af 59 f0 3d 4c d5 fe 39 18 9b f1 bc
       0.07860234 0.11735856 0.00048605574 -0.0294929
0000a0 fb 33 24 3d 06 42 eb ba 08 c8 a4 3d 57 39 ce 3d
       0.040088635 -0.0017948754 0.080459654 0.100695305
0000b0 dc 84 8c 3c 2a 6b b7 3c 95 fb 03 3e 02 47 e6 3d
       0.017153196 0.022389967 0.1288894 0.112440124
0000c0 cf 43 84 ba f9 ef 72 3d ad 3d ee 3c 45 f4 cc 3c
       -0.0010091009 0.059310887 0.029082144 0.02501882
0000d0 99 b1 ad 3d e5 40 53 bc 35 80 09 3e 1e 4d 00 bd
       0.0848114 -0.01289389 0.13427813 -0.031323545
0000e0 45 e3 f3 3c 4e 78 21 3d 29 b3 e8 3c f1 c7 85 3d
       0.029771456 0.039421372 0.028405743 0.065322764
0000f0 33 85 e9 bc 1b 85 c6 3d 37 70 28 bd ce 52 f1 3d
       -0.028505897 0.096933566 -0.04112264 0.11783372
000100 29 8a 5e bc 86 0c 06 b9 12 c5 5a 3d ef b7 00 bd
       -0.013582745 -0.00012783901 0.053410597 -0.031425413
000110 c2 e3 03 3e 13 1a 8d 3d 27 ef 8f 3d 2b 70 b0 3d
       0.12879851 0.06889739 0.070280366 0.08615144
000120 27 3f 26 bd dd 73 9d 3d ef f0 c5 3d be 7c 37 bc
       -0.04058757 0.07688115 0.09665095 -0.011199174
000130 f4 d3 45 bd 5b c4 a1 3d 50 c1 06 3d 50 48 5e bd
       -0.048297837 0.0789878 0.0328992 -0.05426818
000140 7e 9b c1 bc bd 94 f4 3c ce 4d f9 3d 0f 3b a5 3c
       -0.023633715 0.02985608 0.12173043 0.020169763
000150 1e 1b 2e 3c e1 b6 25 3d 92 97 d4 3d fb b9 a0 bd
       0.010626582 0.04045761 0.10380472 -0.07847973
000160 ba 93 d8 3c 0c 1b 88 bb 76 cd 9a bd 67 28 1e 3d
       0.026437629 -0.004153615 -0.0755872 0.03861275
000170 bf 06 e7 3d 07 ee 85 3d 0d db 1b 3d 88 f1 00 bd
       0.112805836 0.06539541 0.0380507 -0.031480342
000180 31 dc b4 3d 03 a6 23 3d 3e 5e 03 3c c6 f5 ad 3d
       0.08831061 0.039953243 0.008018075 0.08494143
000190 e8 43 b4 3c 76 dd 94 bc 63 b4 67 3d e0 33 f8 bc
       0.022005036 -0.018172007 0.056568515 -0.030298173
0001a0 a4 cd 1b bc 80 94 9a 3d 29 a1 ea bc 28 dd 26 bd
       -0.009509478 0.075478554 -0.0286413 -0.040738255
0001b0 46 ab c1 3d 40 e1 af 3d ee 72 70 bc f8 3b 61 bc
       0.09456496 0.08587885 -0.014675839 -0.013747208
0001c0 c4 8d df 3d e0 15 e0 3c ec e2 d7 bc 17 78 ef 3d
       0.109157115 0.02735418 -0.026353322 0.11692827
0001d0 ee d7 ae 3d dc 69 a6 3d 12 53 5e 3d fc d1 be bc
       0.08537279 0.0812566 0.05427844 -0.023293488
0001e0 b1 f6 6b 3b 76 b4 19 bd b4 83 5e bc d2 aa bd 3d
       0.0036005194 -0.037525617 -0.013581205 0.09261097
0001f0 f9 25 3f 3c ab 81 01 3c 38 b0 f5 3d d2 88 d2 3d
       0.011666768 0.00790445 0.11996502 0.10280003
000200 3f 59 16 3d 40 91 08 3e e1 f3 8a bc 41 9d 8a 3d
       0.036706205 0.13336658 -0.016961994 0.06768275
000210 01 bc c7 3d ea cb 3b bc c4 89 07 3d a3 73 6f bd
       0.09752656 -0.011462191 0.033090368 -0.05845989
000220 d8 c4 9a 3d a9 90 8a bd 84 46 21 bc 70 8d ed bb
       0.07557076 -0.06765873 -0.009843472 -0.0072495267
000230 78 08 97 3d 56 d8 02 bd 53 12 24 bd f4 54 b9 3d
       0.07374662 -0.031944595 -0.040056538 0.09049407
000240 93 00 c8 3d 5e 9b a2 3d 10 46 53 bc 8c 51 e5 3b
       0.097657345 0.0793979 -0.012895122 0.0069982465
000250 35 28 dc 3d 6b c3 95 3d 01 08 ed 3d 91 d3 d5 3d
       0.107498564 0.07312664 0.11573792 0.10440744
000260 cd 8d 9c 3d 41 19 bc 3c 80 04 d0 3c 19 a2 b8 bb
       0.07644234 0.02296126 0.02539277 -0.005634558
000270 91 5e 28 bd f8 f2 57 bc 14 33 41 3b 9c e4 bd 3d
       -0.04110581 -0.013180487 0.0029479908 0.092721194
000280 ce a6 06 3d 07 df 48 3d 42 23 a2 bc d3 a3 6b 3d
       0.03287392 0.04904082 -0.019792203 0.05752928
000290 07 49 d6 3d d6 53 20 bc db 51 ce 3c 54 40 4a 3d
       0.104631476 -0.009785613 0.025185516 0.049377754
0002a0 14 c5 17 3d 04 76 97 3d 18 5a ae 3d cd bb 30 bd
       0.037053183 0.073955566 0.08513278 -0.04314785
0002b0 d3 99 04 3d eb 13 4d bd 2d 9b a5 3d 33 c6 b8 3c
       0.03237326 -0.050067823 0.08086238 0.022555446
0002c0 4b fd 8b bc 96 68 d4 3d 11 5c eb bb 1b a0 7f 3b
       -0.017088553 0.10371511 -0.007182606 0.0039005342
0002d0 f0 59 95 bc 72 9f 00 bc 40 27 86 bb 78 b3 c5 3c
       -0.018231362 -0.007850515 -0.0040940344 0.024133429
0002e0 21 d5 9a 3d cf e9 74 bc 4a e3 46 3d 69 a6 45 3d
       0.07560182 -0.014948322 0.048556603 0.048254404
0002f0 5d df 66 bd 4b 80 95 3d 0f 20 4f 3d d1 6a ef 3d
       -0.05636536 0.072998606 0.050567683 0.116902955
000300 74 33 f7 3d 7d 48 ce 3d 64 ae 85 3d 43 f9 2d 3d
       0.12070361 0.1007242 0.06527403 0.042474043
000310 ba 2a 3b 3c 57 ae b2 3d 73 5b a9 3d 7f d7 ef bb
       0.011423761 0.08724659 0.08269396 -0.0073193903

fc2.weight f4 [200, 200]
000000 5f 6d 3a 3b 83 17 db bc 9c e3 39 3d a4 bb fa bb
       0.0028446538 -0.02674461 0.04538308 -0.007651763
000010 b2 49 a4 3c 6e 2d 28 bc dc 14 15 bd eb 47 f8 bc
       0.020054672 -0.0102647375 -0.036396846 -0.03030773
000020 d3 e1 3b 3d 8f 75 7c 3d ed 50 17 3c 8e c5 dd 3c
       0.04586966 0.06163555 0.009235603 0.02707174
000030 8a 82 03 3d 84 3f f3 bc 97 b5 be 3c 6c e7 07 3b
       0.032106914 -0.029693373 0.023279948 0.0020737303
000040 64 f4 99 3d 53 1d 45 bd da 53 93 3c 4c d0 2a bb
       0.07517317 -0.04812367 0.01798432 -0.0026064096
000050 c0 95 91 3d 44 86 11 bd e2 38 5b bd de 80 a4 bc
       0.07108641 -0.035528436 -0.053521045 -0.02008098
000060 6a c9 c4 3c 6f e3 4e bd b0 bf 46 3d 78 0f aa 3c
       0.024021823 -0.050509866 0.04852265 0.02075933
000070 20 35 ec bc 4c 0d c1 bc 4e 92 3b 3d 45 dc a9 bd
       -0.028833926 -0.02356591 0.045793824 -0.08293966
000080 95 22 6f bd cd 29 1c bc 46 f3 b2 bc 4f ae 84 3d
       -0.05838259 -0.00953145 -0.021844517 0.06478559
000090 d0 88 03 3b 0b 66 12 3d ee c5 47 3d db bd 77 bd
       0.002007056 0.035741847 0.048772745 -0.060483795
0000a0 60 46 49 3d 8f 7d dc 3c a1 39 5d bd ed 0e 9a bd
       0.04913938 0.02691534 -0.054010037 -0.07522378
0000b0 bc ec 87 bc 00 0b a5 3d 66 af 49 3c f2 ff 78 3d
       -0.016592376 0.08058739 0.012309885 0.060790963
0000c0 60 7f 3d bd b0 91 90 bd dd d1 cc 3c 12 f0 44 bd
       -0.046264052 -0.07059038 0.025002414 -0.04808051
0000d0 bf f9 32 bc d3 f0 0f bd 5e e9 42 3d fc 78 89 3d
       -0.010923802 -0.035141777 0.047585838 0.06712529
0000e0 2b 9c 8f bd 9c 60 f7 bb ef 8a fe 3c 72 08 b1 3d
       -0.070122086 -0.0075493585 0.031072108 0.08644189
0000f0 89 7e cc 3b 94 e8 2e 3d cf b5 42 3d ba a8 5c 3d
       0.00624067 0.042702273 0.047536667 0.053871848
000100 6e af 2b bd 75 68 33 3d 24 2b 57 3a fa b8 0e 3d
       -0.04191535 0.04380079 0.00082080276 0.034844376
000110 ac 17 5b bd 0f 07 51 bd e1 54 17 3c 94 d3 4d 3b
       -0.053489372 -0.051032122 0.009236545 0.0031406628
000120 50 d2 dc 3b b2 d6 13 3d c9 63 2a 3d e4 1e 2b 3d
       0.0067389384 0.03609342 0.04159907 0.041777506
000130 cc 37 02 bc 7a 95 4c 3d f4 37 f7 3c e4 6d 9d 3c
       -0.007947873 0.04994724 0.030178048 0.019217439
000140 e9 31 17 bb 74 62 3d bd 7b e6 3e 3c 04 45 d1 3c
       -0.002307052 -0.04623647 0.0116516305 0.025545605
000150 74 f8 da 3d d9 7a 14 bd ef 3e bb bc b6 47 06 3d
       0.1069192 -0.03624997 -0.022857158 0.032783233
000160 59 6b 0c bc 0f 96 20 bd 5d ce 23 3d 38 ec c9 3b
       -0.008570516 -0.039205607 0.039991725 0.0061621927
000170 5c fe 9e bc 2d e8 aa bc 62 59 fc 3c a7 a1 2b bc
       -0.019408397 -0.020862663 0.03080434 -0.010475553
000180 13 d4 77 3d 83 03 aa 3d f2 70 8b 3c e8 47 08 3d
       0.060504984 0.08301451 0.01702163 0.0332717
000190 e8 91 2e bd 6f 6f 29 3d 43 a4 7e 3d bb f8 f9 3c
       -0.042619616 0.041366037 0.06216837 0.030514112
0001a0 37 1b d3 3c 74 c1 44 bd c4 4b 94 bc 23 ca 51 bb
       0.025769813 -0.048036054 -0.018102534 -0.0032011352
0001b0 35 02 8a bd 9a 01 c8 bc 19 bd 90 3d c0 80 b3 3d
       -0.06738702 -0.024414826 0.070673175 0.087647915
0001c0 ca c4 ef bc 55 c7 b3 3d 36 93 31 3d 46 29 27 3c
       -0.029268641 0.08778254 0.043353282 0.010202711
0001d0 a0 c9 1d 3d 0a 40 ae 3c f8 4a a4 3c 69 d3 95 3c
       0.038522363 0.02127077 0.02005528 0.018289285
0001e0 30 d4 19 3d 52 45 24 3d f2 24 01 bc 53 c0 65 3d
       0.037555873 0.04010517 -0.007882344 0.056091618
0001f0 80 ec d5 bc cd 42 60 bc cd d6 5f bc dd 62 87 3d
       -0.026113749 -0.013687802 -0.013662052 0.066106535
000200 92 a2 f9 3c e9 12 a5 ba 7f 35 83 3c f0 31 c3 bc
       0.030473027 -0.0012594137 0.01601672 -0.023827523
000210 07 8a 82 3b e6 fa ad 3d 55 ca 2e bd 3d ff 32 bd
       0.0039837393 0.08495121 -0.042673428 -0.043700445
000220 e8 68 9c bb f1 45 0b 3d 78 79 22 bd 09 59 00 3d
       -0.004773248 0.03400225 -0.039666623 0.03133491
000230 bb d4 9b 3c 92 26 65 bd dc e2 24 3c a3 07 5d bd
       0.019022336 -0.055944987 0.010063853 -0.05396236
000240 c6 71 5b 3d 18 3f c2 3c b8 63 46 3d 46 8b 74 3d
       0.0535753 0.023711726 0.048434943 0.059703134
000250 bc c8 8f bd 7a ba 0e bd fe 6d a7 3c 39 64 1f 3d
       -0.07020709 -0.034845807 0.02043819 0.03891394
000260 4a 79 b2 3d 37 fe a2 3d a5 58 87 3b 5f 73 54 bd
       0.0871454 0.07958644 0.0041304403 -0.05186784
000270 fc 53 13 3d 5e d7 87 3d 0e c6 4c 3d 23 af 1d 3d
       0.035968766 0.06632875 0.049993567 0.0384971
000280 ae 94 09 bd 91 ee 8f 3d 4f 02 61 bd 7a 03 d4 3b
       -0.033589058 0.07027925 -0.054933842 0.006470141
000290 10 1d 3f bd 18 18 7c 3d e2 a2 db bc f9 b5 27 3d
       -0.046658576 0.061546415 -0.026811067 0.040945027
0002a0 0b e6 6c bc 45 43 20 ba 0b 71 61 3c d8 e9 8f bd
       -0.014459143 -0.00061135396 0.013759862 -0.07027024
0002b0 d0 19 bd 3d e6 c7 51 3c e8 15 9f 3d 51 8f 0c 3d
       0.09233439 0.012804007 0.0776785 0.034316365
0002c0 d2 1a 33 3d 08 4c f1 bc a4 d2 fe 3c d5 b1 2b 3c
       0.04372675 -0.0294552 0.0311063 0.01047941
0002d0 3d 85 af bb d5 c5 6a 3d 46 99 83 3d c7 eb 12 bd
       -0.0053564594 0.057317574 0.06425719 -0.035869386
0002e0 8b d1 d4 3c 19 ad 81 3d f5 c4 20 bd 25 84 60 3d
       0.025978824 0.06331844 -0.039250333 0.054813523
0002f0 c0 ab a5 3d 22 de 3c 3d e1 31 2e bd 9c cd 0e bd
       0.08089399 0.04611028 -0.042528037 -0.034864053
000300 85 74 41 bc 56 1c 77 3d 5a ae e0 3c be 10 67 3d
       -0.011807566 0.060329758 0.027426887 0.05641245
000310 50 8f 3a bc 43 0d 72 bd 72 e1 55 3d 9f bf 70 bd
       -0.011386707 -0.05909468 0.052216955 -0.058776494
000320 6c 4f 0d bd 97 3f 46 3d 8c 3e f3 bc b6 38 bf 3d
       -0.03449957 0.048400488 -0.02969291 0.09336989
000330 94 97 ce 3d 56 23 d2 3c 0e 50 e0 bc 06 dd f5 bb
       0.10087505 0.025651615 -0.027381923 -0.0075031547
000340 36 81 17 3d 67 d5 2f bc f0 d0 53 3d 78 a5 97 3c
       0.03698846 -0.010732031 0.05171293 0.018511519
000350 e8 11 70 3d 58 e8 2f bc b9 af 72 3b 3a 47 1e bd
       0.058610827 -0.010736547 0.0037031008 -0.038642146
000360 4e 63 88 3c 55 d6 13 3d 26 ad 6d 3d d6 d9 31 3c
       0.016648915 0.036093075 0.058026455 0.010855159
000370 32 f6 e7 3c 77 fa bc 3c c4 1b 5d bc ad 06 19 bd
       0.028315637 0.02306865 -0.013495389 -0.037359882
000380 30 f6 36 3c a7 72 fe bc 9a e6 52 3d 89 99 b7 ba
       0.011167094 -0.03106053 0.05148945 -0.0014007549
000390 cb 0a 42 3d 71 7c 35 bd ba 70 fb 3c f0 51 ce bc
       0.047373574 -0.04430813 0.0306934 -0.025185555
0003a0 9c 45 3e bc 4b 53 c9 3b 8a 80 8f 3d 1a 2f 6e 3c
       -0.011613276 0.0061439625 0.07006939 0.014537597
0003b0 b7 f6 32 3d d5 94 8f bd 5d e4 4a bd 1e a5 51 3d
       0.043692317 -0.07010809 -0.04953419 0.05118286
0003c0 d6 59 8b 3d a1 1f 67 3d 89 9a b2 3d e3 0d 11 bd
       0.06804244 0.056426648 0.087208815 -0.035413634
0003d0 33 39 56 3d ce 4d be 3d f5 07 4c 3d 93 ba 4a 3d
       0.052300643 0.09292184 0.049812276 0.049494337
0003e0 ed fb 6a 3d eb 58 9c bd 22 60 cc ba 2b c0 15 bd
       0.05736916 -0.07634147 -0.0015592615 -0.03656022
0003f0 57 8b bf bb 51 cb 1a bc 3b 8d c4 3c 24 7c 7b 3c
       -0.005845468 -0.0094478885 0.023993125 0.015349422

fc2.bias f4 [200]
000000 1a 01 cf 3c 42 2f 66 3d ba 14 10 3d 73 ab 40 3b
       0.02526908 0.056197412 0.035176016 0.0029399067
000010 85 30 2c 3c c0 d3 6a 3a ce cd 94 3d 7f b8 7d 3d
       0.010509615 0.0008957945 0.07265817 0.061943527
000020 89 15 98 3d bb b7 13 3d bb d6 95 bc a5 e9 ed bc
       0.074259825 0.03606389 -0.018290868 -0.029042074
000030 bb 66 2e 3d b1 9d 99 3d eb bc ac 3c c3 fc 45 3c
       0.04257844 0.075007804 0.021086177 0.012084189
000040 c3 82 a4 3d 06 5f 3b bd 13 56 83 bb cb 3d 42 bd
       0.08032753 -0.04574492 -0.0040080636 -0.04742221
000050 94 e2 07 bc 19 c9 97 b9 ce b3 b5 bc 6e 4c 94 bc
       -0.0082937665 -0.00028950794 -0.022180464 -0.01810285
000060 e0 e3 02 bd 8e f5 9a 3d 9f 34 a1 3d cb 0e a9 3d
       -0.0319556 0.07566367 0.07871365 0.08254775
000070 4f 8f 29 bd 58 fc ee bb 88 30 b5 bb 2a 2f 42 3d
       -0.041396435 -0.0072932653 -0.005529467 0.04740826
000080 0b c9 3e bd 9a b9 36 bc 3a 76 4b 3d d1 06 73 3d
       -0.04657845 -0.011152649 0.049673297 0.059332673
000090 cd 66 a1 bc f7 be 76 3d ac bd d3 3b 75 45 35 bd
       -0.01970234 0.060240712 0.0064618196 -0.044255693
0000a0 5a 5a 4e 3d 3f 0a 9e 3d 64 24 b1 3d 2a 8f 99 bb
       0.050379135 0.07716798 0.08649519 -0.004686256
0000b0 93 19 66 3d 4e b5 d1 bb ae 30 3d 3d 88 08 71 3d
       0.056176733 -0.006399787 0.046189003 0.058846027
0000c0 56 93 ae 38 b2 e5 a7 3c 90 ca 44 bc dc 06 22 bd
       8.32441e-05 0.02049527 -0.012011185 -0.039557323
0000d0 bb e6 54 3d 75 82 d4 bc 02 cb 0e 3d 7e bd 1e bc
       0.051977854 -0.025941113 0.034861572 -0.009688733
0000e0 40 5e 49 3d 59 78 ac 3d 1c f9 94 3d 3e 23 88 3d
       0.04916215 0.08421392 0.07274076 0.06647347
0000f0 45 99 a2 bb c9 18 9e 3d ca ad 40 bd f7 82 c2 3b
       -0.004962119 0.07719571 -0.04704074 0.0059360224
000100 30 b2 5b 3d 83 af 8b 3d 2d 22 2d bd ed 28 d6 bc
       0.05363673 0.068205856 -0.04226892 -0.026142562
000110 fd 0c f5 3c d1 0b 44 3d 45 49 aa 3c 66 dc 94 bc
       0.02991342 0.04786283 0.02078689 -0.0181715
000120 43 0a 8f 3d 74 34 8a bc 13 3e 79 3d 60 87 98 3d
       0.06984379 -0.016870715 0.060850214 0.07447696
000130 07 32 2d 3d 71 63 e2 bc 36 f0 04 3d f6 5a 2a 3d
       0.042284038 -0.027635308 0.032455646 0.041590653
000140 e8 b4 06 3c b3 9f 92 3c 19 90 4c 3d 84 e0 65 3c
       0.008221842 0.017898416 0.04994211 0.0140305795
000150 7a 14 ba 3c 6e 04 b8 3d 93 3d 8c 3d ab f5 7a bc
       0.022714842 0.0898522 0.06847682 -0.015317361
000160 36 a8 91 3d cf 21 54 3d 72 31 63 3d 8b 8d 91 3d
       0.07112162 0.051790055 0.055467077 0.07107075
000170 70 e7 9c 3c c4 96 93 bc b0 52 59 bd 52 1e 7d 3b
       0.019153327 -0.018016227 -0.053057373 0.0038622809
000180 44 e1 38 3d 3d 14 a5 3d cb ee 22 bd 67 8d a6 bb
       0.045136705 0.08060501 -0.039778512 -0.0050827744
000190 b1 50 ec bc 3e 05 07 3d a3 2b 7e bc 2f e9 ae 39
       -0.02884707 0.032963984 -0.0155133335 0.00033361602
0001a0 7d d2 44 3d eb b3 87 3d dd 74 2f 3d 6e 85 0c bd
       0.0480523 0.066261135 0.04283606 -0.034306936
0001b0 51 1b a1 3d a8 b7 46 3d 0d 52 e4 3c 64 a2 dc 3c
       0.07866538 0.048514992 0.027871156 0.026932903
0001c0 51 c1 39 bd 46 2a 5b 3d 0e 19 50 3c 7f dc 08 bc
       -0.045350377 0.053507112 0.012701286 -0.008353352
0001d0 39 58 9e 3c 16 c6 7b bc 34 e7 05 bd 55 31 28 bd
       0.019329177 -0.015367052 -0.032691196 -0.04106267
0001e0 97 58 04 bd 6a 00 a6 3d 0d 78 7b 3d 13 dd bb 3d
       -0.03231105 0.08105548 0.061393786 0.09173026
0001f0 4f 12 d9 bb 4f b8 51 bd db 28 a3 3c d8 64 7f 3d
       -0.006624497 -0.05120116 0.019916942 0.06235203
000200 f4 25 c8 bc 37 66 33 3d ed a3 a7 ba 94 6d d7 3c
       -0.02443216 0.04379865 -0.0012789943 0.026297368
000210 a1 92 8d 3d ba f0 34 3d f1 3d 1a 3d f0 78 30 3d
       0.06912733 0.044174887 0.03765673 0.043084085
000220 bd 3b 99 3d 21 c2 9b 3d 08 47 37 3c 45 cf 4c 3d
       0.07482097 0.076053865 0.011186369 0.050002355
000230 2f 30 18 bc d9 ba 68 bd 74 f5 8d 3c 3f d1 59 bd
       -0.009288832 -0.056818817 0.017328955 -0.05317807
000240 9c f2 b0 3d 8b 81 32 bd 59 fb 23 3d da a0 55 bb
       0.08640024 -0.043580573 0.040034626 -0.0032597096
000250 32 f1 57 3d 80 4e 91 3d e0 b9 a2 3c 26 61 34 bc
       0.052720256 0.07095051 0.019864023 -0.01100949
000260 44 0b 88 3d 71 d0 2d 3d 35 44 44 3c 97 c3 e5 bc
       0.06642774 0.042435113 0.011979152 -0.028047366
000270 f3 1f 15 3d 61 81 cf bb f1 36 58 3d b2 d1 89 3d
       0.036407422 -0.006332562 0.05278677 0.06729449
000280 7e 38 30 3c 9f 47 18 3d eb bc bc 3c 2a 06 7c 3c
       0.010755656 0.03717768 0.023039302 0.015382329
000290 bb fc 1f 3d 58 65 58 bc af 10 ad 3d e0 51 1a 3d
       0.039059382 -0.013207756 0.08450448 0.03767574
0002a0 71 b4 bc 3b 65 68 6c 3d f0 03 05 3d be 6a f4 3c
       0.005758815 0.057716746 0.03247446 0.029836055
0002b0 67 89 43 bd 23 29 10 3d 57 00 16 bd 02 99 2a bd
       -0.04773846 0.03519548 -0.036621418 -0.041649826
0002c0 48 5e 33 3d 25 37 20 bd 1e 76 d8 3c 13 26 15 bd
       0.043791085 -0.03911509 0.02642351 -0.036413264
0002d0 dc 84 44 3d ee c0 cf 3c b5 c9 e1 3c 4c 2a b3 3c
       0.047978267 0.02536055 0.027562002 0.021870755
0002e0 6f 9b 41 3d 4e 57 c3 bb c5 97 0f bd ce 6c cd bc
       0.047267374 -0.0059613353 -0.035056848 -0.025076296
0002f0 20 70 2f 3d ef f9 1a bd ec ea c2 3d 68 5f b5 3d
       0.04283154 -0.03783601 0.09517464 0.08856088
000300 cf bf 26 3d 66 67 a7 3d 77 a2 3a bd ba a7 54 bd
       0.040710267 0.081740186 -0.045565095 -0.05191777
000310 a8 5e 39 bd f9 a4 b0 3d 72 b5 76 3d 00 cc 8c 3c
       -0.045256287 0.08625216 0.060231633 0.017187119

fc3.weight f4 [200, 200]
000000 48 26 9a 3d ac 62 9e 3d cc 07 4e 3d 7e 6c 2f bb
       0.07526833 0.07733664 0.050300404 -0.0026767547
000010 83 b9 3d bd ea 32 4a bd 8f 3a 82 3d 6a 3e 05 3c
       -0.046319496 -0.04936496 0.063588254 0.008132556
000020 54 ad 71 3d 5d 56 cb 3c 29 72 25 bd 5b 57 40 bd
       0.05900319 0.024821455 -0.040392075 -0.04695831
000030 48 39 14 3d ca 35 c7 bc 50 5a 85 3d 3e 04 f0 3c
       0.03618744 -0.02431764 0.06511366 0.029298898
000040 1b 8a 50 bd 04 d4 b0 3c fe ce 35 bc 8c 23 24 bd
       -0.050912958 0.021585472 -0.011096714 -0.040072963
000050 81 c5 a6 bc 9d e9 4c 3d 44 d0 9f bd 45 6f bb bb
       -0.02035785 0.05002748 -0.078033954 -0.0057200515
000060 a1 a1 6e 3c ee 50 c5 3c fa cf 65 ba 60 b7 a6 3c
       0.0145649025 0.024086442 -0.00087666477 0.020351112
000070 e4 ba 0c bd 05 e3 1d bd 19 f2 36 bd 57 16 a5 bd
       -0.03435792 -0.03854658 -0.044664476 -0.080609016
000080 68 97 a5 3c 2c 5e 71 3c 0e 64 08 bd 1f 6f 91 3d
       0.020213798 0.014731925 -0.033298545 0.07101273
000090 ce 67 ee bc b8 90 34 3d 24 3d 81 3d 77 1d 57 bd
       -0.029102232 0.044083327 0.0631049 -0.052518334
0000a0 c9 74 a8 3c 73 e2 ab 3d 54 d9 6a bb 09 d6 fb 3c
       0.0205635 0.08392801 -0.0035835104 0.030741708
0000b0 31 de 19 3d d6 3c 0d 3d 31 43 d7 3c 73 36 9f 3d
       0.037565414 0.034481846 0.026277157 0.07774057
0000c0 19 08 fb bc 80 17 1d 3a f7 5c 57 3d fc 89 55 3d
       -0.03064351 0.00059925765 0.052578893 0.052133545
0000d0 43 c1 05 bd 66 ae 29 3d 71 0d 59 bd f3 f7 9b bc
       -0.03265501 0.041426085 -0.052991334 -0.01903913
0000e0 e2 1d c4 3c fb 5d a2 3d 1e dd c5 bc d3 a0 38 3d
       0.02394003 0.079280816 -0.024153288 0.04507525
0000f0 34 37 64 bb a4 4f 08 3d 06 7a 0e bc c5 04 99 bd
       -0.0034822943 0.033279076 -0.008696085 -0.07471613
000100 aa 13 50 3d 07 7d 59 bd 84 20 00 3b 8e 6e 23 bd
       0.050800003 -0.05309775 0.001955063 -0.039900355
000110 aa 2d 1e bd f2 aa 53 3d 05 b1 ae 3a d4 78 1b bd
       -0.038617767 0.051676698 0.0013327902 -0.037957028
000120 50 74 44 3d e1 f0 18 bd fa de 82 3d de 8c 67 3d
       0.047962487 -0.037339095 0.06390186 0.056530826
000130 f2 57 1a bd 4e c2 9d 3c a4 fb 0c bd 11 56 61 bd
       -0.037681527 0.01925769 -0.03441967 -0.05501372
000140 5c e4 bb 3c a6 03 b2 3c e5 c8 df 3c 4d 8f 2b 3d
       0.022936039 0.021730255 0.027317474 0.04188471
000150 0a 95 41 3d 5c e4 61 bc df 72 4a bd b3 8f 0b bc
       0.047261275 -0.013787355 -0.049425956 -0.008518147
000160 4f c8 95 3d 39 40 09 bd df 92 b8 3d 2e ec bb 3d
       0.073135965 -0.033508513 0.090123884 0.09175907
000170 e7 00 95 bd 74 39 04 3d 4b ed 07 3d d1 ed f5 bc
       -0.07275563 0.032281354 0.033185285 -0.030020626
000180 1f f9 95 3d 95 76 6d 3d 3e d4 4b 3c e6 b6 d1 37
       0.07322907 0.057974417 0.012440739 2.499991e-05
000190 1d fd aa 3c c7 77 05 bd 51 df 17 3d 3f 08 5b 3d
       0.020872647 -0.03258493 0.037078205 0.05347466
0001a0 f1 89 a4 bd 20 09 83 3c b7 d4 98 bc e1 e6 c9 bc
       -0.08034123 0.015995562 -0.018656118 -0.024646224
0001b0 9d a8 82 3d 2d 85 7a 3d 5a c2 56 3d f9 43 c2 3c
       0.06379817 0.061162163 0.05243144 0.023714053
0001c0 54 09 96 3c 02 0d b9 3c 4c e2 3e 3c aa 24 b0 bd
       0.018314995 0.02258921 0.011650633 -0.08600743
0001d0 90 f8 c6 bd c4 0b a3 bc 2d 47 d8 bb 35 a7 49 bd
       -0.09715378 -0.019903071 -0.0066002817 -0.049231727
0001e0 f5 52 f8 bc d8 06 33 bd 9f d7 92 3a 01 69 08 3d
       -0.030312994 -0.0437077 0.0011203176 0.033303265
0001f0 68 29 52 3d 6f f8 25 bd 86 79 03 3c c8 4e 92 bb
       0.05130902 -0.040520128 0.008024579 -0.004464958
000200 d7 28 ca bd 4c c8 74 3d 77 7d 00 bd 90 19 69 bd
       -0.09871071 0.05976133 -0.031369653 -0.056909144
000210 d0 5b 1f 3d 84 1f 4f bd 0b 99 a5 bc 84 1b c6 bc
       0.03890592 -0.050567165 -0.020214578 -0.024183042
000220 f5 64 a0 bd 1e 8f 02 bd 1d fb 31 3d 4b 1f 09 3d
       -0.07831756 -0.03187477 0.04345237 0.03347711
000230 e0 9b e6 3d a3 1c f6 bc 62 95 c1 3c b6 35 b1 3c
       0.112601995 -0.030042952 0.023630802 0.021632057
000240 d2 b6 f7 bc 5b fe fd bb 3d b9 1f bc 9d 1a 39 bc
       -0.030238543 -0.007751269 -0.009748754 -0.011297849
000250 db 7c 3e bd 7d 49 88 3c b4 b9 15 3d 34 a9 52 bd
       -0.04650579 0.016636604 0.036554053 -0.051430896
000260 01 78 ca bc 4e 54 6e 3d 5c b7 07 3d e2 3c ce 3c
       -0.024715425 0.058185868 0.03313385 0.025175516
000270 79 c4 18 3d 6f d8 18 3c 64 59 9d 3c c2 c7 47 3d
       0.037296746 0.009328946 0.019207664 0.04877449
000280 48 28 15 bd 62 7b 6a 3d b5 2d 45 3d c2 4c a2 bd
       -0.03641537 0.057246573 0.048139293 -0.07924797
000290 0d 3f 96 bd 66 3e 66 3d 79 74 67 bd 45 33 bc bc
       -0.07336245 0.05621185 -0.05650756 -0.022973666
0002a0 7e b4 55 bd 9e 3b 66 3d 6c cf 40 bd 16 12 29 3d
       -0.052174084 0.0562092 -0.047072813 0.041277014
0002b0 b6 92 5f bc 3a f1 60 3c 54 99 83 3d fc 5e 11 bd
       -0.013645818 0.013729388 0.064257294 -0.035490975
0002c0 0b 55 3d 3c 6e b7 7c bd 95 7c 91 3d 2e e8 82 bd
       0.01155592 -0.06169837 0.0710384 -0.06391941
0002d0 3f 25 9d bd c8 67 b4 bd 85 80 b2 3c 7e ff b4 3b
       -0.0767312 -0.08808857 0.021789799 0.005523621
0002e0 c5 94 13 bd 15 37 80 3d f5 16 3c bc dd 7f 58 bd
       -0.03603055 0.06260506 -0.011480083 -0.052856315
0002f0 99 4c 19 3d 37 2b 48 3c 25 46 12 3d fb 6b 96 3d
       0.037426565 0.0122173345 0.035711426 0.073448144
000300 fd b4 d6 bc c2 f9 15 bd 9d 2c 51 bc f2 8e 86 bd
       -0.026209349 -0.03661514 -0.012766984 -0.065702334
000310 57 14 e4 bc 0d 7d 27 bd 17 9d 1a 3d cf 7a 46 3c
       -0.02784173 -0.040890742 0.03774747 0.012114241
000320 05 b5 35 3c 27 0e 3f 3d 6a dd 98 bc 8a db 58 3d
       0.011090522 0.046644356 -0.018660266 0.052943744
000330 dd eb d2 3c f9 5b 5c 3d 91 fc 72 3c 5e 2a d4 bc
       0.025747234 0.05379865 0.014830724 -0.025899108
000340 70 26 de 3a 0c 8a 27 bd 2f eb 8e 3d a0 e2 80 3d
       0.0016948711 -0.040903136 0.069784515 0.06293225
000350 e1 68 64 bc 25 7c 2e 3d 98 25 0d 3c 5f da 2f 3d
       -0.013941021 0.042598862 0.00861492 0.042932864
000360 b2 53 36 bc c0 c0 49 3d 70 f5 34 bc bb 6c d1 3c
       -0.011128353 0.049256086 -0.011044845 0.025564542
000370 16 ac 74 3d 21 22 6a 3d e9 8f 39 3d 3a 54 d0 3c
       0.059734426 0.057161454 0.04530326 0.025430787
000380 c3 92 5d bd 51 09 d6 3c 00 ee 32 bd d8 1d 1d 3d
       -0.05409504 0.02612749 -0.043684006 0.03835854
000390 e3 f1 e5 bc 51 11 dd bd d4 39 b1 3d 47 23 21 bd
       -0.028069442 -0.107943185 0.08653608 -0.039340284
0003a0 e2 a6 3b bc c2 41 7c bd 92 7f 33 3d 10 35 eb 3c
       -0.011453362 -0.06158615 0.043822832 0.028711826
0003b0 de de 92 3d e4 d4 28 bd 7b 18 bc bd 03 4a 82 3d
       0.07171415 -0.041218653 -0.09184357 0.06361773
0003c0 56 b2 60 3d 15 26 47 3c 48 2b f2 bc 9f f0 8f 3d
       0.054857574 0.012155076 -0.029561654 0.07028317
0003d0 bc 7f a6 3d 50 eb c7 3c fa ff 84 3d b8 a4 6e bd
       0.08129832 0.024404198 0.06494136 -0.058262557
0003e0 aa 2f 57 bc eb 50 0b 3d 65 40 ae 3c 83 95 0b bd
       -0.013133923 0.034012716 0.02127094 -0.034078132
0003f0 cb 05 04 bd 84 b7 c8 3c e8 d9 85 bd 01 d4 40 3c
       -0.032232087 0.02450157 -0.06535703 0.011769296

fc3.bias f4 [200]
000000 40 98 6a bc 07 6f 8c bc 9c 72 69 3d 05 5a 85 3d
       -0.014318526 -0.017142786 0.056994066 0.065113105
000010 0a 17 1c 3d 21 c3 0d 3d 86 d0 7f 3c d9 46 14 3d
       0.03810791 0.034609918 0.015613681 0.036200378
000020 11 17 73 bd 6d 9b 7a bd 30 98 6d bd c1 a6 4e bd
       -0.05934817 -0.06118338 -0.058006465 -0.050451998
000030 e9 01 5e 3d 7f 4c 0a bd 83 1d 1f 3d 40 0e 03 3d
       0.05420104 -0.03376436 0.038846504 0.03199601
000040 88 ca c7 3b a6 e6 34 bd 48 8e d6 bc 40 4d 20 bd
       0.0060971417 -0.044165276 -0.026190892 -0.03913617
000050 c9 66 1a bd 2e 9b 8c 3d 5d 9e 35 bd de 67 3a bd
       -0.03769568 0.06865536 -0.04434048 -0.04550921
000060 c1 79 44 3d a8 9c 94 3c 64 fc 49 bd d4 64 41 3d
       0.047967676 0.018141106 -0.049312964 0.047215298
000070 03 46 67 bd 57 50 17 bd c0 6f ba 3c b4 5d 7b bc
       -0.056463253 -0.036941852 0.022758365 -0.015342165
000080 a8 ef fe bb 9a 3f 28 bd bb 08 58 3d 48 66 be 3c
       -0.007780034 -0.04107628 0.0527427 0.02324213
000090 c7 4f f1 bc 2e a0 12 bc 32 9c 89 3d 9b 65 30 3d
       -0.029456986 -0.008949323 0.06719245 0.04306565
0000a0 f6 6d 82 bc 18 e8 81 3d 77 ac 10 bd 53 0f ad 3d
       -0.015921574 0.063430965 -0.035320725 0.084501885
0000b0 d4 f2 b8 bc 9a c2 00 3d 0f d9 23 bd 05 93 f6 3c
       -0.022576727 0.031435587 -0.040001925 0.030099401
0000c0 b9 f5 93 bc 7e 92 71 bb eb ab 8e 3d 33 8a 95 3d
       -0.018061506 -0.0036860998 0.069663845 0.0730175
0000d0 b1 86 0d bc b4 41 0b bd c7 8a 6b 3d 89 30 9f 3c
       -0.00863807 -0.033998206 0.057505395 0.019432323
0000e0 cf 90 06 bd a6 2f 04 bd 28 47 00 bd d2 5f 58 3d
       -0.032852944 -0.032272004 -0.03131786 0.052825756
0000f0 50 fe 8f 3d 1a c7 60 bd a9 b3 3f 3d 00 c4 7c 3d
       0.07030928 -0.054877378 0.046802197 0.061710358
000100 db 9e a6 3d 07 dd 4c 3d 5a 4f fe 3c 12 69 ef 3c
       0.08135768 0.050015476 0.031043697 0.029224906
000110 bd 0b 2f bd b5 97 28 3d 93 81 4b 3c 8e 7b d4 bc
       -0.042735804 0.041160304 0.01242103 -0.025937822
000120 1f 0b 46 3d 3f 06 a5 3c 0a 3d 60 bd 60 ed 76 bb
       0.04835045 0.02014458 -0.05474571 -0.0037678108
000130 94 55 59 37 49 4e d1 3c 52 fc 0e 3d b0 d2 3a bd
       1.2954133e-05 0.025550025 0.0349086 -0.045611084
000140 b6 52 6b bc 17 ba b7 3c 81 29 2d 3d 46 72 e8 3c
       -0.014362982 0.022427602 0.04227591 0.028374802
000150 b7 7d b7 3c 24 a4 9a bc c5 ca 38 3d 30 ab 5b 3c
       0.022398813 -0.018877096 0.04511525 0.0134075135
000160 37 52 be 3c 88 26 94 3c ff 05 42 3d ab 69 f3 3c
       0.023232562 0.01808478 0.047369 0.029713472
000170 73 6c 99 3d 96 d5 7d 3d a0 ba 2b 3d 48 a0 ba bc
       0.07491388 0.06197127 0.041926026 -0.022781506
000180 13 5d 35 3d 83 0c d3 bb af 7d 67 3d 9f f8 35 bc
       0.044278216 -0.0064407005 0.056516346 -0.011106639
000190 ba 06 88 3d af e8 69 3d f2 3d fc bb 71 56 24 3d
       0.06641908 0.05710667 -0.007697814 0.0401215
0001a0 8f 27 59 3d 35 f2 fa ba e1 8b 65 bd a3 4e 46 bd
       0.05301624 -0.001914567 -0.056041602 -0.048414838
0001b0 5e 5c 0e bd b0 ae 91 3c 9a e6 e5 3c e5 f4 46 3c
       -0.034756057 0.017783493 0.028064061 0.012143348
0001c0 d4 6c 2d bd 62 2a 74 3c fb 0c d1 bc c8 4b 38 3c
       -0.042340115 0.014902683 -0.025518885 0.011248536
0001d0 7c 9e 26 3d bb d7 be bb 2d eb da bc 03 34 98 3d
       0.040678486 -0.005824057 -0.026723469 0.074317954
0001e0 c5 fb 2a bd 23 1d e0 3c 16 b4 aa 3d 0c cd 13 bd
       -0.041744012 0.027357643 0.0833513 -0.03608422
0001f0 c1 f4 d9 3b 70 68 23 3c 52 bf 03 3d e9 b4 fe bb
       0.0066514914 0.00997363 0.03216488 -0.007773031
000200 65 a9 63 3d e3 cd 9c 3d 26 10 66 3a b1 43 1e bd
       0.05558147 0.07656457 0.000877621 -0.038638774
000210 78 a8 7f bd 03 ba 27 3d f2 3c 80 3d 52 7a 97 bc
       -0.062416524 0.04094888 0.062616244 -0.018490944
000220 98 79 7b 3d 35 84 b6 3c 17 e3 49 3d 72 11 00 bd
       0.061395258 0.022279838 0.049288835 -0.031266637
000230 9b c5 9c bc c5 38 f5 bc aa ab ab 3d 05 9e 56 3d
       -0.019137194 -0.029934296 0.08382352 0.052396793
000240 fc 96 0b bc 5d c8 aa 3d be e1 34 3c cb 0e 36 3d
       -0.008519884 0.083389975 0.011040149 0.0444477
000250 53 04 60 bc 0a 2e 81 3c 7b c6 a6 3d e3 6f f9 3c
       -0.013672906 0.015769023 0.08143326 0.03044886
000260 e8 91 b7 bc 1e ab 58 bd ce 22 82 3d c4 a3 8f 3d
       -0.02240844 -0.052897565 0.06354295 0.07013658
000270 9c 3d f7 3c 4f c2 26 bd ae ed 2b bd 86 1e 47 bd
       0.030180745 -0.04071265 -0.041974716 -0.048613094
000280 de b1 44 bd ce ec 51 bd e9 a8 88 bc eb 7a c7 bc
       -0.04802119 -0.051251225 -0.016682105 -0.024350604
000290 cc bf 4d 3d 5c 0c 3f bd 3c 55 f8 bc 4a 71 30 bd
       0.05023174 -0.046642646 -0.03031408 -0.04307679
0002a0 31 79 d6 3b af 1c bf 3b 1c c9 99 3d a2 3f 47 bd
       0.006545209 0.005832277 0.07509062 -0.04864467
0002b0 43 54 9d bc d4 f2 a0 3d 9b d1 1a bd c5 23 83 bd
       -0.019205218 0.07858816 -0.03779755 -0.06403307
0002c0 20 87 09 bd aa 63 3e 3b 7a ad 93 3d 08 24 1d 3d
       -0.03357613 0.0029051104 0.072108224 0.03836444
0002d0 9f f1 66 bd b1 15 82 3d d8 23 9b 3b 21 84 82 3b
       -0.05638277 0.063517936 0.0047344975 0.003983036
0002e0 f3 7c d4 bc c8 eb 2d bd ac 80 c6 3c 9a d9 a5 3c
       -0.025938487 -0.042461187 0.024231277 0.020245362
0002f0 2d 52 14 3d b8 bf bc 3c cf 96 83 bd 92 db be 3b
       0.03621118 0.023040637 -0.06425249 0.0058245147
000300 07 26 7a 3c d1 db fc bc 61 a6 d9 bc 57 58 6b 3a
       0.0152678555 -0.030866535 -0.026568593 0.0008977702
000310 61 6b 1a 3c ba 90 49 3d a4 7d 59 bd 3b 79 d9 3c
       0.009425015 0.049210288 -0.053098336 0.026547065

fc4.weight f4 [6, 200]
000000 76 65 ba bd 42 25 68 bd bf 7b 05 bd e9 0f 2a bd
       -0.091013834 -0.056676157 -0.032588717 -0.04151908
000010 7b 3a 84 bd 82 23 ac 3b dd 3c 53 3c ed ed af 3d
       -0.06456467 0.0052532563 0.012892929 0.085903026
000020 9e be 98 3d 4c 41 a6 bd 55 83 97 bd 06 cf ab bd
       0.07458232 -0.08117923 -0.073980965 -0.08389096
000030 1e 2c a0 bc 78 d9 ca 3d d5 c5 09 3d b3 0f 8d 3d
       -0.019552287 0.0990476 0.033635933 0.0688776
000040 b3 e1 d0 bc 23 7e 4d bb 65 5a c6 3d 6c 2d d5 bd
       -0.025498247 -0.00313557 0.0968521 -0.10409054
000050 c0 62 af bd 13 7f a4 3d a1 fe 99 bd 7a 85 c5 bc
       -0.08563757 0.0803205 -0.0751927 -0.024111498
000060 4c cb 94 3d e9 6f 11 bd 9d 06 ab bd 64 5b 49 3d
       0.07265338 -0.035507116 -0.08350871 0.049159423
000070 b0 1f d5 3c ae a1 74 3d 86 30 bb bd 86 84 3a bc
       0.026016086 0.059724502 -0.091401145 -0.011384135
000080 97 92 1f bc e7 bb 27 bc ae 78 ee 3c ba 02 b1 bd
       -0.00973954 -0.0102376705 0.029110279 -0.08643098
000090 9f 4b d0 bc 57 18 c0 bd e4 13 89 3d 5a b7 6b bd
       -0.025426684 -0.093796425 0.06693247 -0.057547905
0000a0 89 ac cb bd 79 fa 9e ba 01 ca 2a 3d 49 55 ff 3b
       -0.09945018 -0.001212909 0.041696552 0.007792149
0000b0 51 02 46 bd f2 2b 22 bd 8f 5d 69 bd 8a ce 9e 3d
       -0.048342053 -0.03959269 -0.05697399 0.07754238
0000c0 eb 16 af bc 5a cb 33 bc 88 7f 52 bd de 7d 4c bd
       -0.021373233 -0.010973776 -0.051391155 -0.049924724
0000d0 4d 3c 46 3d 69 19 13 3d 16 d1 0e bd be c4 5c 3d
       0.04839735 0.035912905 -0.03486737 0.053898565
0000e0 62 c6 92 3d b8 08 80 bc af 70 96 bd af 97 8f 3c
       0.07166745 -0.015629157 -0.073457114 0.017528383
0000f0 7b 81 87 bd f6 b0 91 3b 75 c8 92 bd e1 28 bc 3d
       -0.06616493 0.004446144 -0.071671404 0.091874845
000100 93 16 d6 3c a6 30 db bd 5a 66 8b bd d3 26 3c bd
       0.026133811 -0.10702638 -0.068066314 -0.045935463
000110 7b 89 bd bd 86 52 c0 bb 07 84 ba bd b8 c1 cc bd
       -0.09254738 -0.0058692126 -0.091072135 -0.099978864
000120 45 ef 5a 3d 5b 71 1b 3d 7e fb 2d 3a e6 55 a3 3c
       0.05345084 0.0379499 0.00066369015 0.01993842
000130 ae 9e b7 3d 15 68 85 3c 78 1c 9f bd 64 65 d6 bd
       0.089658126 0.016284982 -0.07769102 -0.104685575
000140 f0 8d 20 3c d3 63 5a ba 02 6c 8d bd ec a3 c2 3d
       0.009799466 -0.0008330915 -0.069053665 0.09503922
000150 ef 86 3e bd 8e 80 b3 bd 33 ca 21 3d e9 83 b8 ba
       -0.0465154 -0.08764754 0.039499473 -0.0014077398
000160 9b 06 f6 3b bd 30 44 3d c0 63 a7 bd 9c a3 ac bd
       0.0075081117 0.047898043 -0.08173323 -0.084296435
000170 56 2f c4 bd 06 dc 73 ba d0 0a 61 bc d7 44 36 3d
       -0.09579341 -0.00093025004 -0.013735488 0.044499245
000180 b6 24 aa 3d b4 7f 32 bd d3 ef 26 3d 1f 64 9f bd
       0.08307783 -0.04357882 0.040756058 -0.077827685
000190 bb fb b6 bc 0c af a5 3c e9 ae 73 3a 78 23 13 bd
       -0.022336831 0.02022507 0.0009295778 -0.035922498
0001a0 0e 12 b5 bd aa e7 ce 3c f0 21 d1 bc 18 d0 71 3c
       -0.08841334 0.02525695 -0.025528878 0.014759086
0001b0 9d 8c 84 3d fc 02 8e bd 18 aa 5d bd 93 d2 92 3a
       0.06472132 -0.06934163 -0.054117292 0.0011201672
0001c0 17 90 9a 3d 06 74 e4 bc 19 0c 94 3d 1a 37 d9 3c
       0.07547014 -0.027887356 0.0722887 0.026515532
0001d0 e0 b0 9f 3c b2 47 63 bd d1 7d 6f 3d c4 c8 91 bd
       0.01949352 -0.055488296 0.058469597 -0.07118371
0001e0 52 5f a6 3d 59 26 29 bd 23 20 b1 3c 09 4f f9 3c
       0.0812365 -0.041296337 0.02162177 0.030433195
0001f0 9b f2 a3 3d 7a 8e 0a be e5 3f de bc 1c f2 40 bd
       0.08005258 -0.13530913 -0.027130077 -0.047105893
000200 c1 d9 93 3d df 26 01 bd d6 17 a0 3d 7f b6 4f 3c
       0.07219268 -0.03153121 0.07817046 0.012677788
000210 17 3a 7b bc f1 bc 94 3d 67 d9 92 bd 48 37 b5 bd
       -0.015333674 0.072626 -0.071703725 -0.08848435
000220 94 3d ef bd 5e de 5b bc 33 74 34 3b ca ad 9b bd
       -0.11681667 -0.013419716 0.002753508 -0.07601507
000230 4a db 02 be ac cc d2 3b da f5 ce 3d 08 ae 63 bd
       -0.12778965 0.00643309 0.10105486 -0.05558589
000240 5b 92 8f 3d 1d 0e b8 3d 01 f8 9a bd b3 ba d9 3d
       0.07010337 0.08987067 -0.07566834 0.10631313
000250 0d 03 af 3d 70 63 1f bd 9d 0f f6 bd 6c e4 e7 bd
       0.08545504 -0.03891319 -0.12014697 -0.11322865
000260 1d 08 f4 3c ff 6a d8 bd 18 e0 d8 37 40 52 59 bd
       0.029789025 -0.10567283 2.5853558e-05 -0.053056955
000270 7f 58 cf bd eb 76 c0 3d 95 c7 94 bd 2e 00 0b bc
       -0.10124301 0.09397682 -0.0726463 -0.00848393
000280 2e eb c6 bd d1 9e b8 bd 78 df b8 bd 85 7e ee bc
       -0.09712826 -0.09014667 -0.09026998 -0.029113064
000290 86 19 e0 bb 37 17 bc 3d 88 68 db bd 97 c9 e0 bd
       -0.00683898 0.091841154 -0.10713297 -0.1097595
0002a0 fe 4e 21 3d 73 b3 97 3d b8 61 e4 bd dd 13 ba bc
       0.039381973 0.07407274 -0.11151451 -0.02271455
0002b0 db 4f c5 bd ea 5a ab 3d ed b1 c8 bd 81 44 a0 3d
       -0.09634372 0.0836695 -0.09799562 0.07825566
0002c0 3a 51 02 3d 7f df 9e bd 41 b2 94 3d 7e fa 88 bd
       0.031815745 -0.07757472 0.07260562 -0.066884026
0002d0 d4 26 ee bd fe 65 cc 3d 8d 9b fb 39 34 d2 70 3d
       -0.116284996 0.09980391 0.00047990345 0.058794215
0002e0 1f eb 87 3d 98 59 ad 3c 0e 58 e6 bd 30 f5 91 bd
       0.06636643 0.021160886 -0.11247264 -0.07126844
0002f0 b2 da 06 3d 76 d6 9e 3d ed 42 b4 bd ac ee b0 3d
       0.032923408 0.07755749 -0.088018276 0.08639273
000300 78 96 5d 3b d5 6f ae bd 45 11 6f 3d fc 0c 13 3d
       0.003381161 -0.08517424 0.05836608 0.035901055
000310 22 f8 a2 3c c0 e9 98 bd 15 fe 0c bd b5 76 59 3d
       0.01989371 -0.07466459 -0.034422 0.053091723
000320 6f 3e d7 3d 83 f8 74 bd 34 94 a4 bd a7 8c b0 bd
       0.10509955 -0.05980731 -0.0803608 -0.08620577
000330 58 41 a1 3c 67 22 14 3d a9 8f 3a bd 09 32 31 3c
       0.019684479 0.03616562 -0.04554716 0.010815152
000340 9d 5b c7 bd 0a c0 c4 bc a3 d3 b6 bc 3e 4c cd 3d
       -0.09734271 -0.024017353 -0.022317713 0.10024308
000350 27 b4 a6 bd f0 4c a5 bd ca 39 8f 3d 01 b1 e9 bc
       -0.0813983 -0.08071315 0.06993444 -0.028526785
000360 a4 ee 72 3d 54 85 d9 3b 96 6b ba 3c c8 20 5e bd
       0.059309617 0.0066382084 0.02275638 -0.05423048
000370 27 be 2b 3d 5b 25 4b 3d fd 45 42 bd 13 21 c6 bc
       0.04192939 0.04959617 -0.047430027 -0.024185693
000380 90 6e 47 3d fc b4 1d 3c bc b8 81 3d ff 4d 3b 3c
       0.048689425 0.00962567 0.063340634 0.01143217
000390 99 83 f4 3b 02 35 da bd 7e 9b 85 3d e8 8c dd bd
       0.0074619767 -0.10654642 0.065237984 -0.10817891
0003a0 8c a7 f2 3c 66 21 da 3c ac 87 2b bd 95 36 bc bd
       0.029620908 0.026627254 -0.041877434 -0.09190098
0003b0 b1 b9 8b 3c 51 d6 08 3d 93 04 81 3d 10 02 07 be
       0.017056318 0.033407513 0.062997006 -0.1318438
0003c0 13 2d d9 bc 98 2c a4 3b b7 1e 56 bd 77 ce 1e 39
       -0.02651075 0.005010199 -0.052275386 0.00015144968
0003d0 0d 1c cf bd 5c 24 bc bd 23 42 4e bd 56 a9 60 3d
       -0.10112772 -0.091866225 -0.05035604 0.05484899
0003e0 82 9f 83 3c ed 0b bc 3d 47 97 66 bd 9f 4b 53 3d
       0.01606727 0.09181962 -0.056296613 0.05158579
0003f0 1c b6 84 3d aa 51 85 3d 83 f4 01 bd f0 4c 55 bd
       0.06480047 0.06509717 -0.031727325 -0.052075326

fc4.bias f4 [6]
000000 28 30 39 3d c5 d2 88 3d 47 7a 8d 3b c1 3c 38 bd
       0.04521194 0.06680826 0.004317555 -0.044979814
000010 73 63 d5 bb 8b 81 a7 3c
       -0.0065120994 0.020447513
