checkpoint.pt (torch, 416237 bytes, 8 tensors)

fc1.weight f4 [200, 108]
000000 18 28 c0 bc c9 b7 d5 3c e6 93 ed bb 76 99 ed 3d
       -0.023456618 0.026088612 -0.007250297 0.11601536
000010 16 b6 05 bd fe 4d 08 3d d2 b5 11 be f1 6e 87 bb
       -0.032644354 0.033277504 -0.14229515 -0.0041330983
000020 ed 2d a9 3d 58 ce ba 3c a1 71 c0 bd 87 4a 52 bd
       0.08260713 0.02280347 -0.09396673 -0.051340606
000030 c2 9b a3 3d ba 5a ab bd 05 79 56 bc c9 49 1a 3d
       0.07988693 -0.08366914 -0.013090377 0.037668023
000040 42 f3 e2 bd 22 b6 3e 3d 98 45 b9 3b ba 37 b6 3d
       -0.11081554 0.046560414 0.005654048 0.08897348
000050 10 f9 db bd 24 fc cd 3d f5 cb b4 3d 94 0e fe bc
       -0.10740864 0.10057858 0.08827964 -0.03101281
000060 8b 9c 33 3b 06 6f da 3c b3 f6 93 bd b4 31 ad bc
       0.002740654 0.026664268 -0.072247885 -0.021141864
000070 cb 1e 53 bd b6 00 e8 3b 1c 24 7a bd cd ec 34 bd
       -0.05154304 0.007080163 -0.061069593 -0.044171143
000080 0e 9d 7c bd 78 c8 30 bd 2e c0 d7 bc 00 4b 7b bd
       -0.061673217 -0.043159932 -0.026336756 -0.061350822
000090 60 e1 b5 3c 05 05 02 bb e6 75 cc 3c 7d 54 9c bd
       0.022202194 -0.0019839418 0.024958562 -0.07633302
0000a0 51 d5 54 bd 86 bf b3 bd a2 4f be 3c 26 81 77 bd
       -0.051961247 -0.087767646 0.023231331 -0.0604259
0000b0 5c 5d 91 3d 7b 3c 40 3d 53 04 ac bd b1 a7 8e 3d
       0.07097885 0.04693268 -0.08399262 0.06965578
0000c0 99 a0 b3 bd d2 be ab 3d 39 2a bc bd 4e 30 9c 3d
       -0.08770866 0.083860055 -0.09187741 0.07626401
0000d0 ac 2f ae bd 9c 6e 01 3d 86 80 ab 3d 42 08 fe bc
       -0.085051864 0.031599626 0.08374123 -0.031009797
0000e0 36 16 7a 3d 2c ca 7d bd 41 a7 a1 3d ae a4 26 3d
       0.06105634 -0.061960384 0.07893229 0.040684395
0000f0 44 62 ad 3c f5 34 3c bc 88 bc 12 bd e0 67 9f bd
       0.02116502 -0.011487235 -0.03582433 -0.077834845
000100 51 55 8e 3d 95 d8 49 bd a3 f0 9a 3d 46 a6 de 3b
       0.069498666 -0.049278814 0.07565429 0.0067947237
000110 5d 0e 01 bd 21 12 a7 bd 0f f4 09 bc ff 28 4a bc
       -0.03150784 -0.08157755 -0.0084200045 -0.012338876
000120 66 94 e2 bd b2 8e 6c bd 50 62 b5 bd 61 24 a5 bd
       -0.11063461 -0.057753272 -0.08856642 -0.08063579
000130 04 0d f5 3c 26 19 28 bd b7 44 ab 3d 06 a7 15 3d
       0.029913433 -0.04103961 0.08362716 0.03653624
000140 01 50 30 bd de ab 10 3d 65 1d c6 bd 69 76 c8 3d
       -0.043045048 0.035320155 -0.09673575 0.0978821
000150 3f df b7 3d ba 55 91 3c 6a 57 7f bd 76 bf 9a 3d
       0.08978128 0.017741073 -0.062339224 0.075560495
000160 56 f3 89 bd 0d 43 3f bc 0a 00 63 3d 1e b0 50 3d
       -0.06735866 -0.011673701 0.05541996 0.05094921
000170 6b df ad 3d b1 4b 5b bc 7a 54 99 bd 1e e8 cc bc
       0.08489879 -0.013384745 -0.07486816 -0.025013026
000180 6f a5 89 3d b7 68 03 bd 81 77 34 bd 68 94 57 bb
       0.06721007 -0.032082286 -0.04405928 -0.0032894854
000190 48 4d 46 3d 45 3b b3 3d 32 6f 94 bb f3 05 ac 3d
       0.048413545 0.08751539 -0.004529857 0.08399572
0001a0 f4 4f ae bd 70 40 b6 bd 56 c4 e2 bd cb d4 88 bd
       -0.085113436 -0.08899009 -0.11072604 -0.06681212
0001b0 7c a1 d2 bd 1f 0e 54 bc 1b 2d db 3d c4 5e 20 3d
       -0.10284707 -0.01294282 0.107019626 0.039152876
0001c0 7d 78 df bb a0 b0 93 bd 81 09 7d 3d ee 3e f5 bd
       -0.0068197832 -0.07211423 0.06177664 -0.119748935
0001d0 0e 5b 88 3d 47 db 9a bd f4 7f b1 3d 39 c2 da bd
       0.06657992 -0.07561355 0.08666983 -0.10681576
0001e0 88 ad aa bc bf 16 66 bd 30 f0 84 3d 94 09 a9 3d
       -0.0208347 -0.056174036 0.06491125 0.0825378
0001f0 b3 70 ec 3d 9c 6e f6 3c 7a 82 94 bd 75 2b e7 bb
       0.11544933 0.03008204 -0.07251449 -0.007054741
000200 85 4e 73 3c f1 ce 54 3d 39 23 ca 3d fd 98 73 bd
       0.0148502635 0.051955167 0.098699994 -0.059472073
000210 f6 92 e3 3b 9f e0 82 bd f5 90 cc bd 49 f6 03 3d
       0.0069450093 -0.06390499 -0.09988586 0.032217298
000220 06 c8 88 3d d2 7f bb bc 79 85 1a 3d 05 2d 85 bc
       0.066787764 -0.022888098 0.037724946 -0.016256819
000230 e5 fe 78 bb d5 b5 4a bc 1e 4a b7 bd a2 a1 a7 bd
       -0.0037993726 -0.012372454 -0.089496836 -0.08185126
000240 0c c0 0e bd 5b 2a ff bc aa 42 b1 bd 43 39 fe 3c
       -0.03485112 -0.031148126 -0.08655293 0.031033164
000250 ad 9e aa 3d d9 59 78 3b ed fd da bd 1c 69 85 3d
       0.08331046 0.003789535 -0.10692964 0.06514189
000260 98 d1 b6 bd 4a 24 15 bd 9e 8f 01 bd 00 a4 81 3c
       -0.089266956 -0.03641156 -0.031631105 0.015825272
000270 33 fd c0 bd 1a 8b 09 3d 7d 9d 98 3d 40 b7 62 3d
       -0.09423294 0.033579923 0.074519135 0.055350542
000280 eb 72 4b 3d 06 b9 5a 3d f3 60 b9 3d 06 5f d4 3d
       0.04967014 0.05339911 0.09051695 0.10369687
000290 c6 94 93 bd 99 c0 cb bd c2 d5 ba 3d 91 df 6e bd
       -0.07206111 -0.099488445 0.09122802 -0.05831868
0002a0 ee ce af bd 64 a3 bc 3d 10 fe c4 bd ea 73 75 3d
       -0.085843906 0.09210852 -0.09618771 0.059924997
0002b0 55 92 a8 bd 44 c6 75 3d fb ea 2e 3d 02 8e 32 bd
       -0.082310356 0.060003534 0.042704564 -0.04359246
0002c0 2e a8 7e 3d 7c 38 be 3d 65 cd 37 bd fb 0f 90 bd
       0.062172107 0.09288117 -0.044873614 -0.07034298
0002d0 e4 6d 1d 3d 82 fc a4 3d bd 32 6c 3d 3b 50 da ba
       0.038434878 0.080559745 0.057665575 -0.0016655991
0002e0 e7 ef a4 bd 65 07 2e 3c aa 99 96 bd e4 a1 c5 bc
       -0.0805357 0.01062188 -0.07353528 -0.024125047
0002f0 70 a6 86 bd ac 5a 8b 3d fb 5b a3 3d 99 3e fd 3c
       -0.06574714 0.06804404 0.07976528 0.030913638
000300 1f 34 d2 bc c1 c6 a6 bc 48 e6 a2 3d cd 0f a7 bc
       -0.025659619 -0.020358445 0.07954079 -0.020393277
000310 1a 01 22 bd e2 11 84 bc 90 52 96 bb 61 49 a6 39
       -0.03955183 -0.016121808 -0.004587479 0.0003171666
000320 2a 8a 66 bc df 93 1e bc 87 8f c0 3d 61 57 4a 3c
       -0.014071027 -0.00967881 0.09402376 0.012349934
000330 57 53 92 3c 35 0f ba 3c b1 e5 c7 3b 16 11 0d bc
       0.017862005 0.02271233 0.0061003794 -0.008610031
000340 21 a0 c6 bd 56 fc 1b bd 5f 18 4d 3d 77 24 79 3b
       -0.09698511 -0.038082443 0.05007207 0.003801612
000350 0b b8 d3 bd 79 7c 59 bd 60 8c f9 3d b7 de 2c bd
       -0.10337838 -0.053097222 0.121849775 -0.042204585
000360 51 c9 3a bd 3a 27 4f 3d 98 95 43 3d fa 86 1f bb
       -0.045602147 0.05057452 0.047750086 -0.0024341927
000370 4b 3c 74 bb a6 5e 97 3d a6 a6 8d 3b 70 39 7f bb
       -0.0037267383 0.073911 0.0043228446 -0.0038944148
000380 f8 66 c9 bd 9e be bf 3d 32 70 c8 bc ef 22 ae 3c
       -0.09834093 0.09362529 -0.024467561 0.021256892
000390 38 05 f4 3c d6 29 4f bb 62 71 da bd 88 bc 45 bd
       0.029787645 -0.003161063 -0.10666157 -0.0482755
0003a0 f7 28 b3 bd 35 24 d5 bc 10 bc d3 b9 98 fa f2 3c
       -0.08748048 -0.026018241 -0.00040385174 0.029660508
0003b0 f7 e1 ac bd 01 97 34 bd 1a be 25 bd 1b f1 0f bc
       -0.08441537 -0.04408932 -0.040464498 -0.008785511
0003c0 f0 97 18 bc b6 b1 c7 bb 88 c7 b0 bd 7c 1b bc bd
       -0.0093135685 -0.006094183 -0.086318076 -0.0918493
0003d0 fe 30 a8 bd e6 eb 9a bd 16 ad d9 3d d7 d1 84 bd
       -0.082124695 -0.07564525 0.10628717 -0.06485336
0003e0 90 62 e7 3c f1 36 09 3d 1f bb 76 3d 0d 60 1a bc
       0.02824524 0.03349966 0.060237046 -0.009422314
0003f0 4a 57 c1 bc 06 9c c2 3b 85 9a 1a bd 67 31 80 3d
       -0.023601193 0.0059390096 -0.037745018 0.06259423

fc1.bias f4 [200]
000000 4a 17 a6 bc b0 33 6c 3d bc 1d d9 3b a8 fa 5a 3d
       -0.020274777 0.05766648 0.006625859 0.0534617
000010 22 d6 51 bd 56 f1 1a 3c c9 3c f4 3c 79 0d 30 3d
       -0.051229604 0.009456953 0.02981414 0.0429816
000020 34 5e 49 3d 50 02 06 bd d8 9f 48 bd 69 6a ce 3d
       0.049162105 -0.03271705 -0.048980564 0.1007889
000030 5a a9 34 bc dc af 73 3d 2e fb 82 bd 7d 86 9d 3d
       -0.011026705 0.059493884 -0.06395565 0.07691667
000040 83 ec 6a 3d 48 56 0f bd 0a dd 9c 3d 2d 18 c9 3d
       0.05735446 -0.034994394 0.07659347 0.09819064
000050 e2 b0 89 bb a8 09 67 3d ba 5c e9 3d d1 cc d7 3d
       -0.0042019943 0.056405693 0.11394639 0.105371125
000060 01 3e 06 3e 6f ab 0f 3d 7d bc d9 3d 84 41 b1 bc
       0.1310959 0.0350756 0.106316544 -0.021637686
000070 57 f3 8e 3b 03 b2 80 3d a8 2a e0 3d 5a 87 9d 3c
       0.0043625045 0.06283953 0.10945636 0.01922958
000080 e9 03 34 3d aa c9 da bc 7d 31 c5 bc 9e 02 a0 bc
       0.04394904 -0.026707489 -0.02407145 -0.019532498
000090 83 a0 13 3d 40 dd f5 bb c6 cb c0 3b 2c d3 c4 3d
       0.036041748 -0.0075031817 0.0058836667 0.0961059
0000a0 23 f5 ca 3d 44 5b 5e bc 98 8e de 3d 15 f1 0b 3d
       0.09910037 -0.013571564 0.10867041 0.03416546
0000b0 a5 be 96 bc ee fd 25 bd b8 ba 45 3b 52 7f 09 3c
       -0.018401453 -0.04052537 0.0030171108 0.008392172
0000c0 4f 08 09 bb 4d 26 ee 3d c4 67 59 3b 02 77 ae 3c
       -0.0020909493 0.11628399 0.0033173421 0.021296982
0000d0 1c 8e 4a 3d c8 96 83 bd a0 18 5b 3d 73 d8 56 bd
       0.049451932 -0.064252436 0.05349028 -0.052452516
0000e0 89 d2 f0 3d 0a 8d ad 3d 22 0d cd 3c 38 3f a2 3c
       0.117589064 0.08474167 0.025030676 0.019805536
0000f0 c4 23 e5 3d 66 b1 83 3d 64 e9 04 3e 58 e6 27 3d
       0.111884624 0.064303204 0.12979656 0.040991157
000100 78 0a dc 3d 27 c1 8e 3d 70 7c bd bc 4d 37 b3 3d
       0.10744184 0.06970435 -0.023130625 0.08750782
000110 74 5b 20 3d d7 2e 65 3d 6d 9d 1d 3d 06 c2 bf 3d
       0.039149716 0.055952873 0.03848021 0.09363179
000120 83 a1 c0 3d f2 4e 9c ba 86 59 9e 3d 61 2d cc 3c
       0.09405806 -0.0011925383 0.07731919 0.024923982
000130 d5 70 57 3c c1 3b ec 3d 60 e4 47 3d 38 ec 88 3d
       0.01314946 0.11534835 0.04880178 0.0668568
000140 1d 6e d6 bc a8 85 18 bc 08 6a c6 bc a9 61 46 bd
       -0.026175553 -0.00930921 -0.024220482 -0.04843298
000150 80 94 d4 3d 03 fb 91 3d 36 31 b0 3d 4f 56 c5 3d
       0.103798866 0.07127955 0.08603136 0.09635603
000160 e9 5e 97 3d 23 0a a4 3d 78 64 f7 3d 70 30 9c bb
       0.073911496 0.08009746 0.1207971 -0.0047665164
000170 b5 46 09 bd 0e e0 89 3c 48 46 89 3c 78 a9 14 3e
       -0.033514697 0.01683047 0.016757146 0.14517772
000180 c1 b3 77 3d 08 73 31 bd b3 80 05 3e 7f 79 29 bd
       0.06047416 -0.043322593 0.13037376 -0.041375633
000190 bf 67 4f 3d 6f 1f 1b 3d b6 ed a8 3d c4 68 fc 3d
       0.05063605 0.037871774 0.08248465 0.1232467
0001a0 9f 1c 26 bc 15 c2 2f bd 04 89 ea bb b1 ba e5 3d
       -0.01013866 -0.0429097 -0.007157447 0.11217249
0001b0 2b ec 1c bc 57 1e ea b9 3d e0 41 bd e3 d2 cf 3d
       -0.009577791 -0.00044654563 -0.04733299 0.10147645
0001c0 09 32 d9 3d 87 d3 23 3d 10 9e 30 3c dc 37 91 3d
       0.106052466 0.03999665 0.010779873 0.070907325
0001d0 ac 1b a4 3c 82 87 a5 3d 2d 39 ad 3d b3 e9 bc 3d
       0.020032726 0.08082487 0.08458171 0.09224262
0001e0 77 29 d0 3c 26 4e be 3d ec a2 1d 3c e6 88 fc 3d
       0.025410397 0.092922494 0.009621363 0.12330799
0001f0 cf e1 96 3d ee 48 e4 3d a0 74 63 bc 30 76 39 3d
       0.07367288 0.11146723 -0.013882786 0.045278728
000200 37 cf 2d bd 40 d6 6f 3d e5 94 b9 3d 79 43 27 bd
       -0.042433944 0.058553934 0.090616025 -0.04083583
000210 1a 26 19 3d 63 b5 8a bc b9 3c 2e 3d 66 11 88 3c
       0.037389852 -0.016932195 0.04253838 0.016609859
000220 01 5b 7d bc 46 a8 53 3d 3c 37 de 3d f3 ab 49 3d
       -0.015463592 0.05167415 0.10850379 0.04923625
000230 0a c8 21 bc 4d ff 03 3e 52 6b e3 3d 20 1e ad 3c
       -0.009874353 0.12890358 0.11104454 0.021132529
000240 33 8a 7c bd 5c 90 e7 3d 83 94 4a 3c 9a c2 13 bd
       -0.061655235 0.11306831 0.0123645095 -0.03607426
000250 71 e7 6d 3d 43 d3 65 3d 10 f6 c3 3d cd da 38 3c
       0.058082048 0.056109678 0.09568417 0.011282635
000260 af 68 09 3e 2b 23 53 bd 4f 6a ab 3d 55 b2 de 3c
       0.1341884 -0.05154721 0.08369886 0.027184645
000270 cb 1b 11 bd 57 bd 84 3d 6c 49 8b bd 88 2b c7 3d
       -0.035426896 0.06481426 -0.068011135 0.097251
000280 8e b4 88 3d 93 57 bc 3d de 9c 6a bd c9 2e f2 bb
       0.06675063 0.09196391 -0.057278506 -0.007390831
000290 a3 1f 84 ba ee 19 70 3c d9 62 e4 bc 14 38 fa 3d
       -0.0010080229 0.01465462 -0.027879165 0.12217727
0002a0 26 56 2c 3d ca 83 97 3d 04 58 40 bd ba de 15 3d
       0.042074345 0.07398184 -0.04695894 0.03658936
0002b0 92 8c 85 3d 07 ec 09 bd 63 e4 ac 3d dd bc b4 3d
       0.06520952 -0.03367236 0.08441999 0.08825085
0002c0 a7 03 af 3d b0 2b b2 3d 19 21 02 3e 47 85 b8 3d
       0.085456185 0.08699739 0.12707938 0.09009796
0002d0 8f 7e 81 bd 77 44 47 3c bf 15 da 3d cc 7e b6 3d
       -0.06322967 0.012162319 0.10648679 0.08910903
0002e0 76 fb 69 3c 20 8d a8 3d c2 d5 49 3d 39 06 27 ba
       0.014281144 0.082300425 0.04927612 -0.00063714717
0002f0 e3 51 cf 3d 8e 1f 74 3c 36 b8 94 bc 60 ec a9 bc
       0.101230405 0.014900101 -0.018154245 -0.020742595
000300 ee a3 9b 3c 89 f2 95 bd a8 fc 82 3d ea 08 01 bd
       0.018999066 -0.073216505 0.063958466 -0.03150264
000310 ba 30 e1 3d 7a aa 4f 3b 0a d6 58 bc 51 c4 52 bd
       0.10995622 0.0031687305 -0.013234625 -0.051456753

fc2.weight f4 [200, 200]
000000 2a a5 ff 3c 73 1e 6b 3d 2a 30 5d 3d cb e8 1a bc
       0.031206686 0.057402086 0.05400101 -0.009454916
000010 44 6b e2 bc d3 c6 ea 3b e7 7e 75 bd 7f 64 53 3c
       -0.027639039 0.007164815 -0.059935477 0.012902378
000020 7d 25 63 3c f9 97 23 bd 6d 01 ed 3c 1c ca 75 bc
       0.013863918 -0.039939854 0.028931344 -0.0150018
000030 c3 c6 cb 3c e5 19 a7 bd 10 83 f2 bc b1 1d 73 3b
       0.02487505 -0.08159236 -0.029603511 0.0037096555
000040 6a 0d 45 3d 38 98 27 3c 87 a9 b8 3c 1c bd 85 3c
       0.048108496 0.010229163 0.022541774 0.016325526
000050 63 0f 2c 3b c3 75 00 3c 73 f3 53 bd 19 5b de 3c
       0.0026254288 0.007840577 -0.051745843 0.027143048
000060 01 57 31 3d 9e a5 7f 3c 75 b9 03 3d b8 41 5c bd
       0.043295864 0.015603451 0.032159287 -0.05377361
000070 de 68 ae 3b 7b bc 94 3d 26 19 1a bd 8d e7 b3 3c
       0.0053225597 0.07262512 -0.03762164 0.021960998
000080 94 28 9c 3d ff 90 ac 3c ba fc c4 3c 45 d6 9d bb
       0.07624927 0.021065233 0.02404629 -0.0048168027
000090 54 14 a7 3d 9c da 55 3c 02 da 9e 3d 5b 52 44 bd
       0.08158174 0.013052609 0.077564254 -0.047930103
0000a0 1e ca d1 bc 18 e3 16 bc f5 0c 7f 3d 33 4e a1 3d
       -0.025609072 -0.009209417 0.062268216 0.078762434
0000b0 96 dd b1 3d 12 ae 8a 3c e3 ba 67 bd f0 4f 8a bd
       0.08684842 0.016928706 -0.056574713 -0.06753528
0000c0 a0 88 2d bd 9b 3d 2e 3b e1 e3 03 3d ac 0b 22 3d
       -0.042366624 0.0026587013 0.032199744 0.039561912
0000d0 27 13 a3 3d 2e 73 5b bc 16 7f d1 3c e4 90 5b 3d
       0.079626374 -0.01339416 0.025573295 0.053604975
0000e0 42 9c 71 bd 5a 1d b5 3c 1f 4d af 3d 70 c2 48 bd
       -0.05898691 0.022108722 0.085596316 -0.049013555
0000f0 a6 27 96 bd 68 dd 66 3c 34 14 33 bd bd c4 90 3d
       -0.07331781 0.014090873 -0.04372044 0.07068775
000100 13 02 65 3c cc 9f 9c bd a3 5d ac 3d e8 fc 9a bc
       0.013977545 -0.07647666 0.08416297 -0.018919423
000110 83 f8 47 bd c0 3a 01 bd 10 df 4c bd 71 06 2e bd
       -0.048820984 -0.03155017 -0.050017416 -0.04248661
000120 cf f2 b7 bd d8 79 72 bc aa c8 72 3d c1 91 41 bc
       -0.08981859 -0.014799558 0.0592734 -0.011814536
000130 13 44 65 3d ec 06 34 3d f6 eb 41 bc f7 19 24 3d
       0.055973124 0.043951914 -0.011836043 0.040063825
000140 21 10 8a bc 1f 7a 3b 3d ca a6 0a 3b d7 ef 31 bd
       -0.016853394 0.04577076 0.0021156543 -0.04344162
000150 6b 81 a0 3d 7e 1b c2 3d 07 34 8e bd 26 aa c2 3c
       0.078371845 0.094779 -0.06943517 0.023762774
000160 87 3e 47 bd da 88 19 3c b4 44 eb bc 7e 96 03 bb
       -0.048643615 0.009371007 -0.028719284 -0.0020078714
000170 6f 1e 3a bc 8e 8c b7 bc a5 34 21 3c 28 ef b8 3c
       -0.011359795 -0.022405889 0.009839212 0.022574976
000180 af 36 e3 bc 32 0d 38 bd 89 0d 31 3d 0d c5 f1 3c
       -0.027736036 -0.04493446 0.0432258 0.029512906
000190 50 56 28 3d 0c 34 1d 3c 8f 3f bc bc 48 7f d7 3c
       0.04109794 0.0095949285 -0.022979526 0.02630581
0001a0 a1 16 f7 3c 4b 6f 1c bd 55 ec c6 bc be a5 ea bc
       0.030162157 -0.038192075 -0.024282614 -0.028643485
0001b0 e3 57 06 3d c0 2d df 3c 88 de 94 3d eb 4f a7 3d
       0.03279866 0.027243495 0.07269007 0.0816954
0001c0 44 06 70 3d b8 8c 47 3d 0a 9e 19 3d d3 da 27 3c
       0.058599725 0.048718184 0.037504233 0.010245043
0001d0 77 e6 dc bc ed df 3f bc bc ff 2f bd 4a dc 1e 3d
       -0.026965363 -0.011711103 -0.042968497 0.038784303
0001e0 33 4f 89 3d f4 af 59 3b eb 8d 05 bd 23 b8 bd bb
       0.06704559 0.0033216449 -0.032606047 -0.005789773
0001f0 42 19 33 3d 2f 1d 89 bd ba d9 3e 3d 46 5a 16 bd
       0.04372526 -0.066950195 0.04659436 -0.036707185
000200 14 79 a8 bd d5 e0 8f 3b 2a 51 2f 3d 18 c5 7c bc
       -0.08226219 0.0043908157 0.042802013 -0.01542785
000210 9d 04 45 bd 26 37 b2 bc b9 88 a7 bb 4b 2d 1e bd
       -0.048100103 -0.021754812 -0.005112734 -0.038617413
000220 5c d5 0f 3d 66 4b 1f bd 19 cc de bc 80 82 87 3c
       0.035115585 -0.038890265 -0.02719693 0.01654172
000230 7f 67 57 bd 87 37 1d bc 6d 08 e0 3c 22 35 4b bd
       -0.052588936 -0.009595758 0.027347768 -0.04961122
000240 fb 41 87 3d d9 9e 52 3d 70 8b 3d 3d 4b 85 7b 3a
       0.06604382 0.05142102 0.046275556 0.00095947523
000250 ac 25 a2 3c 61 21 ad bd 3c d7 6b 3d cd da 4c 3d
       0.019793354 -0.08453632 0.05757831 0.050013352
000260 68 c7 6e 3d 9e f7 60 3d e6 cf 37 3d e4 73 8b bd
       0.058295637 0.054923646 0.044876 -0.06809214
000270 0d 29 1c bc 04 9b 5e 3d 88 ff 45 bd ac 42 08 bd
       -0.009531272 0.054347053 -0.048339397 -0.03326671
000280 a2 6e 8b 3c 25 e4 ca 3d b6 65 ac 3d db 6e 8b 3d
       0.017020527 0.09906796 0.08417837 0.068082534
000290 64 7a d4 bc 14 8b bc bd a2 90 3f bd c6 b6 d0 3d
       -0.025937267 -0.092062145 -0.046768792 0.10191111
0002a0 ba 2b e0 3c f1 5c da bc 02 aa 07 3d dd 15 98 3d
       0.0273646 -0.026655646 0.033121116 0.07426045
0002b0 1c be 9b bc 19 7e 1d bd 5a 1a 76 3d d5 5d 89 bd
       -0.01901155 -0.038450334 0.060083725 -0.0670735
0002c0 3b 68 8a bd 72 af ff bc c7 52 38 3d 4a 67 52 3b
       -0.06758162 -0.031211589 0.045000818 0.0032105022
0002d0 34 97 0a bd bd b1 1d bd 0b cb 0c 3b 28 1c cf 3c
       -0.033835605 -0.038499583 0.0021483328 0.02528198
0002e0 f7 8a b3 bc 72 88 a0 bc e2 3c cd ba 29 62 a3 3c
       -0.02191685 -0.019596312 -0.0015658403 0.019944267
0002f0 65 d7 cf bc 3f e1 7b 3d 83 d7 e5 ba 97 7c 26 bd
       -0.025371263 0.06149411 -0.0017535541 -0.040646162
000300 89 60 1c 3d fa 79 02 3d 93 58 21 3d 24 19 1d bd
       0.038178 0.031854607 0.03939111 -0.038354054
000310 cb 40 f2 3c 44 84 c3 3d 94 dd 18 3d b3 41 1b bd
       0.029571911 0.09546712 0.03732069 -0.037904453
000320 45 ef 58 bc 03 f7 e3 3b d2 49 60 bd 8d b1 b8 3c
       -0.01324064 0.0069569363 -0.0547579 0.0225456
000330 49 90 d7 bb 96 1c 74 bb eb 4a 19 3d 9b d8 fe 3c
       -0.0065784794 -0.0037248484 0.037424963 0.031109145
000340 9d 80 63 3c 07 4c af 3c ed 2d d4 3c f6 f6 38 bd
       0.013885644 0.021398557 0.025900805 -0.045157395
000350 41 3a 7f 3c 33 db 6b 3d e2 11 f0 bc c4 1c 8d 3d
       0.015577854 0.05758209 -0.029305402 0.06890252
000360 4d 7a ff 3b 3b d5 61 3d bd fa 87 bc 5f 43 6c 3d
       0.007796562 0.055134993 -0.016599054 0.057681438
000370 8c 22 5f 3d 4d 22 37 3d c7 5d df ba 4b d4 8c bc
       0.054476306 0.044710446 -0.0017041498 -0.017191073
000380 f9 e5 65 3c 61 7a a4 bc 69 55 60 3d 5e 39 11 bb
       0.014031881 -0.020077886 0.054768953 -0.0022159438
000390 ad 50 55 bd f7 ab ce 3c d5 f6 4e 3d 51 d3 eb bc
       -0.05207889 0.025228484 0.050528366 -0.028787287
0003a0 d1 27 39 bd 94 ca 90 bd df 87 36 bd 90 6d 8e 3b
       -0.045203988 -0.07069889 -0.04456317 0.004346557
0003b0 32 0b 87 3d 82 c5 44 3c 85 34 71 bd ef 6e 5c bd
       0.06593932 0.01200998 -0.058887977 -0.053816732
0003c0 f0 fd df 3c 2e da 3f 3d a2 2b 70 3c 5c 99 3f bd
       0.027342767 0.04683893 0.01465884 -0.046777114
0003d0 87 53 4a 3d c8 e2 8a bd d6 14 02 bd a5 79 d2 3d
       0.049396064 -0.06781536 -0.031758152 0.10277108
0003e0 1d 4e 9d 3d b4 5c f5 3c 89 dd bf ba 0a 32 37 3d
       0.076809146 0.02995143 -0.0014638166 0.044725455
0003f0 b2 79 c1 3c e6 f5 90 3d 5f 91 de bc 25 65 02 bc
       0.0236176 0.070781514 -0.027168928 -0.007958685

fc2.bias f4 [200]
000000 76 08 11 3d 09 ab 73 bd 96 3f 26 3d bc 2f a8 3d
       0.03540846 -0.059489284 0.040587984 0.082122296
000010 15 09 10 3d 08 5a ef 3b 82 4e 21 3d 11 dc 55 ba
       0.03516491 0.0073044337 0.03938151 -0.00081580976
000020 9f 7e df bb 1b 2a 7d 3c 7f 5a 75 3d 63 4e 2f bd
       -0.0068205143 0.015451933 0.059900757 -0.042799365
000030 97 07 d3 3c 58 40 bc 3d ed 0c 13 3d 87 3f 87 3d
       0.025760455 0.0919196 0.035901 0.06603914
000040 94 b8 0c 3d 8e 24 57 3c 1e 5d 79 3d 04 78 47 3b
       0.034355715 0.013131274 0.06087982 0.0030436525
000050 9b d5 10 bd 27 09 82 3d ba 18 a9 3d 4f fd ea 3b
       -0.03535996 0.06349402 0.08256669 0.00717131
000060 91 19 95 bc d0 f8 c5 3d 7b fb 27 bd 39 47 cf bc
       -0.018200668 0.09666598 -0.041011315 -0.025302516
000070 65 3c 1a bd 16 97 5c 3d a8 78 47 3d 37 d6 11 bd
       -0.037655253 0.053855024 0.04869905 -0.03560468
000080 d8 f4 3d bd 59 40 2a bd 0c 26 09 bc fb db 8e 3d
       -0.04637608 -0.041565273 -0.0083708875 0.06975552
000090 a1 f1 b0 3d 76 23 83 3d 9d 64 57 3d a2 d6 f8 bc
       0.08639837 0.06403248 0.052586187 -0.030375782
0000a0 53 4d a6 3c 24 28 a4 bc ee ab 60 3d 62 1b c7 3d
       0.020300543 -0.020038672 0.054851465 0.0972202
0000b0 95 4c 97 bc 55 cf 33 3c 3e e4 7a 3d df 3a 8c 3d
       -0.018469134 0.010974725 0.061252825 0.06847166
0000c0 b3 14 b4 3d 81 59 fe 3c 8d 41 34 3d 37 ba 9c 3d
       0.087930106 0.031048538 0.044007827 0.07652705
0000d0 33 7d 1d bc b6 27 10 3d 21 72 c1 3b bb bf 4c 3d
       -0.009612369 0.03519412 0.005903498 0.049987536
0000e0 3f cf e2 3a 44 43 97 3c 3b 6b 28 3c 52 36 dc bb
       0.0017304196 0.018464692 0.010279472 -0.0067203427
0000f0 75 14 8b 3d 84 2f 21 3d 78 73 61 3d fb c3 d0 3c
       0.06791011 0.039351955 0.05504176 0.025484076
000100 c5 fb 4c 3d e6 13 dc bc 37 8c 88 bc 31 25 83 bc
       0.050044794 -0.026864957 -0.016668422 -0.016008945
000110 33 c6 f4 3c 50 3d ac 3c b2 bc c1 bc 6e 98 c6 bb
       0.029879665 0.02102533 -0.023649547 -0.0060606515
000120 d7 d0 d2 bc ed cd ba 3d ca 48 b3 bc c2 b7 28 3d
       -0.025734348 0.091213085 -0.021885294 0.04119087
000130 7e 23 b3 3d a9 9f 82 3c 9a d3 7c bc 97 fc 4c 3d
       0.08747004 0.015945273 -0.015431309 0.050045576
000140 fa ba 2c 3c 1c c5 a8 3d 68 e9 fd 3c 7d ce 66 3d
       0.010542626 0.08240721 0.030995086 0.056349266
000150 c8 be 46 bd af 55 e1 3a 73 f7 77 3d c2 24 35 3d
       -0.048521787 0.0017191673 0.06053872 0.044224508
000160 42 01 67 3d 7b bf 9a bc 98 7f 25 bd ba ce 1e 3d
       0.056397684 -0.018890133 -0.040404886 0.03877137
000170 c8 fd 12 3c a1 51 8d 3c 75 1a 9b 3d a9 db 29 bd
       0.008971639 0.017250838 0.07573406 -0.04146925
000180 a7 c1 db 3c 8d 1a 98 3c fd 7d 87 3d 3b 42 4c 3a
       0.02682574 0.018567348 0.06615827 0.00077918515
000190 9a 0e 5b 3d 8b 36 9c bb 74 dc 6e 3d b8 03 07 3d
       0.053480722 -0.004767244 0.05831571 0.03296253
0001a0 bc 5c 9d 3d f8 61 aa 3c 70 34 a9 3d 44 b5 0b 3d
       0.07683703 0.020798668 0.08261955 0.034108415
0001b0 e3 26 92 bb da c2 67 bd ac 45 a3 3d a6 98 ba bc
       -0.004460202 -0.05658231 0.07972273 -0.022777867
0001c0 cb bb 02 bd a4 4f 93 3d fa 11 fd bc e4 da d8 bc
       -0.031917375 0.071929246 -0.030892361 -0.026471563
0001d0 b7 96 81 3d 03 56 68 3d 78 73 b4 3c bf 3e 30 3d
       0.06327575 0.056722652 0.022027716 0.04302859
0001e0 a5 41 c6 3c b1 2a 65 3c 57 c3 1c bd 5a 13 bd 3c
       0.024201224 0.013987229 -0.038272228 0.023080517
0001f0 93 39 27 bd 2e 0f 84 3d 8b 38 07 bd 46 21 a8 3d
       -0.04082639 0.06448208 -0.033012908 0.082094714
000200 c0 d8 0e bd 46 78 98 3d 7a 31 96 bb f6 af cf 3c
       -0.034874678 0.07444815 -0.004583535 0.02535246
000210 8d 9a 26 bd 05 c9 76 bc 16 f7 0f 3d 09 6d d2 bc
       -0.040674735 -0.015062575 0.03514775 -0.025686758
000220 1f 6b dc 3c b4 f9 83 3c 5d d1 0e bc 08 78 8c 3d
       0.026906548 0.016110279 -0.008716908 0.06858832
000230 0b 4b 87 3d a2 a9 a1 bc 7f 5a 08 3d 52 5e 03 bd
       0.0660611 -0.019734208 0.03328943 -0.032072373
000240 de a2 31 3d 8d 21 da 3c a9 1f 04 bd 0a 01 f6 bc
       0.043368213 0.026627326 -0.032256756 -0.030029792
000250 b2 c7 30 3d 41 92 99 3d a1 c6 be 3d bf 5d b3 3d
       0.043159194 0.07498599 0.09315229 0.08758115
000260 b2 90 2d 3a ea 15 3c 3d 04 e6 ff bc 77 5d 2a 3d
       0.00066209876 0.045919336 -0.03123761 0.04159304
000270 0f 71 58 bc f8 77 ee bc 3b a6 b0 3d 65 ec f7 3c
       -0.013210549 -0.02910994 0.08625456 0.030264089
000280 d7 17 fc 3c 76 64 ad bc a7 b8 88 bb cb e3 1e bc
       0.030773086 -0.021166068 -0.004172403 -0.009697865
000290 80 1c 34 bc 19 0a 0c bd 6d 5e 82 3d 2a 9e 07 3d
       -0.010993123 -0.034189317 0.063656665 0.03310982
0002a0 a9 85 a8 3d 8d c4 82 3d ae 2f 5a b8 1a 82 35 3d
       0.08228619 0.06385145 -5.2019655e-05 0.044313528
0002b0 1b 11 94 3b 7c ec 4c 3c e6 f5 b4 3d ea 3e 0a 3d
       0.0045186407 0.012507554 0.08835964 0.033751406
0002c0 36 ea 49 3d ff 3c 85 3c 1d b9 a0 bb 45 2a 2d bd
       0.049295627 0.016264437 -0.0049048797 -0.04227664
0002d0 2f fe 6d 3d 96 10 1a 3c 4a f6 cc bb 0a dd 44 3d
       0.058103736 0.009403368 -0.006254946 0.04806236
0002e0 54 d6 26 3d f6 80 99 bc 6f b1 99 3d ea b0 19 3d
       0.040731743 -0.018738251 0.07504546 0.037522234
0002f0 1c 1f 1e bd af be aa 3d 9c ed 38 bc f4 79 61 3b
       -0.038603887 0.08337151 -0.011287119 0.0034404965
000300 fb da 41 3d 5f c8 74 3d 54 ef 5a 3d a0 72 1f bd
       0.047327977 0.0597614 0.053450897 -0.038927674
000310 b2 8f a4 bc 45 b1 ff bc e4 d0 c0 3c 16 9b 26 3d
       -0.02008805 -0.031212458 0.023537107 0.040675245

fc3.weight f4 [200, 200]
000000 6f 4d 21 3d 57 4b 74 3d 2f 46 0b bc c7 0c e0 3b
       0.039380487 0.059642162 -0.00850062 0.0068374607
000010 1e 08 9b 3d ac da 8e bd f9 4a 18 3d aa b9 89 3d
       0.075699076 -0.06975302 0.037180874 0.06724866
000020 6d 3b a4 3d 2d d9 f2 3c 62 28 22 bd bd d4 8f bd
       0.08019147 0.029644573 -0.039589293 -0.070229985
000030 90 ea a2 bc ee 6d 9f 3d 32 2d 9e 3b 97 4e 61 bc
       -0.019887239 0.07784639 0.004827165 -0.013751647
000040 bc 35 50 bd 05 ff 53 3d 82 19 fa 3c 8e 3f 3c bd
       -0.050832495 0.051756877 0.030529741 -0.045959048
000050 ac a6 1c bb 22 8f d2 bc 9d 44 cb 3d 89 3c 8e bc
       -0.0023903055 -0.025703017 0.09925196 -0.01736285
000060 8b 5e d5 3c 42 fa 10 3d 36 eb 79 3d e1 d3 91 3d
       0.026046058 0.035394914 0.06101533 0.07120491
000070 50 3c 90 3d 76 0d a0 3d 25 dc 63 bd ef 86 18 3c
       0.07042754 0.078150675 -0.055629868 0.009309514
000080 2a ed 8d 3c 9f 47 3b 3d 47 3a 87 bd 97 99 6e bd
       0.017325003 0.0457226 -0.066029124 -0.058251943
000090 26 c5 5f bd 6f 18 3d 3d 57 a9 bc 3c c1 2d 84 3c
       -0.054631375 0.04616588 0.023029966 0.016135098
0000a0 d3 19 93 bc b0 11 cb 3d bd e9 a8 bd fd d9 8e 3a
       -0.01795665 0.09915483 -0.08247707 0.0010898706
0000b0 9d c3 89 bd 1c 3e e5 3b ac c9 73 3d d6 e2 a6 bc
       -0.067267634 0.0069959294 0.0595185 -0.020371836
0000c0 48 65 b0 3d 6f 3f e6 bd 6d 6d 58 3c 71 08 cf bc
       0.08613068 -0.11242568 0.013209683 -0.02527258
0000d0 90 c6 f5 3d fc e5 4e bd 99 f4 18 3c 51 98 ba bb
       0.120007634 -0.0505123 0.00933566 -0.005694427
0000e0 e4 1f 18 bd ac e5 4f 3b 44 fa c9 3a 62 55 71 3d
       -0.03713979 0.0031722588 0.0015409668 0.058919318
0000f0 b5 cf 51 bd 90 8d 17 3d 1b 7f b4 3d 08 90 53 3d
       -0.051223475 0.03700024 0.08813306 0.05165103
000100 bb 79 0e 3d 68 84 2e 3d e5 81 06 bd 00 71 2a 3d
       0.03478406 0.04260674 -0.03283872 0.04161167
000110 4f 78 68 3d 76 8f 11 3d 66 bf d1 3d 78 26 e8 3c
       0.05675536 0.035537206 0.102415845 0.028338656
000120 79 24 90 3c f9 a3 02 bd d5 80 7f bb fa 5c 12 bd
       0.017595517 -0.031894658 -0.0038986702 -0.0357332
000130 fe d1 90 3d d7 f1 6b 3d 6e 64 cf 3b 16 72 7a 3d
       0.07071303 0.057603683 0.006329111 0.061143957
000140 15 ee e4 bc d3 99 46 bd 9d 86 57 bd 0b c7 44 bd
       -0.027945558 -0.048486542 -0.05261861 -0.048041385
000150 c3 d1 25 bd 08 e7 98 bc 0f 75 32 bd 6a 3d 5e bd
       -0.040483247 -0.018664852 -0.043568667 -0.054257788
000160 3e 00 89 bd 5a c5 2c 3c 7b d9 6a 3d bc 71 01 3b
       -0.06689499 0.010545099 0.05733631 0.001975163
000170 2b 36 5c bd 72 30 be bc fe ef 24 bd b9 e8 30 3a
       -0.053762596 -0.02321646 -0.040267937 0.00067485456
000180 6b 66 a0 3a 5d 6f bb 3a 1a 63 52 bd 6c a6 ec bc
       0.0012237554 0.0014300157 -0.051364042 -0.02888795
000190 7a fc 81 3d e8 24 0a bd 90 de c6 3c c8 aa 9b 3c
       0.06346984 -0.033726603 0.024276048 0.019002333
0001a0 50 a7 3a 3c 18 05 f1 bc 5b 00 be ba 21 ed 12 bd
       0.0113924295 -0.029421374 -0.0014495956 -0.035870675
0001b0 b6 d3 94 3d f7 0e b0 3d 32 a7 cb 3d 95 b6 87 3d
       0.07266943 0.08596604 0.09943999 0.06626622
0001c0 82 27 4c 3d c5 dd 0d ba a9 75 32 3c 97 fa 33 3d
       0.049842365 -0.00054117694 0.01089231 0.043940153
0001d0 90 ec aa 3d 5b 72 eb bc 98 62 79 bd 80 68 85 3d
       0.08345902 -0.028741052 -0.060885042 0.065140724
0001e0 6d 71 20 3c c8 ed a4 bc 0a 1c 97 3c 62 5e e9 bc
       0.009792668 -0.020132914 0.018445987 -0.028487388
0001f0 d4 fb 3c 3c 2e c3 59 3d a5 2d 57 bd 2f 50 0a bc
       0.01153465 0.053164653 -0.052533764 -0.008441969
000200 9e be cf 3c 0d b9 ed bc 7c e1 fd 3c e0 74 5a 3d
       0.025359448 -0.029018903 0.030991308 0.053334117
000210 42 a3 43 bc 26 89 90 3d f1 3e 70 3d 0e 4c 3f 3d
       -0.011940779 0.07057409 0.058653776 0.04670339
000220 90 fe b7 3d 4c 74 06 3d 50 da 79 bd f0 d5 c3 bc
       0.08984101 0.032825753 -0.060999215 -0.023905724
000230 8f 95 91 bd d7 ea c8 3c ab 4d f3 bb 3e ce 61 3d
       -0.07108604 0.024526043 -0.00742503 0.05512833
000240 f2 eb 12 3d 81 fd 63 3c 16 3e 14 3d 0e e4 b1 3d
       0.035869546 0.0139154205 0.036192022 0.08686076
000250 d4 cb 56 bd d3 3b 98 3c b2 a5 9f 3d 7e 3b a8 3d
       -0.05244048 0.018583214 0.07795276 0.08214472
000260 91 ff d3 ba 05 34 9b bd 45 95 cf 3c de 52 94 bd
       -0.0016174187 -0.07578281 0.025339732 -0.07242368
000270 c7 64 88 3d 27 73 b1 3d 51 f4 af 3c 3a 2b 77 bd
       0.06659847 0.08664542 0.021478804 -0.06034396
000280 a5 52 ac 3c f6 bf e4 bd c6 40 ac bd 69 2b fb bc
       0.021035502 -0.11169426 -0.08410792 -0.030660348
000290 16 9f a7 3c 0c ad 31 3d 1f 8b 43 bd 24 0b ab 3d
       0.0204616 0.04337792 -0.047740098 0.08351734
0002a0 d2 45 98 3c 58 8f a8 3d f6 7b 30 3d 8d 10 21 3d
       0.01858798 0.08230466 0.04308697 0.039322425
0002b0 b7 9b 3e 3b 38 44 b2 3d f0 3c f8 bc 1e 41 af bd
       0.0029084512 0.08704418 -0.030302495 -0.08557342
0002c0 19 9d 47 bc 8d bc 77 bc 53 82 ba 3d 09 96 cb 3d
       -0.012183451 -0.015120638 0.091068886 0.09940726
0002d0 02 6d 7d 3c ad 06 cd ba fb 02 06 3d da 6e c5 3d
       0.015467884 -0.0015642248 0.032717686 0.09640284
0002e0 56 80 a4 3b 33 97 04 bd 21 b3 47 3d 29 99 94 bd
       0.0050201816 -0.032370757 0.048754815 -0.072557755
0002f0 48 bb ca 3d 47 b0 06 3d 1e d3 4e 3d 6d eb 05 3d
       0.09899002 0.032882955 0.050494306 0.032695223
000300 1b d3 42 3d 32 02 7b 3c 53 de d2 bc 9e 0c 69 3d
       0.047564607 0.015320348 -0.025740778 0.0568968
000310 0c e5 a5 3d e5 37 93 bd d0 86 8f 3c 66 e9 92 3c
       0.08100328 -0.071883954 0.017520338 0.017933559
000320 18 7b 97 bb a4 09 31 bd 0d 64 36 3c 97 c1 b2 3d
       -0.004622828 -0.043222085 0.011132252 0.087283306
000330 9f 51 0c 3d cb fc 30 3c 93 61 b5 3d be e9 0d bd
       0.034257527 0.010802458 0.088565014 -0.034646742
000340 93 a6 ce bc bb 7a ab bd 66 62 c8 3d ff 59 ff 3c
       -0.025225913 -0.08373018 0.09784393 0.031170843
000350 fd db 3c 3d f7 a7 41 3d 51 e5 a2 3c ec 23 af 3c
       0.046108235 0.047279324 0.019884737 0.021379434
000360 62 a0 68 bd 4b 7c 06 bd 06 87 26 bd 23 77 c7 3b
       -0.056793578 -0.03283338 -0.040656112 0.0060872003
000370 33 bf 14 3c c5 f1 82 bc a9 c6 c4 bc 62 36 73 3d
       0.009078789 -0.015984425 -0.02402051 0.059378035
000380 99 e2 7b bc 9a 0a b1 3d 30 d4 42 bd 84 ca b7 bd
       -0.015373849 0.086446 -0.04756564 -0.08974174
000390 65 ee b2 bd 70 34 8f 3c 8e 37 8d 3c 90 31 12 bd
       -0.087368764 0.017481059 0.017238405 -0.035691798
0003a0 f4 04 19 3d b5 b0 6a 3d 33 c0 7e bc 28 2b 8c 3c
       0.03735824 0.057297427 -0.015548754 0.017110422
0003b0 a0 33 c0 3c d2 9d 0f bc 6a e2 90 3d 72 45 f4 bb
       0.023462117 -0.008765655 0.07074435 -0.0074545676
0003c0 bc 12 c5 3d c7 2c 66 bd 53 37 0e bd 95 87 0d 3d
       0.09622714 -0.056195047 -0.03472073 0.03455313
0003d0 a1 cf 87 3c 23 35 35 3c 45 0a 84 bd ae 4a ae bb
       0.016578497 0.011060032 -0.06447271 -0.005318961
0003e0 6a 88 43 3c 01 bb e5 bc 3a 51 3d bd 01 86 95 bd
       0.011934379 -0.028043272 -0.04622004 -0.0730095
0003f0 6d 7b 2e bc 9b bb 04 bd 00 41 26 3d 4b 75 bf 3d
       -0.010649544 -0.032405477 0.040589333 0.09348544

fc3.bias f4 [200]
000000 64 55 85 bd 81 03 bc bc 0b 4f 52 3d c6 4f 73 bd
       -0.065104276 -0.02295089 0.051344912 -0.05940225
000010 5d 09 02 3d 97 33 79 3d c7 b7 88 bd d4 6b 9b bc
       0.03174721 0.060840216 -0.06675678 -0.018972315
000020 f6 45 13 bd e9 ec 19 bd d7 d8 19 bc 8e 39 90 3c
       -0.03595539 -0.03757945 -0.009390078 0.01760557
000030 4e d0 1b bd bd 83 23 bd 9c 96 9b bd 11 fa e2 bb
       -0.03804045 -0.039920557 -0.07597086 -0.006926783
000040 27 59 00 3c 30 77 34 bd 77 14 91 3c 1c 9e fa bc
       0.007833756 -0.04405898 0.017709954 -0.03059297
000050 c6 59 15 bd 59 9e 32 3d c5 fe d6 bc 55 1f 26 bd
       -0.036462568 0.043608043 -0.02624453 -0.040557224
000060 47 f4 90 3c ec 90 66 3d 83 02 c6 3c 72 14 10 bd
       0.017694606 0.056290552 0.02417112 -0.03517575
000070 2c f0 a7 3d c1 14 24 bd a0 9d 16 bd 4b 0f a7 3d
       0.08200106 -0.040058855 -0.036771417 0.08157214
000080 41 ce 06 3c 0a 4c e2 3c 55 e3 41 3d 20 27 b3 3d
       0.008227886 0.027624149 0.04733594 0.08747697
000090 2a f7 5f bc 7d dc b4 3b b1 39 28 bc df e4 8e bc
       -0.013669768 0.0055194483 -0.010267661 -0.017443119
0000a0 4e 75 96 3c 8a 18 e0 3b 9e e3 10 3d 3d 14 8e 3d
       0.018366482 0.006838863 0.035373323 0.06937454
0000b0 d6 05 9f ba 58 c7 1c bd c6 d3 99 3d 08 08 0a bd
       -0.0012132477 -0.038276047 0.07511096 -0.033699065
0000c0 3e 47 0a bd 1b 49 b4 3c a2 08 03 3d e2 c4 00 3d
       -0.033759348 0.022007516 0.031990655 0.031437762
0000d0 f5 5b dd 3b fb a5 c1 bc a5 d4 9c 3a c1 ee 3e bd
       0.006755347 -0.023638716 0.0011965228 -0.046614412
0000e0 bf 8d d6 3c fd 03 bb bb f2 bc 59 3d 02 2d 85 bd
       0.026190637 -0.0057072625 0.053158708 -0.06502725
0000f0 c4 15 6f bd a9 1d a8 3d fe 74 0c 3d 62 8c 43 bd
       -0.058370367 0.08208782 0.03429126 -0.0477413
000100 98 31 5c bc 3c b5 7c bc 62 6f fb 3c d0 34 bb 3c
       -0.013439558 -0.015424069 0.03069276 0.022852331
000110 13 5d 17 bc 57 c9 73 3d 11 ff ed 3b e1 7f 1e bc
       -0.009238499 0.059518185 0.0072630723 -0.009674043
000120 b6 ae a6 3b 70 30 3a 3c db fa 0b bc f0 f2 8a 3d
       0.005086745 0.011364087 -0.008543695 0.06784618
000130 1f cf cb bc 2f 63 25 3d 42 3c 9b 3b 15 bd 09 bc
       -0.024879036 0.040377792 0.004737408 -0.008406897
000140 a6 be cd bc 31 64 a6 3d 14 30 57 bc d6 49 f0 3b
       -0.025115322 0.08124579 -0.013134021 0.0073330207
000150 41 c3 97 bc 32 4b 59 3c ce ad 15 3d ae f1 9b ba
       -0.018525722 0.013262557 0.036542706 -0.0011897588
000160 f7 31 30 bd ff 88 0d bd b1 d0 4f 3d 89 b3 53 bd
       -0.0430164 -0.034554478 0.050736133 -0.05168489
000170 ea 69 6f bd 8e 09 85 3d ff 0f 16 bb 1c 77 81 3d
       -0.058450617 0.06495963 -0.0022897718 0.063215464
000180 fb 26 ab bc 56 2c 88 bb b4 95 47 3d 6b 08 35 bc
       -0.02089261 -0.004155676 0.048726752 -0.01104937
000190 04 95 57 3c 63 43 9f bc 38 c1 81 3b 65 89 71 3d
       0.013158087 -0.019441312 0.003959801 0.05896892
0001a0 bc 00 6e bd 8d d7 47 3d 88 84 5a 3d 94 83 0e bd
       -0.05810617 0.04878955 0.053349048 -0.03479345
0001b0 c3 74 53 bd ed 71 89 3d b9 ce f9 bc af 59 75 bd
       -0.051625025 0.06711183 -0.03049408 -0.059899982
0001c0 f5 d2 96 3d 12 db dc 3c 6e 09 35 3d d9 f8 43 bd
       0.073644556 0.02695993 0.044198446 -0.04784474
0001d0 ce 76 17 3d 5e 1e 19 bd a2 9f 3b bd bc 9d 5e 3d
       0.036978535 -0.037382476 -0.045806535 0.054349646
0001e0 a5 37 d7 bc 85 2f 4e bd ec 18 3a 3d 9a 09 81 3c
       -0.02627165 -0.050338287 0.045433924 0.015751649
0001f0 49 77 82 3d 13 74 59 3d 69 34 54 bd 96 90 90 3c
       0.06370408 0.053089213 -0.051807795 0.017647069
000200 24 ff 68 3d 7e 04 76 bc 1f 19 bd 3c 3b c5 6c 3d
       0.056883946 -0.015015719 0.023083268 0.05780528
000210 1f 17 d9 3b 3b c9 e6 bc cd df 8d 3d 1a 31 76 3c
       0.0066250707 -0.028172126 0.06927452 0.015026355
000220 a9 98 7a 3d 3f a6 9f 3d cf b1 81 3d f2 81 36 bc
       0.061180744 0.07795381 0.063327424 -0.01113938
000230 df 9b 42 bd aa 34 6e bc c5 a7 5c 3d 8e 33 01 bd
       -0.04751193 -0.014538923 0.053870935 -0.031543307
000240 f0 4b 9a b9 c0 a8 0e 3d 8e d4 9e 3d 9d 0d 7e 3b
       -0.00029429747 0.0348289 0.07755385 0.0038765438
000250 fb 43 13 3b 44 bb 23 bd 27 3f 20 3d 87 fd 82 bc
       0.002247094 -0.039973512 0.039122727 -0.015990032
000260 e4 ce eb 3c 86 98 76 bd 4b e8 8e bc 4b 7a 6d 3d
       0.028785177 -0.06020405 -0.01744475 0.057977956
000270 a5 bd a5 3b d7 82 ba 3b 05 44 9b bb dd e6 97 3d
       0.005058008 0.005691867 -0.004738333 0.074170806
000280 a1 4d 2d 3d 84 19 f4 bb 61 9e ca 3a 78 3a 8b bc
       0.04231036 -0.0074493308 0.0015458578 -0.016995654
000290 f7 27 7a 3d 37 81 66 3d 17 e0 32 3c 3b 87 8a bc
       0.06107327 0.056275573 0.010917685 -0.016910186
0002a0 75 75 48 ba 2e ca 86 bc 48 ce ee 3a 7e 5e 67 3d
       -0.0007646897 -0.016453829 0.0018219436 0.0564866
0002b0 63 ae d4 3a 25 96 be bc df b4 49 3d db 0a 25 bb
       0.0016226288 -0.023264954 0.049244758 -0.0025183472
0002c0 e6 b2 8c 3d a0 e6 12 3c f1 df 68 3c b5 cb 1d bc
       0.0687006 0.008966118 0.014213548 -0.009631087
0002d0 67 02 7f bd d8 91 98 bc 98 9e 3c 3d c1 84 51 bd
       -0.06225815 -0.018624231 0.046049684 -0.051151995
0002e0 24 f5 69 bc 5b 19 21 3d 1e 44 84 3d f5 1b f7 bc
       -0.0142796375 0.03933082 0.06458305 -0.030164698
0002f0 c0 bd 00 bd cb c0 28 bd d2 58 5c 3d 7c 9f 7f bd
       -0.03143096 -0.041199487 0.053795643 -0.062407956
000300 63 8e 6a 3c b4 47 8f bd bd 7d b2 3c b2 6b 6c 3d
       0.014316174 -0.06996098 0.021788472 0.057719894
000310 20 0a c1 3c cb f6 bf bc 91 a1 a8 3c 8d ca ab bb
       0.023564398 -0.02343311 0.020584853 -0.005242652

fc4.weight f4 [6, 200]
000000 5d cf 4c 3d be c6 27 3d 2a a5 40 bd cd 4f bd bd
       0.050002445 0.04096102 -0.047032513 -0.092437364
000010 6e d5 c3 3d c7 51 64 3d c7 92 42 ba 63 87 da bd
       0.09562193 0.05574205 -0.0007422384 -0.10670354
000020 86 2b 95 bd e9 0a cd 3c b5 05 10 bd e8 3a b0 3d
       -0.07283692 0.025029616 -0.035161693 0.086049855
000030 2e fd 36 bd f5 c8 cf bc de 13 61 3c f5 b2 5a 3d
       -0.044675045 -0.025364378 0.013737647 0.053393323
000040 c2 24 b6 3d b9 5f 78 bd 86 f9 93 3d 23 20 2a 3d
       0.0889373 -0.060638163 0.07225327 0.041534554
000050 1e 5c 52 3d 3d ae e5 bb 45 69 f5 bd b4 82 47 3d
       0.05135738 -0.007009296 -0.11982969 0.048708633
000060 00 dc c9 bd 23 c2 a2 3d 7b 1b 65 3d 48 0e 13 bc
       -0.09856415 0.07947185 0.05593441 -0.008975573
000070 0b 25 02 3d 33 70 94 bd c8 92 d7 bd b4 54 2f 3c
       0.03177361 -0.07247963 -0.10526043 0.010701347
000080 06 94 b0 bd a7 e0 32 ba 74 18 05 bd 64 34 f2 bc
       -0.08621983 -0.0006823637 -0.032494023 -0.029565997
000090 3c b4 74 bd ea 48 c9 bd b7 be 8e bd f7 d6 07 bd
       -0.059742197 -0.098283604 -0.0696997 -0.03316399
0000a0 3f 32 de bd f4 38 83 bd ea 92 53 3d d5 4f 99 3d
       -0.108494274 -0.06407347 0.05165378 0.0748593
0000b0 68 7a 44 3c 1b 79 b0 3d a5 bf 87 3d c0 86 d2 bd
       0.011992075 0.08616849 0.0662835 -0.10279608
0000c0 1f 85 40 bd 99 02 9a 3c d6 bd 64 3d df 0e 80 bd
       -0.047001954 0.018800067 0.055845104 -0.062528364
0000d0 ad d0 a0 3d 0c b5 35 bb 9a 7c cb bd 2e c7 a8 3d
       0.07852302 -0.002772632 -0.09935875 0.082411155
0000e0 1d ac 3b bc 18 b6 c7 bd 2c 61 76 3b ca d1 a0 3b
       -0.011454609 -0.097515285 0.003759454 0.0049078213
0000f0 d0 cd d2 bd ac e8 0e bd e4 79 ee 3d 88 33 37 3d
       -0.10293162 -0.034889862 0.116443425 0.04472688
000100 af b3 65 bd 61 4e f0 3c 20 dd c3 3c 3e 49 30 3d
       -0.056079563 0.029334249 0.023909152 0.0430386
000110 c8 64 6a 3c 4c e3 97 3d b2 c3 59 3d 0b 14 a5 3d
       0.014306255 0.074164 0.053165145 0.080604635
000120 41 d9 73 bd 60 92 f8 bd 84 e2 96 3d 40 12 b4 3d
       -0.05953336 -0.12137294 0.07367423 0.087925434
000130 3c 03 73 3d 86 f6 1e 3c a4 37 1a bd d6 07 a6 bd
       0.059329256 0.00970233 -0.03765072 -0.08106963
000140 0a b8 4a 3d 18 3b b5 3d 66 ac 84 bd 24 fb c9 bc
       0.04949192 0.08849162 -0.06478195 -0.024655886
000150 aa 6a e8 3c 8b 02 b7 3c 9a 87 27 3b ae ac 9b bd
       0.028371174 0.02234008 0.0025563003 -0.076012954
000160 b5 d1 95 3c c2 67 68 3d 9e 52 c6 bd 36 5a e4 bd
       0.018288473 0.056739576 -0.09683727 -0.11150019
000170 ed 82 da bd 34 f2 bf bc 99 f9 61 bd da e5 73 bc
       -0.10669503 -0.023430921 -0.055169675 -0.014886344
000180 7b 3d aa bd cb fc 6b 3d 3d 8e 93 bc 2c 97 d7 bd
       -0.08312508 0.05761413 -0.01801216 -0.105268806
000190 a7 e7 88 3d a2 46 1e bc 2e 26 37 3d b8 26 b1 bd
       0.06684809 -0.009660395 0.044714145 -0.08649963
0001a0 6b 03 38 ba c4 09 b0 bd 51 05 34 3d 50 ab 72 3c
       -0.0007019552 -0.08595613 0.043950383 0.014811352
0001b0 e0 b6 fc bd 12 15 fe 3c c3 fb a4 bd fd 5c 12 3d
       -0.12339568 0.031015906 -0.08055832 0.03573321
0001c0 64 da 2b 3d 07 8f 51 3b 3e e6 b7 3d 1f c8 89 bd
       0.04195632 0.003197612 0.08979462 -0.06727623
0001d0 18 ae 87 3c 31 0b d2 bd d5 05 74 3c 4f 56 63 3c
       0.016562507 -0.10256041 0.014893969 0.013875558
0001e0 e5 0d 85 bd d9 f8 ad bd ff 89 a4 3d ec d0 bb bd
       -0.06496791 -0.084947295 0.08034133 -0.09170708
0001f0 37 e8 61 3d 24 33 d8 3d 07 9f 0f 3d 6f b5 bc bc
       0.055153098 0.10556629 0.03506377 -0.023035733
000200 11 da 26 3d 4b 62 b3 bd cb 8d b8 3d 96 bb 84 3d
       0.040735308 -0.08758982 0.0901142 0.06481092
000210 d9 fd fc bc 36 2a 01 bd 22 74 40 3d ca d1 8f 3d
       -0.030882763 -0.031534396 0.046985753 0.07022436
000220 8c a3 d9 bd c4 0d bc bc 8f fe d7 bd ba 08 85 3d
       -0.10626897 -0.022955783 -0.105466 0.06495805
000230 0e 20 a3 3d ca ef 10 3d 75 2a ad 3d 87 73 cd bd
       0.07965098 0.03538493 0.08455364 -0.10031801
000240 c3 8d 95 3c 76 84 ce bd 1b 8e 04 3d 3e bd e2 bd
       0.018256074 -0.10083859 0.032362085 -0.11071251
000250 01 49 54 bc c6 c7 ba bb b2 15 db 3c 1d c2 8f 3b
       -0.012956859 -0.0057000844 0.026743744 0.004387154
000260 b1 72 e9 bd da 93 59 3c 66 8f 5c 3d 23 09 a0 bc
       -0.11398829 0.0132798795 0.053847693 -0.019535607
000270 22 21 af 3d f3 00 b3 bd c2 78 b2 bd a8 ef 1c 3b
       0.085512415 -0.087404154 -0.08714439 0.0023946557
000280 09 76 84 bd 14 ad 45 3d 7e ce b2 bd ee 49 0f bd
       -0.06467826 0.048260763 -0.087307915 -0.034982614
000290 16 e5 86 3d fc 49 2b 3d ad 24 fc b9 66 3a 42 bc
       0.065866634 0.041818604 -0.0004809251 -0.011854744
0002a0 82 60 6b 3d 13 b8 b6 bd 09 92 93 3d 36 db c8 bb
       0.057465084 -0.08921828 0.07205588 -0.0061296476
0002b0 3c 67 28 bd 24 6d 1f bd cc f7 6c 3d 5e 83 bd 3d
       -0.041114077 -0.038922444 0.057853505 0.09253572
0002c0 34 14 b1 bc 96 e8 e5 3c 4e 5a 2d 3d 75 3e 72 bd
       -0.021616079 0.028065007 0.04232245 -0.059141595
0002d0 a6 8a 45 bd d0 f3 42 3d 3a 0b 94 3d ff 16 3c 3b
       -0.04822793 0.0475958 0.07228704 0.002870023
0002e0 a1 5f 2f bd 4d a1 42 bd 61 b7 8f bd 52 67 c2 3d
       -0.04281581 -0.04751711 -0.070173986 0.09492363
0002f0 cf c9 d3 3c 73 d1 52 3d c7 58 a3 3c b8 24 1c bc
       0.025853066 0.051469278 0.019939793 -0.009530239
000300 65 4e bd bd 67 4c 49 bc b9 00 7b 3d 1b cf 55 3d
       -0.09243468 -0.012286282 0.061279986 0.052199464
000310 f2 1a 17 3d 70 80 15 bc a9 80 9f bd 8e 17 92 bb
       0.03689093 -0.00912486 -0.07788212 -0.0044583743
000320 c9 9f c0 bb c3 df 31 3d e6 29 3b 3c 65 f4 77 bd
       -0.005878423 0.043426286 0.011423564 -0.060535807
000330 6b 42 c8 3d 7b ee 14 bd 37 ed a4 3c 8d 0d 9e 3d
       0.09778293 -0.036360245 0.020132644 0.07717428
000340 b2 4f 1f 3d 6b ca 8b 3d f7 d5 d1 3d a8 4f 16 3c
       0.038894363 0.068257175 0.10245889 0.009174265
000350 e7 f3 0e 3c 86 93 bf 3d 25 58 16 bd 5e f1 8f 3d
       0.008725143 0.0935431 -0.036705155 0.07028459
000360 0f 3c b6 bd 94 b9 aa 3b f6 8c f2 bc ec 8e e5 3d
       -0.08898174 0.005210111 -0.029608231 0.11208901
000370 ca d4 4c 3d 32 bf 95 bd 94 2a f1 bc ab a0 89 bd
       0.05000762 -0.07311858 -0.029439248 -0.06720098
000380 8a ad 0b bd f7 81 c6 bd 23 f6 b8 bc 54 72 ae bd
       -0.034101047 -0.096927576 -0.022578305 -0.085179
000390 23 5c c5 3d e9 ca 38 bc 93 7b 39 3d 0d ec 99 bd
       0.09636714 -0.011278846 0.045283865 -0.07515726
0003a0 26 10 e1 3d 8d c0 65 3d 40 9b a9 3d 3c 9a f7 bd
       0.10989408 0.056091834 0.08281565 -0.12089965
0003b0 dc 94 6e bc 6c 2b c9 3c 73 cb 27 bc 68 f0 df 3c
       -0.014561858 0.024556838 -0.010241377 0.027336314
0003c0 76 4d 19 3d f8 31 b5 3d e3 e1 c4 bd 00 68 89 3d
       0.037427388 0.088474214 -0.09613397 0.067092896
0003d0 49 3a 7d bc 57 08 17 3b e9 6d 34 bd 90 3d 92 3c
       -0.015455791 0.0023045742 -0.04405013 0.01785162
0003e0 f9 2a 77 3c 8e 82 7b 3d 39 fd 88 3d a2 b0 64 bc
       0.015085929 0.061403804 0.066889234 -0.013958128
0003f0 ce 98 c3 bd 6c 75 2c bd 54 eb 2b 3c 77 32 05 bc
       -0.095506296 -0.04210417 0.010493118 -0.008129708

fc4.bias f4 [6]
000000 34 c3 11 3d d1 4f d8 3c 95 de 81 3b 0c 66 4a bd
       0.03558655 0.026405247 0.0039633014 -0.049413726
000010 9a 9b cb bc 1d 51 30 bc
       -0.02485447 -0.010761526
