checkpoint.pt (torch, 416237 bytes, 8 tensors)

fc1.weight f4 [200, 108]
000000 ba 9a a8 bb 41 11 0f 3d 37 00 06 3c 60 15 b7 bd
       -0.005145398 0.034928564 0.008178762 -0.08939624
000010 45 8b 0c 3d b6 4b 57 bd 55 98 1c 3c dc c7 81 bc
       0.034312505 -0.052562438 0.009557803 -0.01584237
000020 be 6c ac bd fa 11 19 bd 47 a8 7b 3d 21 e0 0e 3d
       -0.084191784 -0.03737066 0.06143978 0.034881715
000030 9f fc 9d bc 8f 43 22 bb 90 78 61 3d 43 6e f1 bd
       -0.019285498 -0.0024759506 0.055046618 -0.11788609
000040 6c 91 18 be db 3a 90 3c f7 e8 96 3d 4c 3d 51 bc
       -0.14899224 0.01760619 0.07368653 -0.012770962
000050 fb 78 8a bd 75 f9 58 3d 94 6b 48 bc c8 ed d6 3c
       -0.067613564 0.052972276 -0.01223268 0.02623643
000060 6d 0f 58 3d 33 f8 d0 bc 6d 8c 39 3d 5a e0 65 bd
       0.052749086 -0.025508976 0.045299936 -0.05612216
000070 1a 51 72 3d 39 cc b7 3d 62 5d 26 3d 80 b5 e4 bd
       0.059159376 0.08974499 0.0406164 -0.11167431
000080 0c 10 e7 3d 39 4b 06 bc 38 44 66 3b 9f d0 88 bc
       0.112823576 -0.008196645 0.0035135876 -0.01670104
000090 35 38 ed bd 90 95 85 3d f2 cb aa bc 10 d4 4c 3d
       -0.11582986 0.065226674 -0.020849202 0.050006926
0000a0 20 9a 72 3d ad 74 b8 bd 3a de b8 3d c6 2b be bc
       0.059229016 -0.09006629 0.09026761 -0.023214232
0000b0 d0 49 19 3d 3b 4f 63 bd 8d 95 c4 3b 9d af 68 bd
       0.03742391 -0.055495482 0.005999273 -0.056808103
0000c0 cb 96 ae 3d a6 6a 3b bd 7f 1d 9b 3d 98 db b8 bc
       0.08524855 -0.045756005 0.07573985 -0.022565648
0000d0 e6 69 50 bd bc ac 43 3d 22 8e 89 bd 2c 0e 6b bd
       -0.050882243 0.047772154 -0.06716563 -0.057386562
0000e0 ad d3 9e 3b 44 56 7b bd b4 c1 3a 3d 3c f7 0a bd
       0.004847011 -0.061361566 0.045594886 -0.033927187
0000f0 9b 8d 31 bc 5d 35 43 3d ae 7a c5 bd dc de b6 bd
       -0.010836984 0.047658313 -0.0964254 -0.08929226
000100 91 43 7c 3d 7b a3 12 bd 69 90 61 3d fc 63 96 bd
       0.061587874 -0.03580044 0.05506936 -0.07343289
000110 7d c5 b7 bd 9a 94 6a bd 75 a6 00 3d 52 67 a2 3d
       -0.08973215 -0.057270624 0.031408746 0.07929863
000120 7c 4a 01 3e 01 27 67 bd d7 09 d7 bb c3 3b 72 3d
       0.1262607 -0.05643368 -0.0065624523 0.059139024
000130 6f 72 02 3c 12 71 b0 bd d1 18 f5 bc d5 a4 3a 3c
       0.007961853 -0.086153165 -0.02991906 0.011391838
000140 4a b4 6e bc 24 ef 3a 3b a5 af 24 bc 61 1c 35 bd
       -0.014569351 0.0028523887 -0.010051643 -0.044216517
000150 10 8b eb bd 4a 50 23 bd ec 82 e1 3c 72 87 78 bd
       -0.115011334 -0.03987149 0.027528249 -0.060676046
000160 db db 19 bd 9d 9b bc bc 47 e1 c9 3c 8a b7 ff 3a
       -0.037563186 -0.023023421 0.024643553 0.0019509655
000170 b2 c8 bd bd 10 ab 65 3d 22 cc ae bd 0d 4d a0 3d
       -0.09266795 0.05607134 -0.08535029 0.07827196
000180 26 7f f3 bb 4f 38 b8 bd f8 4a 79 3c b6 fe d3 3c
       -0.0074309288 -0.08995115 0.015215628 0.025878292
000190 03 89 af 3d 24 ac d2 3c ff 4a 80 3c 35 9c d3 bc
       0.08571055 0.025716849 0.01566076 -0.025831321
0001a0 e0 b1 ad 3d 4f ba e7 bd 0c cf f5 bd 00 f8 47 bd
       0.084811926 -0.113148324 -0.12002382 -0.048820496
0001b0 24 67 a0 bd 08 68 c5 3c 01 1f 63 bd bc 4f c5 3d
       -0.078321725 0.024097458 -0.05544949 0.09634349
0001c0 80 6c 94 ba 41 94 09 3d ba f7 43 3d 6e b0 a1 bd
       -0.001132384 0.03358865 0.047843672 -0.078949794
0001d0 0b c0 4f 3c 59 23 1f 3c f6 d1 0b bd 33 b9 18 3d
       0.012680064 0.009713017 -0.03413578 0.037285995
0001e0 2f 2e a1 3d ed 47 a9 3d 6e ad 20 bd 63 28 83 3c
       0.07870137 0.08265672 -0.039227895 0.016010469
0001f0 46 ae 65 3c 8d 20 f0 3c d7 05 97 bd 6c 00 3b bd
       0.014018601 0.029312396 -0.07374161 -0.0456547
000200 33 e6 9b bd 57 b2 f6 3c 3a b3 3f 3b de 0a 81 bd
       -0.076122664 0.030114336 0.0029251114 -0.06300901
000210 36 ea 93 3d 54 fb c0 3c 76 d8 8e bd 17 49 5b bd
       0.072224066 0.023557343 -0.069748804 -0.0535365
000220 6b aa 17 bc a9 a6 b2 3d 56 de 94 3d a4 a2 02 3b
       -0.009256939 0.08723194 0.0726897 0.0019933367
000230 e3 1d 7b 3c 43 ff cf 3d d1 e4 9f 3d 62 62 2f bd
       0.01532695 0.10156109 0.07807315 -0.042818435
000240 f0 39 d4 3d ae 66 a3 3d 4d 31 9d bd f0 3b 2a bd
       0.10362613 0.07978569 -0.07675419 -0.041561067
000250 e7 66 44 bd 94 db f8 3c 90 a0 93 bd ca a5 df bc
       -0.047949698 0.03037814 -0.07208359 -0.027300734
000260 3f af 94 3d 3e e3 80 3d b1 b7 98 3d f0 07 9a bd
       0.07259988 0.06293343 0.07456911 -0.07521045
000270 71 13 94 3d 74 a6 92 3d 58 7a 0e 3d bd 9f 09 bd
       0.07230271 0.07160655 0.034784645 -0.033599604
000280 fd de d3 3d c1 a4 52 bd e0 69 c7 3d 46 e8 82 bd
       0.10345266 -0.051426653 0.09736991 -0.06391959
000290 84 4e 23 3d 0e 25 30 bd c2 77 67 bd 65 00 17 3d
       0.0398698 -0.043004088 -0.056510694 0.03686561
0002a0 58 53 dd 3d 31 94 fb bc 75 9c 1a bb 81 6a 40 3c
       0.10806912 -0.030710312 -0.002359179 0.0117441425
0002b0 d1 dc 2b 3d 74 89 99 bd 94 81 a5 ba af f6 69 bc
       0.041958634 -0.0749692 -0.0012627118 -0.014280005
0002c0 47 a0 98 3d 8c 47 c6 bc d0 4b fa 3c a7 65 a7 3b
       0.074524455 -0.024204038 0.030553728 0.0051085535
0002d0 a5 67 34 3c 52 40 f1 3c 91 8d 33 bd 44 08 48 bd
       0.011011039 0.029449616 -0.04383618 -0.048836008
0002e0 98 4d 45 bd 4b 59 f4 3d 3c c9 b4 3d 73 18 5d 3b
       -0.048169702 0.11931094 0.08827445 0.0033736497
0002f0 3e 1d 7b 3d 5a 29 02 bd 2c f4 cb bd d2 24 a3 3d
       0.061307184 -0.031777717 -0.099586815 0.07966007
000300 2b 30 e0 3a 82 cd 48 3d 00 81 9d bd 3b 68 87 bd
       0.0017104199 0.049024113 -0.076906204 -0.06611677
000310 1e f0 8b 3d 67 83 14 3d 96 99 e2 3c ba fd 56 bd
       0.06832908 0.036258128 0.027661126 -0.052488066
000320 39 9b 9f 3d f5 53 cf bc d4 2b 79 3d a3 eb cd 3d
       0.07793278 -0.025308589 0.060832813 0.1005471
000330 3c e3 b7 3d 54 37 ac 3b 36 02 01 3e ad e4 cb bc
       0.089788884 0.005255619 0.125985 -0.024889315
000340 21 58 1d bd 27 cc 16 bd 0e 00 23 3d 02 6d cd 3d
       -0.038414124 -0.03681579 0.039794974 0.10030557
000350 1f 67 09 3d bf e9 b7 bd 76 33 ac 3d 2e 2f 71 3d
       0.03354561 -0.089801304 0.08408253 0.058882885
000360 e3 76 73 bd 05 6d cf 3c 98 79 aa 3d 89 03 0d be
       -0.05943955 0.02532054 0.083239734 -0.1377088
000370 25 bd d2 3c 7e af ee 3c 3a e8 37 3d 6d 6d 04 be
       0.025724957 0.029136416 0.044899203 -0.12932368
000380 f1 d5 9e bd 38 5e a2 bd 9c a9 8a bd c1 c6 34 bd
       -0.0775565 -0.07928127 -0.06770632 -0.04413486
000390 8b ac d7 3b 1d cf 40 3d 44 fc d8 bc 79 3f 0f 3c
       0.006581848 0.04707252 -0.026487477 0.00874316
0003a0 26 67 6f 3d a2 a8 07 bd 7f 41 63 bd 5a f2 4f 3d
       0.05844798 -0.033119805 -0.055482384 0.050768234
0003b0 10 6a 8c 3d f8 e9 83 bc d4 5f be bc d7 db 18 3e
       0.06856167 -0.016102776 -0.023239054 0.14927612
0003c0 f2 c1 a4 bd cf a5 91 3d 52 d4 76 3d 3e a2 4b bc
       -0.08044805 0.071117036 0.06026108 -0.012428818
0003d0 2a 0c 9e bc f1 57 99 bd 01 3d 29 3c 15 3e 38 bd
       -0.01929291 -0.074874766 0.010329486 -0.04498108
0003e0 9e e0 31 3d ea 88 23 bc 3c a3 e1 bd de 60 df 3c
       0.043427102 -0.009981373 -0.110174626 0.02726787
0003f0 ef c4 9a 3d 1d 93 43 bd 81 5c cc 3c de 77 09 3d
       0.07557093 -0.04774772 0.024946453 0.03356158

fc1.bias f4 [200]
000000 54 8f ad 3c 75 70 dd 3d e7 38 07 3e 47 ea 96 3d
       0.021186508 0.10812465 0.132053 0.073689036
000010 42 84 15 3e b5 9b 84 3c e6 33 0e 3e cc 61 10 3d
       0.14601234 0.016187528 0.13886985 0.035249516
000020 bd 7e 7e bd a7 d1 42 bd bf 6e c0 3d ae dd db 3d
       -0.062132586 -0.04756322 0.09396123 0.107356414
000030 8c 0d 9f 3c 14 a2 4d 3d c5 09 2c bd ee be 36 bd
       0.01941564 0.050203398 -0.042001504 -0.04461568
000040 c2 88 86 3d eb b4 0d bc 1c 36 ba bc 46 f9 2a bd
       0.06569053 -0.008649091 -0.02273088 -0.041741632
000050 6c 46 81 bb 6b 1b 45 bd 4c f9 23 3c f7 85 c8 3d
       -0.0039451625 -0.04812185 0.0100081675 0.09791177
000060 3c 1f a0 3d a6 9c 47 3b 4f 6a 0f 3d 85 9f c7 bc
       0.078184575 0.003045836 0.035013493 -0.024368057
000070 8e b4 af 3d 10 38 df 3c 9f 6c 44 bd 03 d7 9d bc
       0.0857936 0.027248412 -0.04795515 -0.019267565
000080 8f e7 88 3d 70 86 8d bd c0 72 fb bb d6 5e d5 3c
       0.06684791 -0.069104075 -0.0076735914 0.026046198
000090 02 e8 b2 3d c3 8c 06 3e 89 9a 56 bd 73 45 78 3c
       0.08735658 0.13139634 -0.05239347 0.015153277
0000a0 d6 91 c5 3c d6 de b5 3d 75 fa a0 bc 27 f2 d9 bc
       0.024117392 0.08880393 -0.019650677 -0.026604725
0000b0 15 79 93 bd 3f 4d ee 3d 3d 8c d7 3d 55 f6 b8 3c
       -0.07200829 0.11635827 0.10524795 0.022578398
0000c0 54 7a 17 3c 16 6d 5b 3c 64 f6 8e 3d 71 9c 4a bd
       0.009245474 0.013392707 0.06980589 -0.0494656
0000d0 15 3d da bc 30 c6 ed bb 7f 94 b0 3d d7 08 b5 3b
       -0.026640454 -0.007256292 0.086220734 0.0055247354
0000e0 9a bc e6 3d 53 cc ce 3d 69 43 f7 3d c6 f5 96 3c
       0.11266442 0.100975655 0.12073404 0.01842774
0000f0 23 a4 4a bd 6d 69 26 bd 53 c9 7d 3d dc f9 a2 3d
       -0.04947294 -0.040627886 0.061959576 0.07957813
000100 23 80 c9 3d fb d9 a8 bd 0f 71 62 3d d9 f9 91 3d
       0.09838893 -0.082447015 0.055283602 0.07127733
000110 5c 27 03 3e 4e 72 4e 3d aa 15 9b bc e2 35 0d bd
       0.12807983 0.05040198 -0.018931229 -0.034475215
000120 8a 30 ca bc 6a b1 2f bd 05 9d 29 bd dd 05 29 3c
       -0.024681348 -0.042893805 -0.04140951 0.010316339
000130 cb 16 c9 3d a5 72 4d 3d 20 f7 03 3c 64 ce ec 3c
       0.098188005 0.05015816 0.008054525 0.028907008
000140 f0 9f f7 3c 81 2f 06 3d 79 84 a3 3d 0f e2 d0 3d
       0.030227631 0.032760147 0.079842515 0.10199367
000150 dc f7 8e 3c 21 72 19 3d d4 a9 24 bc 66 6b 56 bd
       0.017452173 0.037462357 -0.010050256 -0.052348517
000160 47 78 55 3d ab 87 a3 3d af 5a c1 3d ae dd 26 bc
       0.05211666 0.07984861 0.09441125 -0.0101846885
000170 74 4b fd bc 68 0a f7 3d 8d 8a ab 3d 89 3a ea 3d
       -0.030919768 0.12062532 0.08376036 0.11436946
000180 29 6c 8a 3d f2 cf e8 bc 3d 12 8b bc fc a3 ec 3c
       0.06758911 -0.028419469 -0.01697647 0.028886788
000190 1f bb 94 3c 44 ed af 3d 77 9b 2c 3b c8 6d af 3d
       0.018155633 0.08590177 0.0026337781 0.08565861
0001a0 5c eb d3 3b 82 32 2f 3d 15 14 54 3d 70 92 9d 3d
       0.006467266 0.042772777 0.051776964 0.07693946
0001b0 1d 5f 39 bd 5a 52 11 3d 4c ea 2d ba 34 e7 89 3c
       -0.045256723 0.035478927 -0.0006634339 0.016833879
0001c0 a0 a3 ad bd 6f f4 13 bd cb ff 5e 3d 01 e6 09 3e
       -0.084784746 -0.036121782 0.054443162 0.13466646
0001d0 8b 15 bb 3d a8 eb d1 3d 89 9c a9 3d 3e 5e b4 3c
       0.09134968 0.10250026 0.0828181 0.022017594
0001e0 ec 01 65 3d 70 5a eb bc f0 73 a3 bc 74 03 1e 3b
       0.055910036 -0.028729647 -0.019952744 0.0024110945
0001f0 4b 9b df 3c 2a 4f 3f bd 21 1c 6b 3d a8 4b cb 3c
       0.02729573 -0.046706356 0.057399873 0.02481635
000200 c9 44 76 bd 48 d3 08 bc c1 57 9b 3d 6d 0b 05 3d
       -0.060124192 -0.008351155 0.07585097 0.0324816
000210 6a 8f 3a 3d 7e c9 ab 3d a7 d4 fb 3d 08 4d f4 3c
       0.045546927 0.08388041 0.122964196 0.029821888
000220 50 05 c6 3b f5 ed 6c 3d 93 57 b3 3d 2c 2c 8c bd
       0.006043114 0.05784412 0.08756938 -0.068443626
000230 ff c1 f2 3d a2 52 7d bd 51 72 a8 3d 48 37 ea 3d
       0.11853408 -0.061846383 0.08224929 0.11436325
000240 b3 07 e7 3d fb 36 da 3d 13 59 b9 3d 73 a2 30 3d
       0.112807654 0.10655018 0.09050193 0.043123674
000250 cb 91 0d bc 9f c0 8d bc 55 05 e6 3d f2 29 b6 3d
       -0.008640717 -0.017303763 0.11231486 0.08894719
000260 97 6d e7 3d f0 59 3a 3d 74 13 2e 3d b0 54 c7 3d
       0.113001995 0.045495927 0.04249902 0.0973295
000270 0d e7 80 3c 16 84 31 bd af 68 85 3c 0f 48 f9 bc
       0.015735174 -0.043338858 0.016285269 -0.030429868
000280 29 46 0d bd ba e8 8c 3d 24 c5 6a bd a9 59 35 bc
       -0.034490738 0.068803266 -0.057316914 -0.01106874
000290 3a 20 da 3d 32 b4 5b 3d 5f 65 0b 3e f8 6b ce 3d
       0.10650678 0.053638645 0.13612889 0.10079187
0002a0 0a 96 b2 3c 95 c4 32 3d d4 67 7d bc 34 19 38 3d
       0.02180006 0.043644506 -0.015466649 0.04494591
0002b0 29 49 23 3d 72 e3 0c 3e 16 8e 60 bd fc 30 da 3d
       0.039864693 0.13758639 -0.054823004 0.10653874
0002c0 ce 3a ed 3d 8e 21 4d 3d 9f 28 01 bd e6 c1 ba 3d
       0.11583482 0.05008083 -0.03153288 0.091190144
0002d0 9d 45 49 bd fa c7 b1 3d c9 62 00 3e 57 9c a6 3c
       -0.049138654 0.086807206 0.12537684 0.02033822
0002e0 08 a1 83 bc c9 90 c5 3c 51 83 ce bc 41 bd 30 bd
       -0.016067997 0.02411689 -0.0252091 -0.043149237
0002f0 07 6d 8e 3d 09 54 5e 3d d3 62 2e bd 69 94 fd bc
       0.06954389 0.05427936 -0.042574715 -0.030954557
000300 d9 76 e9 bc 44 63 c3 bc 15 0e 15 3d 74 62 ae 3d
       -0.028499054 -0.023851044 0.036390383 0.08514872
000310 aa d4 96 bc 57 6b a9 3c 4f 12 b6 3d d6 fa 8a bd
       -0.018411953 0.020681066 0.08890211 -0.067861244

fc2.weight f4 [200, 200]
000000 75 9d 63 bd 21 72 a2 bc f9 46 86 bd e9 71 80 3d
       -0.055570085 -0.019829812 -0.06556506 0.06271727
000010 18 c6 85 bc 75 63 55 3b ab e5 65 3c 34 fb 07 bc
       -0.01632981 0.0032560502 0.014031808 -0.008299638
000020 0b 99 59 bd 9e 46 83 3c 53 68 8b 3c d2 8b a8 3d
       -0.05312447 0.016024884 0.01701752 0.082297936
000030 4a 09 7a 3b 28 fc 0e 3d 9b a2 cc bc 30 05 71 3d
       0.003815251 0.034908444 -0.02497988 0.058842838
000040 81 02 a7 3d 41 e1 1c bd b7 78 20 bd 05 3b 18 bd
       0.081547745 -0.038300756 -0.039177623 -0.03716566
000050 ee d2 e2 3c 27 74 24 bd 5a c0 25 bd da e0 f0 3b
       0.02768847 -0.040149834 -0.040466644 0.007351023
000060 a1 81 83 bd 0c d4 82 3d b1 f6 54 3d 5a 3a aa 3d
       -0.06421209 0.06388101 0.051993076 0.08311911
000070 57 9c bb 3c d9 86 9c bd 7b 9b 00 3d 30 e5 8c 3d
       0.022901697 -0.07642908 0.031398278 0.068796515
000080 cb 75 0b 3d af d2 8d bd 51 8f 66 3c e8 19 9a 3b
       0.034047883 -0.0692495 0.014072255 0.0047027953
000090 7d db 5d bc d8 12 a4 3d 1a fb 9e 3d 2d c0 3b bb
       -0.0135411 0.08011407 0.077627376 -0.0028648481
0000a0 0f 70 17 bd 00 8e 93 ba b9 01 df bc 78 6a ae bd
       -0.0369721 -0.0011257529 -0.027222501 -0.08516401
0000b0 cf 84 a9 3b 2e 2c 6d 3d 4b 38 41 3d b9 e2 9b 3d
       0.0051733027 0.05790346 0.047172826 0.07611603
0000c0 8c c4 89 3d 17 bd 6f 3d 69 d8 b9 3c d7 f8 2d bd
       0.067269415 0.05852994 0.0226862 -0.04247364
0000d0 97 da 61 bd 90 b9 a3 bd ec 7e 3e bd 25 38 f1 39
       -0.055140104 -0.079943776 -0.04650776 0.00046008933
0000e0 ec 45 39 3c 31 1b bd 3d b3 f1 71 bd 4c 60 01 3d
       0.011308175 0.09233702 -0.059068393 0.031585976
0000f0 f6 1d e6 3c 57 82 50 bd ce 30 f1 3c 6e 40 65 bb
       0.028090458 -0.05090555 0.029442217 -0.003498103
000100 80 b0 6d 3d 6f f2 35 3c 34 1c ff 3c aa cf 81 bd
       0.05802965 0.011105164 0.031141378 -0.06338437
000110 96 f1 70 bd 81 03 88 3d 35 15 8c 3d c6 65 0d 3d
       -0.058824144 0.06641293 0.068399824 0.034520887
000120 8e f9 14 3d 66 57 1a 3c a9 43 60 bd c3 c5 88 3c
       0.036370806 0.0094202515 -0.054752026 0.016695863
000130 81 05 ad 39 5a 92 e8 3c be 80 47 bd fc f0 41 3d
       0.00033001232 0.028390098 -0.048706762 0.04734896
000140 f8 a1 42 bc f8 07 31 3b f2 77 c1 3c 0b 47 0c bd
       -0.011879437 0.0027012806 0.023616765 -0.03424744
000150 10 05 90 bc 10 d6 87 bc 81 ec e1 bb 92 d2 ab bd
       -0.017580539 -0.016581565 -0.0068946485 -0.083897725
000160 02 7f e0 3c 3b 77 10 bb 25 ea 42 bd 66 ec 9f bd
       0.027404312 -0.0022043723 -0.04758658 -0.07808761
000170 7e 82 cc bc ae 0d 3f bd c8 6d 08 bc 91 49 8c 3c
       -0.024964567 -0.046643905 -0.008326955 0.017124923
000180 bc e2 90 bc 05 f8 97 3d 9e 55 9e 3c dc 0c e6 bc
       -0.01768624 0.07420353 0.019327935 -0.028082304
000190 54 38 19 3d 7b 3f 05 bd 1d a3 66 3c 8e 9f dc 3d
       0.037407234 -0.032531243 0.014076975 0.1077262
0001a0 1e 30 7b bd 18 95 68 3d ad 39 9a 3d fc bd 38 bc
       -0.061325185 0.056782812 0.07530532 -0.011275765
0001b0 38 ab 7a 3a 29 b4 81 bd 80 93 64 3d b0 da 88 3d
       0.0009562257 -0.06333191 0.05580473 0.06682336
0001c0 32 5e b4 3c e6 57 72 bd d7 54 03 bd b3 18 bc 3b
       0.022017572 -0.059165858 -0.03206333 0.005740249
0001d0 92 3d 12 3d d6 7e 63 3d 5b 6f 92 3d a5 06 b7 3d
       0.03570325 0.055540882 0.071501456 0.08936814
0001e0 18 dd 11 bd fb 07 b3 bd de c9 11 bd 3c ef c8 3c
       -0.035611242 -0.087417565 -0.035592906 0.024528138
0001f0 72 f1 60 3d f4 e9 70 3c e9 13 05 3d 7e 51 09 3c
       0.05491776 0.014704216 0.03248969 0.008381246
000200 90 bf b7 3c 4b 34 22 bd bf 3e fc 3c 0b d2 88 3d
       0.022430211 -0.03960065 0.030791638 0.066806875
000210 fe d7 84 bc 9a a0 53 bd 61 48 c2 ba f3 4a 3f 3d
       -0.016216274 -0.051666833 -0.0014822596 0.046702337
000220 89 4b 82 3b d1 fa 01 3d b0 11 89 3d 58 de 91 3c
       0.0039762896 0.031733338 0.06692827 0.017806217
000230 01 38 54 3d 3a c5 22 bd c0 89 93 3c 8d 5d 01 3d
       0.051811222 -0.03973887 0.01801002 0.031583358
000240 38 90 18 ba bd 98 dd bc 17 b9 96 3b 70 13 23 bd
       -0.000581983 -0.02705037 0.004599701 -0.03981346
000250 15 73 7e bd 0a 64 da 3c be b9 1d bd 06 19 91 bd
       -0.06212147 0.02665903 -0.038507216 -0.07084851
000260 cd f3 b0 3d 05 b2 72 bd db 2f 66 3d 3a d1 26 bd
       0.08640251 -0.059251804 0.056197982 -0.040726878
000270 58 a6 0c bb 34 00 1b bd b6 aa a9 bc 2d a4 97 3d
       -0.0021461453 -0.03784199 -0.020711284 0.07404361
000280 ab 07 95 3b 31 29 57 bd e5 af 78 bd 05 6c ce 3c
       0.0045480332 -0.052529518 -0.06071462 0.025197992
000290 5e 0b 88 3b 1d a1 7c 3b f6 f1 36 bd e5 fb 4c 3d
       0.0041517457 0.003854818 -0.044664346 0.050044913
0002a0 31 cb cf bc de b9 92 bc 24 07 95 3d 8d 3d 9c bd
       -0.025365444 -0.017910894 0.072767526 -0.076289274
0002b0 3a ae b9 3c bc 85 65 3c 36 e5 79 bd d9 62 fd 3c
       0.022666086 0.014008936 -0.06100961 0.030930923
0002c0 14 76 ae 3c d9 64 7c bb 53 d7 7d 3d 20 f5 df bc
       0.021296538 -0.0038512258 0.061972927 -0.027338564
0002d0 2d 65 e6 3c 84 c2 cd bc f9 c5 5c 3d 83 9a 12 3d
       0.028124416 -0.025117166 0.05389974 0.035791885
0002e0 94 98 3d 3d 80 9b 00 3d 61 04 35 3c 0e 81 55 3d
       0.046288088 0.031398296 0.011048407 0.05212503
0002f0 06 07 df 3b 8b 59 c5 3d 12 ef bc 3d c7 fa 30 3d
       0.006806257 0.096362196 0.092252865 0.04320791
000300 7f f2 23 3d e4 ae 50 bc c4 a2 a5 3c 2d 56 44 bd
       0.040026184 -0.01273701 0.020219214 -0.047933746
000310 e6 2e 4d bc 20 4a 98 ba a7 7c 56 3d 42 18 65 bc
       -0.0125233885 -0.0011618771 0.05236497 -0.013982834
000320 6b 5c cc bd 73 a7 05 bd 39 4b 72 bc 39 f7 ae 3d
       -0.09978565 -0.032630395 -0.014788442 0.08543248
000330 53 d8 b7 3d 18 cd c6 3c bc 00 3e 3d e9 f0 6a 3d
       0.089768074 0.024267718 0.04638742 0.057358656
000340 fa 3d 77 bd 10 03 83 3d a8 50 55 3d 33 77 25 bd
       -0.06036184 0.063970685 0.052078873 -0.04039688
000350 a8 68 51 3d d7 28 2c 3d 34 39 35 3c 15 50 b4 bb
       0.0511252 0.042031135 0.011061002 -0.0055027106
000360 eb e0 45 3d 84 ee 6e bc 19 f2 5a 3d 60 7d f5 bc
       0.0483102 -0.014583234 0.05345354 -0.02996701
000370 b6 f3 cd bb e7 f9 ba 3c 7a 2f 44 3c 78 ee 2b 3d
       -0.006285156 0.02282424 0.01197421 0.04197547
000380 ae c9 d6 3b d0 90 6c 39 16 97 2e bd 90 80 68 bd
       0.006554804 0.0002256066 -0.042624556 -0.05676323
000390 7f 9b 95 3c 15 0a 50 3d 6f c5 04 bd d7 63 28 bb
       0.018262623 0.050790865 -0.03241485 -0.0025694275
0003a0 22 18 2b bd ec 83 67 3d c5 bf cd bc 48 3b 15 bd
       -0.04177106 0.056522295 -0.025115857 -0.036433488
0003b0 6e 04 43 3d 22 89 13 3d 8b 48 a5 3c 04 f7 2c bd
       0.047611646 0.036019452 0.020176193 -0.04222776
0003c0 7c d6 81 bb e5 f2 c5 bc ef 82 1e 3c 9d f6 f3 3c
       -0.003962336 -0.024163673 0.009674772 0.02978068
0003d0 78 84 50 bd 8f e0 23 3b 02 ca 9a 3b 77 c5 35 3c
       -0.050907582 0.0025005674 0.0047237882 0.011094443
0003e0 b4 1b cd 3c d7 40 a4 bd 46 7c af 3d 76 10 50 3d
       0.025037624 -0.0802018 0.08568625 0.05079695
0003f0 18 fc 8f bb 18 dd 39 3b 5c 5c 20 3c 89 69 73 3d
       -0.0043940656 0.0028360542 0.009787645 0.059426818

fc2.bias f4 [200]
000000 2f 78 3c 3c 86 77 83 3d da 12 79 bd f5 55 48 ba
       0.011503263 0.06419282 -0.060808994 -0.0007642203
000010 7a ae 04 3b b1 ec 9a 3d e3 1f 31 3d 39 09 f3 3c
       0.0020245598 0.075646766 0.0432433 0.029667484
000020 1f 60 f6 bc 00 db a9 bb 06 d8 92 3d 1c a7 57 3a
       -0.030075131 -0.0051835775 0.071701095 0.00082265004
000030 f0 69 01 3b dc 18 10 bc 70 2d 65 bd eb 8d 49 bd
       0.0019746982 -0.008794989 -0.055951536 -0.04920761
000040 bf 33 7f 3c a7 b6 0a bd c1 65 29 bd 60 15 38 bd
       0.015576302 -0.033865597 -0.041356806 -0.04494226
000050 cd eb 26 bd e8 56 bb bc 00 e8 93 3d 55 d0 b2 3d
       -0.04075222 -0.022868589 0.07221985 0.087311424
000060 7e 22 36 3c 98 16 88 3d 45 2a 4f 3d 43 d1 0f bd
       0.011116622 0.066449344 0.05057742 -0.035111677
000070 4e 06 de bb ad ef 56 3d 37 6e 32 bd 97 5a 9a 3d
       -0.006775654 0.052474666 -0.04356214 0.0753681
000080 74 7a 48 bc f3 df 50 3d 6e b6 25 3b be d3 37 3c
       -0.012236226 0.050994825 0.0025285739 0.011219917
000090 17 03 7a bb c1 32 2d bd 6c eb 27 bd b9 0b 97 bb
       -0.0038148814 -0.04228473 -0.040996 -0.0046095517
0000a0 50 56 91 3d 0f 66 97 bc 37 3a 01 3d c8 ff 7b 3a
       0.07096541 -0.018481283 0.03154966 0.00096130045
0000b0 9f 34 11 3d 83 4d 09 3d 79 7c a4 3c 07 c8 2e 3d
       0.035450574 0.033521187 0.020078884 0.04267123
0000c0 93 be 20 3c 0e c5 7b 3d 65 de 3d 3d 1c 9d 8c 3d
       0.009811061 0.061467223 0.04635467 0.06865904
0000d0 1e 97 c9 3d 12 e8 87 3c 18 57 9a 3d d1 0a a1 3d
       0.098432764 0.016590152 0.07536143 0.07863391
0000e0 16 52 95 3c dd 6c 66 3d b3 e7 b0 3d 19 b6 d2 3c
       0.018227618 0.056256164 0.08637943 0.025721597
0000f0 bd 41 22 bc 85 6c 6f 3d 54 1b 06 bd 4b ec 8a 3d
       -0.009903369 0.0584531 -0.032740906 0.067833506
000100 88 08 83 bc df 1c 74 3d e4 32 82 bb 4e 0f 0b bd
       -0.015995279 0.059597846 -0.003973352 -0.033950143
000110 f8 58 b4 3d ca e9 78 3b 5d 26 cf 3b 84 50 bb bb
       0.08806032 0.0037981146 0.006321712 -0.0057163853
000120 52 95 31 3d 62 1d 06 bb db e6 18 bd a7 0c bd 3c
       0.043355294 -0.002046429 -0.037329536 0.023077322
000130 1a 43 4c bd 65 81 fe 3b e2 01 4f bd bc cc ac bc
       -0.04986868 0.00776689 -0.050538905 -0.021093719
000140 4f 26 7c bc 6a b4 06 bd 88 58 23 3d 73 22 88 3d
       -0.015389993 -0.0328869 0.03987935 0.06647196
000150 9f b6 6a bd 29 e2 98 3d 5d 75 1c bd d3 ae db 3b
       -0.057303067 0.074650116 -0.038197864 0.0067041903
000160 d3 be f9 bb 47 c1 03 3d 60 16 9b 3d b4 da 8b 3d
       -0.007621625 0.032166746 0.07572627 0.06828824
000170 f6 41 ff bb 6a 91 99 bc 50 79 78 3c c6 6b 73 bd
       -0.0077898456 -0.018746097 0.015165642 -0.059428953
000180 09 32 cd bc 36 dc 32 3d 5c 13 b4 3d 06 a0 51 3d
       -0.025048273 0.04366704 0.08792755 0.051178
000190 31 24 e5 bc 48 4b b7 bc 2e db 23 3b 3e 4f a6 ba
       -0.027971359 -0.022374764 0.0025002467 -0.0012688411
0001a0 d6 e3 87 3d 39 7c 06 3c e1 2b b4 3b 15 06 8e bc
       0.06635253 0.008208328 0.005498395 -0.017336885
0001b0 34 db 08 3d 3c 94 15 bd 86 94 50 3d b1 36 29 3c
       0.033412173 -0.03651832 0.050922893 0.010327981
0001c0 da f9 91 3d d9 24 93 ba 3a 96 f3 bb 06 03 73 3d
       0.071277335 -0.0011226191 -0.00743368 0.059329055
0001d0 f7 f5 b7 bb fe 75 5a bd ae f0 83 3d af 67 50 3c
       -0.005614038 -0.053335182 0.064423904 0.012720033
0001e0 18 cb ad bc e8 44 35 bc 08 36 a0 3d 42 8d a5 bc
       -0.021215007 -0.011063792 0.07822806 -0.020208959
0001f0 3c 60 2c 3c e5 69 71 3d 60 dc 93 3d 94 51 e9 3c
       0.010520991 0.05893888 0.072197676 0.028481282
000200 b7 13 15 bd 4f 15 9e 3d 5f 3b 07 3d f2 97 8b 3c
       -0.036395755 0.07718908 0.033015605 0.017040227
000210 05 13 9c bc 6d 18 f6 3c 0b 23 69 3d ff 93 2a bd
       -0.019052038 0.030040944 0.056918185 -0.041645046
000220 54 0e f1 3c 73 46 87 3c f8 f9 4a 3d d4 92 6f 3d
       0.029425777 0.016513085 0.049554795 0.058489636
000230 dd f5 86 3d c2 68 2d 3c 08 64 4f 3d 0f f4 b0 3d
       0.065898634 0.010584058 0.050632507 0.086403005
000240 b7 00 61 b9 9b d8 9a 3d 5a cd a6 3c c9 f3 e5 bc
       -0.00021457938 0.075608455 0.020361591 -0.028070347
000250 6f 88 86 3c 87 dc 47 bd 30 75 2b 3c 21 63 30 bd
       0.016422478 -0.048794296 0.010464951 -0.043063287
000260 22 de cb bc 1f 3d 1b 3d ad c6 04 3d 66 6e dc 3c
       -0.024886195 0.037900086 0.032416034 0.02690811
000270 f3 60 21 bb 8d 05 53 bd 96 fe 70 bd 24 e4 60 bd
       -0.0024624437 -0.051518966 -0.058836542 -0.05490507
000280 80 63 22 bd fd 5d 00 3c 20 4d 2d 3d c0 37 f8 3b
       -0.03964567 0.007834909 0.04230988 0.0075750053
000290 d5 88 2e bd bf ac b9 3d 97 98 bf bc 6b 65 a4 bc
       -0.042610962 0.09066152 -0.02338819 -0.020067891
0002a0 ba 3d 86 ba 26 ad ad bb c6 29 ca 3c 1f 8c 3b bd
       -0.0010241785 -0.005300182 0.024678122 -0.045787927
0002b0 64 6b 88 3c 3d 1a 6c 3d 4b 05 5d bc 37 cd f1 bc
       0.01665277 0.05764221 -0.0134900315 -0.0295168
0002c0 e4 ee 36 3d 42 c9 01 3d 2c 4b b4 3c 85 2d a0 3c
       0.044661418 0.031686075 0.022008501 0.019552955
0002d0 e2 d8 0c 3d f9 7b 9b bc 82 ee 4f 3d 85 94 91 bc
       0.034386523 -0.018980013 0.05076457 -0.017771015
0002e0 ff 2c 9f 3d e3 b7 e7 3b 39 28 bc 3d f2 c8 af 3d
       0.07772254 0.0070714816 0.09187359 0.08583249
0002f0 a9 8b c8 3a 56 63 84 3d e7 74 5f bc 7d 44 c3 3b
       0.0015300411 0.06464259 -0.013638712 0.005959092
000300 c4 17 98 3d 3d 80 08 3c 30 fe 97 3d 98 b6 f1 3c
       0.07426408 0.008331356 0.07421529 0.029506013
000310 e0 70 8d 3d 07 76 24 3d 7b 5d 19 bd 48 4a 21 3d
       0.06906295 0.040151622 -0.037442666 0.03937748

fc3.weight f4 [200, 200]
000000 39 13 51 bd 8f be c7 3d 07 6a 7a 3d b6 b4 6e 3d
       -0.051043723 0.09753143 0.06113627 0.058277808
000010 3e 08 62 3d c3 70 89 3d d7 36 ae bd 58 59 b9 3d
       0.05518364 0.06710961 -0.085065536 0.09050244
000020 42 47 81 3d f4 b1 9c bc a5 d7 c1 3c 47 2e 5e bd
       0.063124195 -0.019127823 0.023662398 -0.054243352
000030 e5 fc ff bb 98 ae 28 3c 58 ff 09 3c 33 ec b5 3c
       -0.00781213 0.010295533 0.008422695 0.022207355
000040 f7 8c 17 3c cf ae 5f 3c d6 8b b1 bd 2e 49 ec 3b
       0.009249917 0.013652517 -0.0866925 0.007210872
000050 cc 57 07 bc 13 62 de bb 7c 95 0d bd 35 3f fd bb
       -0.0082606785 -0.0067865937 -0.034566388 -0.007728482
000060 86 ca 03 bd 3d 15 8f bc 8c 1a 07 bd d8 d7 3f bd
       -0.032175563 -0.017466182 -0.0329843 -0.046836704
000070 90 13 4d bd 9a d0 bd 3c c4 0f 8e 3d 73 a2 19 3d
       -0.050067484 0.023170758 0.06936601 0.03750844
000080 0c ce 90 3d 86 45 55 bd 51 47 b0 3d 52 ab 2c 3c
       0.0707055 -0.052068256 0.086073525 0.010538893
000090 c0 aa b9 bb e5 8a 7f bc 1c 76 58 bc c5 cd 18 bd
       -0.005666107 -0.01559708 -0.013211753 -0.037305612
0000a0 ca 47 63 3d 0b e6 82 3d 11 d0 26 bd bd b2 25 bd
       0.055488385 0.063915335 -0.04072577 -0.04045366
0000b0 af ba cd bc c9 59 e1 bb b2 73 cf bc 7e 9e e0 3b
       -0.025113432 -0.0068771583 -0.025323723 0.0068548312
0000c0 fa 59 3b 3d ca a9 9d bc a1 db 32 3c 7e 5b c6 3c
       0.045740105 -0.019246 0.010916621 0.024213549
0000d0 45 c0 2f 3d c9 51 bc 3d 70 ba 64 3d f6 fe 32 bd
       0.042907972 0.09195287 0.055841863 -0.04370018
0000e0 ff b6 9e 3c 00 27 3f bd 27 54 14 3d 81 a0 0c bd
       0.019374369 -0.046668053 0.036213066 -0.034332756
0000f0 d3 83 94 bc 18 5c 1b bc cd bd de 3b 2a 3a c2 bc
       -0.018129265 -0.009482406 0.0067975284 -0.023709375
000100 fc 9a 23 3d 00 29 81 3d 86 33 53 3d 0d 07 4c bc
       0.039942726 0.06306648 0.05156281 -0.012452853
000110 cb e4 4b bd f0 54 af bd 90 98 5a bd c1 32 b0 3c
       -0.04977874 -0.085611224 -0.05336815 0.021508576
000120 c2 f6 4a 3c 87 6d de 3c 05 67 de 3c 3c c1 79 3b
       0.012387933 0.027151836 0.027148733 0.0038109561
000130 c1 2c 9b 3c 52 bf 5b bd 3c 8d 6c bd 65 3e 12 3b
       0.018942239 -0.053649254 -0.05775188 0.0022315022
000140 cc 62 68 3a 24 b1 e7 3c aa fb 59 bc 75 81 03 3d
       0.00088648195 0.02828271 -0.01330463 0.03210588
000150 53 f9 df bc 5d 7c 1e bd 23 e1 00 bd 07 99 d9 3c
       -0.027340567 -0.03869282 -0.031464707 0.026562227
000160 e3 e9 65 bd c0 31 c9 bc cf 70 c7 bc cc 31 da 3c
       -0.056131255 -0.024559855 -0.024345784 0.026635073
000170 3c a6 2a bd 4b cf 3e bd 86 22 61 3d 08 2b 8b bd
       -0.04166244 -0.04658441 0.054964565 -0.06795317
000180 4c 72 a2 bc b4 9b 94 3d 3e 28 4c bc 65 60 e3 3c
       -0.019829892 0.072562605 -0.012460766 0.027755925
000190 b8 ab 8b 3d 05 f3 f8 bc 7f c6 07 3c 20 d8 1c bc
       0.06819862 -0.030389318 0.008287071 -0.009573013
0001a0 f0 e3 36 bd 71 f7 b3 3c 04 d8 81 bc 91 0d a6 3c
       -0.044650972 0.021968575 -0.015850075 0.02027014
0001b0 65 0b c3 3c 16 48 82 3d 09 ec 21 bd 8a 67 5a bc
       0.023809144 0.063614056 -0.03953174 -0.01333035
0001c0 1a f3 96 3c d9 66 6f 3d a3 99 5e 3d 03 14 83 3d
       0.018426467 0.058447693 0.05434574 0.06400301
0001d0 b7 99 a8 3c bc f7 8d 3d 08 12 23 3d 74 28 a0 3d
       0.02058111 0.06932017 0.039812118 0.07820216
0001e0 53 5b 12 bd a8 cb 15 bd 35 91 59 bd a5 98 00 3d
       -0.035731625 -0.036571175 -0.053116996 0.031395573
0001f0 03 ff 53 bd aa 82 61 bc 6a 78 f6 bc eb 84 a2 3c
       -0.05175687 -0.013764063 -0.030086715 0.01983877
000200 2f ac ee bc c4 df c1 3b fe 99 27 bd 39 7d 36 bc
       -0.029134838 0.0059165675 -0.040918343 -0.011138254
000210 f2 65 8b 3d 4e 1a 46 3d 93 69 4f bc 96 ab a4 3d
       0.06806554 0.04836493 -0.012659448 0.0804054
000220 e4 e1 77 3d 5b a6 0f 3d 13 27 84 bc 9f 92 86 3d
       0.06051816 0.03507076 -0.016131913 0.065709345
000230 6d b8 b3 3d 37 17 19 3d 1e 76 50 bd 8d ee 9d 3d
       0.08775411 0.037375655 -0.050893895 0.077115156
000240 45 76 32 bd 36 3b 90 3d 26 55 e7 3c 81 fa 0f bd
       -0.043569822 0.070425436 0.028238844 -0.03515101
000250 d6 75 71 bd 39 24 ab 3d 9e 9a 2e 3d cf 36 51 bd
       -0.058950268 0.08356518 0.042627923 -0.05107766
000260 aa 18 af 3c 9d 39 a9 3d 36 7b 26 3b f8 b5 95 bd
       0.021374065 0.08262942 0.002540303 -0.073100984
000270 e5 29 59 bd 8e 6d e0 bb 57 b2 d4 bc 9b d7 7b 3d
       -0.05301847 -0.0068489974 -0.025963945 0.061484914
000280 46 69 12 3d b6 07 ab 3d b8 03 84 3d 75 eb 99 3d
       0.035744928 0.0835108 0.06446022 0.07515613
000290 a4 4e 09 bd b2 3d 26 3d 97 a6 60 bb 18 32 30 bd
       -0.033522263 0.04058618 -0.0034278983 -0.043016523
0002a0 84 8e 15 3d 3c 30 39 3c 80 16 46 3c dc f4 c7 3c
       0.036512867 0.011303004 0.012090325 0.02440875
0002b0 ca 81 61 bd 51 a4 8b 3d 42 f0 47 3d af 5f fc bc
       -0.055055417 0.0681845 0.048813112 -0.030807344
0002c0 83 5e 17 3d c7 e8 87 bc 18 b9 78 3d 81 c6 21 3d
       0.036955368 -0.01659049 0.060723394 0.03949595
0002d0 38 fa 18 3d 4d b6 6d 3c 56 28 b2 bc 77 dc a2 bd
       0.037348002 0.014508796 -0.02174775 -0.079522066
0002e0 8f 4d 3c 3c e8 8b 95 3d de d8 3f bd 71 88 83 3d
       0.011493101 0.073020756 -0.04683768 0.064225085
0002f0 64 c7 23 bd 76 92 03 bc 65 45 3c 3d 34 ac 9b 3d
       -0.039985076 -0.0080305245 0.045964617 0.076012045
000300 5f b9 1d bc e6 ab cc bc a4 0d 50 3b 29 80 92 3d
       -0.009626715 -0.024984311 0.0031746412 0.07153351
000310 4a 90 a9 3b 3c 0b 9e bd f5 d8 87 bd d7 85 3b 3c
       0.0051746713 -0.077169865 -0.06633178 0.011445484
000320 e5 d9 c5 3d 32 25 08 3d 38 41 87 bd bc bc 14 3d
       0.09660701 0.033238597 -0.06604236 0.036312804
000330 93 f4 68 3d 73 1e 5b bd 73 b2 31 3d 2a 28 1a bd
       0.05687387 -0.053495836 0.043383073 -0.03763596
000340 a7 6c 36 3d 41 ab 80 bd cd 07 45 3b e0 30 6c bd
       0.044537213 -0.06282664 0.0030064464 -0.0576638
000350 4b 9c 80 bd 4e 16 52 bd 8d 36 f2 bc b0 58 e7 3d
       -0.062798105 -0.051290803 -0.029567027 0.11296213
000360 75 9f f0 bc 44 6a a8 3d 50 d1 5d 3d 3e e8 3e 3d
       -0.02937291 0.082233936 0.054154694 0.046608202
000370 3e 9d d0 ba 54 ba 7a 3c d5 15 f0 bc 2c 9a 6b bb
       -0.0015916002 0.015303213 -0.029307285 -0.0035950048
000380 c0 b0 9f 3d 8b ed a3 3d f8 4b e4 bc 42 1a 6e 3d
       0.07797384 0.08004292 -0.027868256 0.05813051
000390 d5 f9 43 3d 33 93 7f 3d 86 43 11 3c 0b 88 4e bd
       0.04784568 0.06239624 0.0088661965 -0.05042271
0003a0 27 dd 0b bd 3b aa 93 bc 02 41 33 3d 0c 2e 3a 3d
       -0.034146454 -0.018025508 0.04376317 0.04545407
0003b0 71 a8 78 3c dc 74 5c bc 8d c5 44 3d 25 0c f7 3b
       0.015176878 -0.013455596 0.04803996 0.0075392895
0003c0 8a ed 91 bd b4 0f 17 bd 2e c7 ad 3d 0e 28 fd bb
       -0.07125385 -0.03688021 0.08485256 -0.007725722
0003d0 cd 98 dc bb 02 30 c2 ba f8 aa 2b bd 9e 88 d9 bb
       -0.0067320825 -0.0014815333 -0.041911095 -0.0066386005
0003e0 f5 23 23 bc 9a d3 36 bc ab 77 12 bb 37 80 59 3d
       -0.009957303 -0.011158848 -0.002234916 0.05310079
0003f0 5c fb 72 bc cb f2 fa bc 42 ea b4 bd e3 ec 8e bc
       -0.014830437 -0.03063335 -0.08833744 -0.01744694

fc3.bias f4 [200]
000000 c1 2f 3e bd cd 92 7e 3d f9 fb 8a 3d 95 87 81 3d
       -0.04643226 0.06215172 0.06786341 0.06324688
000010 c6 6b c3 bc 8d 91 24 3c ed da fc 3c a5 7f 36 3d
       -0.023855101 0.010044468 0.03086611 0.044555325
000020 cd 13 18 3d 2c 3c a4 3d 23 ca 41 3c a7 3d 6c 3b
       0.03712826 0.080192894 0.011827978 0.003604749
000030 02 6f 3b 3d c1 8c df bc b3 68 aa 3d f5 94 68 bd
       0.045760162 -0.027288796 0.08320751 -0.05678268
000040 dc 9c cc bc 87 66 e4 3b 5a 6f 52 bc cf 8f 69 3d
       -0.02497714 0.00697023 -0.012843931 0.057021912
000050 44 34 8d 3c 29 79 28 3b e5 e1 21 3d c0 76 70 bd
       0.017236836 0.0025706983 0.03952207 -0.058707
000060 c4 c9 8b 3d 87 97 9d 3c 6c e7 43 3d a4 3d 5e bd
       0.06825593 0.019237293 0.047828123 -0.054258004
000070 6d 89 c2 bc a4 67 01 bc 71 b8 69 bc 16 9c a4 3c
       -0.02374717 -0.007898245 -0.014265166 0.020093959
000080 b5 84 6b bc aa ce 0e bd 55 2f d6 3b bc fe 9e bd
       -0.014374902 -0.03486506 0.006536404 -0.077634305
000090 f8 24 46 bd b4 59 f6 3c a8 b7 e0 bc 3c 79 84 bd
       -0.0483751 0.03007207 -0.027431324 -0.06468436
0000a0 89 b1 9d 3b 1f b3 33 3d b9 1c 15 bd 61 93 0a bd
       0.0048124236 0.043871995 -0.036404345 -0.033831958
0000b0 0f c7 69 bd 85 11 f0 bb 65 8f e7 3c e7 ab 8d 3d
       -0.057074603 -0.0073263072 0.028266618 0.069175534
0000c0 7c 03 90 bc 61 8f af bb fb 99 81 3d c0 de cb 3c
       -0.017579786 -0.0053576683 0.063281976 0.024886489
0000d0 e1 d1 90 3c bd c6 03 bd c1 7f 0c 3d 0b 26 c8 bb
       0.017678203 -0.032171953 0.034301523 -0.0061080507
0000e0 76 ca 06 3d 2c 06 7a 3d 87 41 43 3d 4d 7f 9b 3c
       0.032907926 0.061041042 0.047669914 0.0189816
0000f0 6a c1 f1 bc ad d9 8a bc 3f c4 82 3c 40 23 38 bd
       -0.029511172 -0.016949499 0.015962718 -0.044955492
000100 9f 29 a9 bb dc 9a 32 3d 69 63 7c 3c e6 8e 5d 3b
       -0.0051624323 0.043604717 0.015404561 0.0033807098
000110 6b fb 85 3d 29 7f d1 39 5a 07 fe 3b b3 7f 09 bc
       0.06542095 0.00039958328 0.007752341 -0.008392262
000120 a0 f6 98 3d 94 4e 57 bd 3a a9 be bc 80 24 73 bd
       0.07468915 -0.052565172 -0.023274053 -0.05936098
000130 92 2b 3a bc 24 95 f7 bc 42 3d 9a bc 98 3a ec bc
       -0.011362927 -0.030222483 -0.018828038 -0.028836533
000140 55 1c 2f bd ab 08 2c bd f7 ae 2e 3d f9 4c ae 3d
       -0.04275163 -0.042000454 0.04264733 0.08510775
000150 f7 b2 6b bd d1 df 71 bd 30 39 7c 3c 3b a4 69 bb
       -0.05754372 -0.05905134 0.015394494 -0.0035650868
000160 e3 7b 06 bd d7 3a 61 3d 54 9f 1d 3b b4 22 44 3d
       -0.03283299 0.054987755 0.0024051266 0.047884658
000170 85 2f 38 bd 8b 82 f4 3c 9e 34 61 3d bf 51 a8 3b
       -0.044967193 0.029847404 0.05498182 0.005136698
000180 e2 93 64 3d 5c 41 e4 ba b0 70 1c bd e4 4c 07 bd
       0.055805095 -0.0017414498 -0.038193405 -0.033032313
000190 b9 fe 96 3d d9 f6 44 bd e6 54 38 3d 6e 2f 31 bd
       0.07372803 -0.048086975 0.04500284 -0.043258123
0001a0 54 04 74 3b 81 83 17 3d 5b 6c 30 3a 6f 47 19 bd
       0.0037234025 0.036990646 0.00067300134 -0.03742164
0001b0 1f f8 96 3d 4c 4c 89 3d 87 f4 cf 3c e6 dc 7d 3d
       0.07371544 0.067040056 0.025385154 0.061978243
0001c0 ba 50 cb bc 64 ba 41 3d eb 3c 64 3d ff dd 34 3d
       -0.024818767 0.047296897 0.05572216 0.044157024
0001d0 39 e0 8f 3c 94 75 03 bd 80 3e a4 3d e1 a6 9b 3d
       0.017562972 -0.032094553 0.080197334 0.07600189
0001e0 4c 02 0e 3b 17 aa ab bc d1 04 d6 3a b8 3b 48 3b
       0.002166885 -0.020955129 0.001632834 0.0030553173
0001f0 6c cb 3c 3b 5a 63 04 3c 6e 0f 8a 3d f6 e7 8b bd
       0.0028807772 0.008080328 0.06741224 -0.068313524
000200 84 81 19 3d 45 ac 18 3d 3c 08 6e bd 3e d4 27 bd
       0.03747703 0.037273664 -0.05811332 -0.040973894
000210 1e 2e 99 3d 02 f5 9b bb 16 d7 fd 3b 18 8a 22 3b
       0.07479499 -0.004759432 0.0077465875 0.0024801549
000220 6c 05 a1 3d 05 c3 2f 3d 50 8b b4 3c 8a 19 84 3d
       0.07862362 0.042910594 0.022039086 0.06450184
000230 27 c6 4c bd cb 7e d7 bb 69 3d 4e 3d 82 f1 46 3d
       -0.04999366 -0.006576394 0.050351534 0.048570164
000240 6b 8f 53 3d df 16 36 bd 59 6d 7a bc 7a 2d 53 bd
       0.051650446 -0.044455405 -0.01528486 -0.05155704
000250 9e af ea bc ba ab 38 3c 73 74 70 bd 62 e0 26 3d
       -0.028648194 0.011271412 -0.058704805 0.040741332
000260 c6 c4 83 bc ac f5 ef 3c 98 d2 3a bd 9b b8 91 bc
       -0.01608504 0.02929195 -0.045610994 -0.017788222
000270 e0 19 c2 3c 75 4c b4 3a 3f 4a 72 3d b0 3e 06 bd
       0.023693979 0.0013755696 0.059152838 -0.032774627
000280 bc a9 fe bc 4e 06 91 3d 9b f6 a2 3d 2c f3 b2 3c
       -0.031086795 0.07081281 0.079571925 0.021844469
000290 62 f4 41 3d d7 33 93 3d 54 1a 62 3c aa a9 24 bb
       0.047352202 0.07187622 0.013800222 -0.0025125542
0002a0 26 f9 96 3c 6d df 7f 3d d6 9d 4c bd d3 bc e2 3c
       0.01842935 0.062468935 -0.04995521 0.027677929
0002b0 72 ef 73 3c f7 d9 27 bd 35 54 00 bd f7 88 2e 3c
       0.014888631 -0.04097935 -0.031330306 0.010652772
0002c0 c4 f0 67 3d 5a 0a 0e bd 99 a9 96 3c 64 6e 37 bd
       0.056626096 -0.03467784 0.018391417 -0.04478301
0002d0 31 57 f0 3c 56 98 40 3d ca 1e e0 3c 5a 3e 96 3d
       0.029338451 0.04702028 0.027358431 0.07336111
0002e0 43 95 1f bd 5d 92 65 bc 9a ee ff bc 2e 3e 74 bd
       -0.038960706 -0.0140119465 -0.031241704 -0.05962961
0002f0 6f 4c 42 bd 34 e9 73 bc cd 56 79 bc a0 d5 56 3c
       -0.047436174 -0.014887143 -0.015218449 0.013112456
000300 37 b5 de 3c df b2 4d 3d 70 f5 5f 3d 16 a0 6a 3d
       0.02718602 0.050219413 0.054677427 0.057281576
000310 52 95 1f 3d 7b 91 4e 3c 16 c1 85 bc a1 f7 96 bb
       0.038960762 0.012607927 -0.016327422 -0.0046071564

fc4.weight f4 [6, 200]
000000 ff f4 b0 3c ee a7 de bd 43 33 88 3d 20 cf 8b bd
       0.021601198 -0.10871874 0.066504024 -0.06826615
000010 33 35 81 3d f5 86 14 3d cc d8 aa bc 90 27 fb bc
       0.06308975 0.036261518 -0.02085533 -0.030658513
000020 d2 9e ff 3b 20 c8 9f 3d 27 b5 de bd 9e 2a ec 3c
       0.0078009153 0.07801843 -0.10874396 0.028828915
000030 5d 77 26 bd 95 e9 47 3d 40 d7 7b 3d ee 50 83 3c
       -0.040641177 0.048806746 0.061484575 0.016029801
000040 04 06 84 bd c6 b1 82 3d 0a c2 a9 3d e4 84 a0 3d
       -0.0644646 0.06381564 0.08288963 0.07837847
000050 21 2a 55 bc 64 6d 66 bc 83 9e e1 3b f3 41 d6 bc
       -0.013010533 -0.014064167 0.006885351 -0.026154494
000060 ed fa f7 3c 8f dc 92 3c 50 7f 61 3d 1a 98 37 3d
       0.030271018 0.017927436 0.055053055 0.04482279
000070 a8 c4 ea bd 37 f6 e6 3c 20 30 d9 bd a9 31 91 3d
       -0.114632905 0.028193576 -0.10604882 0.0708955
000080 7e 9f bf 3c 0b 83 3b 3d c0 4d 60 3d ec d4 14 bd
       0.023391481 0.04577927 0.05476165 -0.03633587
000090 fe 0a 5c bd d7 38 c8 3d 56 3c 7c bc 8c a5 51 3d
       -0.05372142 0.09776466 -0.015395245 0.05118327
0000a0 ab 86 23 3d a0 fb 73 3d 8e af b9 bd c3 33 66 bd
       0.03992335 0.05956614 -0.090666875 -0.056201708
0000b0 9a 41 5e 3d fe da a5 bd e8 0b bb bd 31 c8 a4 bd
       0.05426178 -0.0809841 -0.0913313 -0.08045996
0000c0 2b 4e bc 3d e5 f6 66 bd f9 7e c2 3c b3 01 19 3d
       0.09194597 -0.0563878 0.023742186 0.037355136
0000d0 29 95 c5 bb 13 39 94 bd ef 16 b2 3c 44 2f 6d 3d
       -0.006029744 -0.072374485 0.021739451 0.057906404
0000e0 18 ee 64 ba 03 f1 97 3d 4b 0b 73 3d a7 0c 53 3d
       -0.00087329885 0.07419016 0.05933694 0.051525738
0000f0 3f 2a 7a 3d da f9 ca bd 2b 6e c9 bd 71 4e 5a 3d
       0.061075445 -0.09910937 -0.09835466 0.053297464
000100 7c be 89 3d 49 99 57 3b 39 11 86 bc 7c 68 bf bd
       0.06725785 0.0032897762 -0.016365634 -0.09346101
000110 84 01 83 3d a3 6c 1c bd 8c d5 6d bc 84 42 57 bd
       0.063967735 -0.03818954 -0.014516246 -0.05255367
000120 c7 8c 91 3d 73 cd 56 bd bd 97 be bd ba 79 4e 3c
       0.07106929 -0.052442025 -0.093062855 0.012602264
000130 63 d0 26 3c 6d db eb bc ee 8c e7 3c 2f 6c 5e bd
       0.010181519 -0.028791154 0.028265443 -0.05430239
000140 31 c7 77 bd 36 8f ae 3c c1 57 cd 3d 4c f8 85 3c
       -0.060492698 0.021308523 0.10026503 0.016353749
000150 2f fb 5c 3d 8a 3e 35 bd 37 07 d3 3c 79 11 6d 3d
       0.053950485 -0.044249095 0.025760276 0.05787799
000160 5b a1 76 3d 92 ca 88 bc 11 06 b6 bc 7a de 2d 3d
       0.060212474 -0.016698156 -0.02221969 0.0424485
000170 86 7f 3a bc 2f d3 ba 3c d4 42 e4 bc a8 f7 41 bd
       -0.011382943 0.022805778 -0.027863897 -0.047355324
000180 e5 e7 1a bd 5a 63 84 bd 36 77 98 bd 21 1c 81 bd
       -0.037818808 -0.06464262 -0.07444613 -0.06304193
000190 09 83 d1 bc 66 ed 7c bc 16 63 19 3c fc bc 98 bd
       -0.025575178 -0.01543746 0.009362003 -0.07457921
0001a0 62 9c b8 3b 59 6c 02 bd ea 0a 4f 3d 49 7e 3d 3d
       0.0056338767 -0.03184161 0.050547518 0.046263013
0001b0 93 9f 6f bd 8b 34 f9 bd 33 60 95 3d e8 5a 57 bd
       -0.05850179 -0.12168225 0.07293739 -0.05257693
0001c0 95 8b bb bb b2 07 4d bd 0d c5 e4 3c d8 f3 82 3d
       -0.0057234266 -0.050056167 0.027925992 0.06394166
0001d0 87 cb 16 3d ac 2a 79 3d ab 79 8e 3d 8b fb 41 bb
       0.036815193 0.06083171 0.069568 -0.0029599394
0001e0 df f9 e3 3c 20 07 f2 bd d3 24 03 3d cc 19 67 bd
       0.027829109 -0.11817765 0.03201754 -0.056421086
0001f0 76 7e 5e bd 6c de 62 3d f5 e2 fb bc 75 7b 8f bd
       -0.05431982 0.0553879 -0.03074787 -0.070059694
000200 d8 67 c4 bd a0 15 65 bd c4 4c da bd 4c 46 f0 bc
       -0.09590119 -0.055928826 -0.10659173 -0.029330395
000210 a0 3c 62 bc 1d 99 3a 3d eb 1b 36 3b 12 42 e2 bd
       -0.013808399 0.045556176 0.0027787636 -0.11047758
000220 32 de b9 3c f2 de cb 3d b1 dd 08 3c 77 1d 2a ba
       0.022688959 0.09954633 0.008353637 -0.0006489376
000230 33 2f 74 bd 1f a4 bd 3d b3 d0 6d bd bd 41 1a bc
       -0.059615325 0.09259819 -0.05806036 -0.009415087
000240 9b 74 63 3d 79 1c de 3c 50 fc ab bd cd f9 8b 3d
       0.055531126 0.027113186 -0.08397734 0.06834755
000250 4e df 13 3d 35 8a 86 bd 67 c5 6f 3d 50 42 2e bc
       0.03610163 -0.0656933 0.058537867 -0.010635927
000260 00 c2 2a 3d 40 0c 2d bd 48 ad 8b 3d 97 94 6d bd
       0.04168892 -0.04224801 0.0682016 -0.058003034
000270 5b 99 28 bd 99 45 94 bd 92 bd 94 bd ac 16 84 3c
       -0.041161876 -0.07239837 -0.0726272 0.016124092
000280 bb 75 3a bc e3 4f 59 3d 66 d5 34 bd d3 1e 87 3c
       -0.011380608 0.0530547 -0.044148825 0.01649419
000290 49 7f 31 3d 11 02 d3 ba 39 8a ab 3d b0 e5 d5 bd
       0.04333428 -0.0016098638 0.08375973 -0.104442
0002a0 5a 24 be 3b f8 d2 d7 3d a3 e0 00 be 36 4e cb bd
       0.0058026733 0.10538286 -0.12585692 -0.09927027
0002b0 7c fe 10 3c 75 70 e8 3c 79 bf e6 3b bd 9e 61 3b
       0.008849736 0.028373936 0.0070418683 0.003442689
0002c0 96 4c 63 3d 5a 59 6f 3d 9c dc 0f 3d d1 37 c0 bd
       0.05549296 0.05843482 0.0351225 -0.09385646
0002d0 32 aa 67 3d 97 10 80 3d 3d 81 3f 3d 58 37 f1 bd
       0.056558795 0.06253164 0.04675411 -0.11778134
0002e0 ec b4 03 bc 0b ba 4d 3c 8c ab 96 3c 89 e6 95 3d
       -0.008038741 0.012556563 0.018392347 0.07319362
0002f0 ef fa 63 3d bc 2c dd 3c a9 de 9d 3d 07 4a 13 bc
       0.05565923 0.02699887 0.07708485 -0.008989817
000300 90 a6 e6 3c b8 59 18 bd 35 b9 c0 3d bf 1c e4 bb
       0.028155595 -0.037194937 0.094103254 -0.0069614346
000310 dd a9 eb bd 80 4b 81 3d 3d 34 90 3c 94 17 b6 bd
       -0.11507008 0.063132286 0.017603034 -0.08891216
000320 ab 54 5d bd bc 96 e6 3c c3 84 5e 3c f9 73 4a bd
       -0.054035824 0.028148048 0.013581458 -0.049427006
000330 8d 69 4c 3d cd 1b 9a bd ac 02 6a 3d 5f 90 a4 3c
       0.04990535 -0.07524834 0.057131454 0.020088373
000340 3c b9 83 3d 6d 02 91 bd ab 18 9e bc 46 fe ea 3b
       0.06431815 -0.07080541 -0.019298872 0.007171425
000350 2f 9f 01 bd 1f e7 51 bc 8b eb 4c bd ec cb d2 bd
       -0.03164595 -0.012811451 -0.05002932 -0.10292801
000360 31 a2 84 3d f1 6d e8 3c dc 37 af bd 9d 47 94 bc
       0.06476248 0.028372737 -0.08555576 -0.018100554
000370 89 51 08 bd b6 1f b9 3d 55 47 59 bd 7e 80 4c 3d
       -0.033280883 0.090392515 -0.053046543 0.049927227
000380 36 c5 b1 bd 98 93 bc bd 9f 2f 72 bd f3 ee 0d 3d
       -0.08680193 -0.09207839 -0.059127446 0.034651708
000390 ac 13 cc 3b b0 46 82 bd 30 61 ec bc 5f 68 84 3d
       0.006227931 -0.06361139 -0.028854936 0.0646522
0003a0 19 e8 c8 3d 49 a4 38 3d 2f 6c 8c bd f9 eb 51 bd
       0.09809894 0.04507855 -0.06856572 -0.05125043
0003b0 15 f4 1a bd 94 11 5c 3d 78 44 77 bd 7f d8 70 bd
       -0.03783043 0.0537277 -0.06036803 -0.058800217
0003c0 47 57 b1 bd 05 f5 72 bd 5c be a7 bd 41 f1 cb bd
       -0.08659225 -0.0593157 -0.08190605 -0.09958125
0003d0 cf 3b 90 bd fe 7c 4a bd f6 35 92 3d fd 6b 33 bd
       -0.070426576 -0.049435608 0.071391985 -0.043804158
0003e0 e5 09 ba 3d e5 4f b6 bd a8 9d 0e bd 7b 3e ce 3d
       0.090839185 -0.089019574 -0.03481832 0.10070511
0003f0 4a 45 fd bb e1 79 e5 3b 56 2f 4b 3d 67 92 9a 3d
       -0.007729207 0.0070030545 0.04960569 0.07547455

fc4.bias f4 [6]
000000 4f 22 69 bb 8b 69 65 bd c1 e6 f1 bb cb 6c 57 bd
       -0.0035573428 -0.056008857 -0.0073822443 -0.052593987
000010 3d 98 4d 3d 68 bb fd bc
       0.050194014 -0.030973151
