checkpoint.pt (torch, 416237 bytes, 8 tensors)

fc1.weight f4 [200, 108]
0	0xbdc45118	-0.0958578
1	0xbc5a12b6	-0.013310125
2	0xbd24537b	-0.040118676
3	0x3c75b658	0.014997087
4	0x3dc9d178	0.09854406
5	0xbdd67e53	-0.10473313
6	0x3a787156	0.00094773376
7	0x3cd6da8e	0.026227262
8	0xbbfe8303	-0.0077670827
9	0x3cd29633	0.025706386
10	0xbc66fce2	-0.014098378
11	0xbb0fe147	-0.0021954344
12	0x3ced7329	0.028985577
13	0xbd6aec18	-0.057354063
14	0xbc43d4bd	-0.011952576
15	0xbb81c145	-0.003959807
16	0xbd921199	-0.07132263
17	0xbbd8c8ff	-0.0066157575
18	0xbcf47e88	-0.029845491
19	0x3d7a193a	0.061059214
20	0x3d87849a	0.066170886
21	0x3ce597d3	0.028026497
22	0xbb181d59	-0.0023210852
23	0xbcc32a56	-0.023823898
24	0x3d92f9c2	0.07176544
25	0x3dba9e50	0.09112227
26	0xbd03b77b	-0.032157402
27	0x3b0c4f96	0.0021409742
28	0x3df44ab1	0.11928309
29	0x3d9fc900	0.078020096
30	0xbda1e986	-0.07905869
31	0x3d55de04	0.052213684
32	0xbc3f83a6	-0.011689102
33	0xbda178a5	-0.07884339
34	0x3d211845	0.039329786
35	0x3d84595c	0.064623564
36	0x3da2722d	0.079319336
37	0xbda45d8f	-0.080256574
38	0x3d22ce87	0.03974774
39	0xbd972cb0	-0.0738157
40	0x3d38f5e7	0.045156386
41	0xbdd3fb31	-0.10350645
42	0x3cde0b97	0.027105136
43	0x3da79fe3	0.08184793
44	0xbc13a011	-0.009010331
45	0xbd8f1ac9	-0.06987531
46	0x3d8e9f4e	0.06963979
47	0x3c9bbe64	0.019011684
48	0x3cdb7f46	0.026794087
49	0x3d941faf	0.07232606
50	0x3d337bde	0.0438193
51	0xbd25aee8	-0.040450007
52	0xbd090a45	-0.03345706
53	0xbde3918f	-0.111117475
54	0xbd233b43	-0.03985144
55	0xbd94ca6a	-0.0726517
56	0x3d515bce	0.051112942
57	0xbd22569b	-0.039633375
58	0x3bec83c8	0.007217858
59	0x3d37dcec	0.044888422
60	0x3db8cf94	0.090239674
61	0x3c96e98d	0.018421913
62	0x39e3c853	0.00043446067
63	0xbd5c6072	-0.053802915
64	0xbdd2340b	-0.10263833
65	0x3d5fab4a	0.054606713
66	0x3daf5c5f	0.0856254
67	0x3d309997	0.043115225
68	0xbc2b7ac9	-0.010466286
69	0xbc43da06	-0.011953836
70	0xbda4799c	-0.08031008
71	0xbbd726e8	-0.0065659173
72	0xbdf4898b	-0.11940297
73	0xbccd91d4	-0.02509395
74	0x3d8a393b	0.06749197
75	0x3ca05499	0.01957159
76	0xbd1f2f4a	-0.038863458
77	0xbc36d5cf	-0.011159374
78	0xbc9d0ef0	-0.019172162
79	0x3d1ea98f	0.038735922
80	0xbdb07e9a	-0.08617897
81	0xbdad1040	-0.08450365
82	0x3d5cffa9	0.053954754
83	0xbdb71ef6	-0.08941452
84	0xbc942b46	-0.01808704
85	0xbd8f9924	-0.07011631
86	0x3d4eba0c	0.050470397
87	0x3c95eacb	0.018300435
88	0x3d6248fc	0.055245385
89	0x3cae29e3	0.021260208
90	0xbd1080da	-0.035279132
91	0x3dc88e0a	0.09792717
92	0x3ce2068f	0.027591018
93	0x3ccca229	0.024979668
94	0xbd9b01a2	-0.07568671
95	0x3d8effde	0.069823965
96	0xbddca34a	-0.107733324
97	0xbd8ee510	-0.06977284
98	0xbd7d5f16	-0.06185826
99	0x3d75f8d6	0.06005176
100	0x3d574245	0.052553434
101	0xbbb4be4b	-0.0055158488
102	0x3d538443	0.051639806
103	0xbcaee60b	-0.021349927
104	0xbd8ede0a	-0.06975944
105	0xbb65b15f	-0.0035048348
106	0xbb123404	-0.0022308836
107	0x3d99a022	0.07501246
108	0x3da51797	0.0806114
109	0xbd5ac718	-0.053412527
110	0x3ddd3c24	0.108024865
111	0x3dc28a6b	0.094990574
112	0x3cb201a6	0.021729302
113	0xbcd98128	-0.026550844
114	0xbd21fbb0	-0.03954667
115	0x3cce3777	0.025172932
116	0xbbe6ff28	-0.00704946
117	0xbc4d19ba	-0.012518341
118	0x3849057a	4.7927235e-05
119	0xbd9bc4f9	-0.07605929
120	0xbdafc57b	-0.08582588
121	0xbd097174	-0.033555463
122	0xbb24e5fe	-0.00251615
123	0x3d0306c7	0.031988885
124	0xbe22e209	-0.15906538
125	0xbc302984	-0.010752086
126	0xbbde3982	-0.006781758
127	0x3be58b79	0.007005152
128	0xbdf17c7d	-0.117913224
129	0x3d708958	0.05872473
130	0x3b99566f	0.004679493
131	0x3c5653db	0.013081516
132	0x3d28a0ae	0.04116886
133	0x3d7cfd8b	0.061765235
134	0xbd5497bd	-0.05190252
135	0xbb5ffdfe	-0.003417849
136	0x3d5c48b6	0.05378028
137	0xbd8f4909	-0.06996352
138	0xbdb21689	-0.086957045
139	0x3d36fbf8	0.04467389
140	0x3dcb1dcb	0.09917792
141	0x3d52f5c1	0.0515039
142	0xbd242425	-0.040073533
143	0xbdb5b4e7	-0.08872395
144	0x3da99f63	0.08282354
145	0xbd97619e	-0.07391666
146	0xbdc7ae4c	-0.09750041
147	0x3db3ddb7	0.08782523
148	0x3ba1bf5c	0.004936142
149	0x3d591a66	0.05300369
150	0xbcafd9e3	-0.021466201
151	0x3d90142a	0.07035096
152	0xbcd2924c	-0.025704525
153	0x3c7f97df	0.015600174
154	0x3dcbc4a5	0.09949616
155	0x3d074e68	0.03303376
156	0xbd79b846	-0.060966752
157	0xbd37002f	-0.04467791
158	0x3c80958f	0.015696315
159	0x3cac3c2c	0.021024786
160	0x3d8eb893	0.069687985
161	0x3cc46bff	0.023977278
162	0xbc68dffa	-0.014213556
163	0xbca9f194	-0.020745076
164	0xbc5f0a46	-0.013613289
165	0x3d6c8743	0.057746183
166	0x3d187dc1	0.037229303
167	0xbda8f17f	-0.08249187
168	0x3d0a8c29	0.033825073
169	0x3db01ddb	0.085994445
170	0xbdaadf40	-0.08343363
171	0xbdb92431	-0.09040106
172	0xbd58a098	-0.05288753
173	0xbce59297	-0.028024001
174	0x3cd1a841	0.025592925
175	0x3d7b2777	0.061316933
176	0xbdc33d1c	-0.0953314
177	0xbd06c18f	-0.032899436
178	0x3c6afa9f	0.014341979
179	0x3cf3674b	0.02971234
180	0x3c8d7d8c	0.01727178
181	0xbdcc89ae	-0.09987198
182	0xbc652945	-0.01398689
183	0x3d9c52aa	0.076329544
184	0x3d06b2d7	0.0328854
185	0xbde4b3dd	-0.11167119
186	0xbc6cf8f0	-0.014463648
187	0x3db0f93a	0.08641286
188	0x3d560452	0.052250214
189	0x3d715dea	0.058927454
190	0x3bee45b5	0.0072714933
191	0xbd617b13	-0.055049013
192	0xbaa8efed	-0.0012888886
193	0x3d7498dc	0.05971609
194	0xbcffce08	-0.031226173
195	0xbda1b6f9	-0.078962274
196	0xbd5d7afd	-0.05407237
197	0x3d51a951	0.051186863
198	0x3db884dc	0.09009716
199	0xbd6c0449	-0.057621274
200	0x3db8310b	0.08993729
201	0x3cb2a0df	0.021805225
202	0xbd9d2665	-0.07673339
203	0x3d1dfb6a	0.038569845
204	0x3d6c6595	0.057714064
205	0xbd0a5af0	-0.03377813
206	0xbd208a02	-0.039194115
207	0x3dbeed5a	0.09322615
208	0xbc2502e3	-0.010071489
209	0xbc0454b3	-0.0080768345
210	0x3d88befb	0.06677052
211	0xbd5d07f9	-0.05396268
212	0x3ca2f911	0.019894155
213	0xbca395b4	-0.019968845
214	0x3d5e11a3	0.05421604
215	0xbd942fac	-0.07235655
216	0xbdbe2227	-0.09283858
217	0xbce68e6c	-0.028144084
218	0x3d89c5a4	0.0672715
219	0xbdb68c18	-0.089134395
220	0xbad46c6e	-0.0016206631
221	0x3d8bce23	0.06826427
222	0x3db6e385	0.08930115
223	0xbd5962b4	-0.053072646
224	0x3d5035a9	0.050832424
225	0xbcfbd985	-0.03074337
226	0x3c99d8ae	0.018780079
227	0x3e00d000	0.12579346
228	0xbd0499af	-0.032373127
229	0xbca4ebe0	-0.020132005
230	0x3c59c6e6	0.01329205
231	0xbdd30c7f	-0.10305118
232	0xbd749577	-0.059712853
233	0xbd89927c	-0.06717393
234	0xbcef094f	-0.029179243
235	0xbcbd7e52	-0.023131523
236	0x3d92429f	0.07141613
237	0x3c368e24	0.011142287
238	0xbd6c4668	-0.057684332
239	0x3e1293f1	0.14314248
240	0xbd63d149	-0.05561951
241	0x3d9db7c4	0.07701066
242	0xbdb923a5	-0.09040002
243	0xbd2f934f	-0.042865094
244	0x3d291f98	0.041289896
245	0xbd37ed28	-0.044903904
246	0x3c260ce3	0.010134908
247	0x3cfa93a3	0.030587977
248	0xbdd452a1	-0.10367323
249	0xbaa9f940	-0.0012967959
250	0xbdbc4f2a	-0.09194787
251	0xbc1b3a83	-0.0094743995
252	0x3d2ae691	0.04172379
253	0xbddfc1b7	-0.1092562
254	0xbde9a45e	-0.11408304
255	0xbcf3b4d7	-0.029749317

fc1.bias f4 [200]
0	0x3d255349	0.04036263
1	0xbd71746f	-0.05894893
2	0x3e020651	0.12697722
3	0x3da7ebc1	0.08199263
4	0xbd23f65c	-0.04002987
5	0x3bc7588d	0.006083554
6	0x3d9c73f9	0.076393075
7	0x3dd3d07d	0.103425
8	0x3d4369d3	0.047708344
9	0x3c3fdd2b	0.011710445
10	0x3d63592f	0.055504974
11	0x3db494b9	0.08817429
12	0x3d8c20f7	0.06842225
13	0xbcd8dfb9	-0.026473867
14	0x3d90b49d	0.07065699
15	0xbceafe89	-0.028685825
16	0x3dc4ac5b	0.09603187
17	0x3dd30516	0.103037044
18	0xbd42925a	-0.047502853
19	0x3df6e389	0.12055118
20	0x3c06a557	0.008218131
21	0x3d9babb8	0.07601112
22	0x3d849541	0.064737804
23	0x3c1092e4	0.008824084
24	0x3df244cb	0.118295275
25	0x3c664508	0.014054544
26	0xbd49eead	-0.049299885
27	0x3ceb9210	0.028756171
28	0x3d6003a9	0.05469099
29	0x3debd7be	0.11515759
30	0xbce1dcd9	-0.027571129
31	0xbc81fbd2	-0.015867148
32	0xbd084f2a	-0.03327862
33	0x3c161af1	0.009161697
34	0x3dc3fd3e	0.095697865
35	0x3dee01ab	0.11621412
36	0x3d8a0f46	0.067411944
37	0x3c94e755	0.018176714
38	0x3b20e0fc	0.0024548164
39	0x3c2a7ca4	0.010405693
40	0x3c849415	0.016183892
41	0x3ddb632a	0.107122734
42	0x3d2ba866	0.041908644
43	0x3db1f4b1	0.08689249
44	0x3d4e0bf7	0.05030438
45	0xbc33ee65	-0.010982131
46	0x3df74801	0.120742805
47	0x3d393a9e	0.045221917
48	0x3dae5cc5	0.08513788
49	0xbd293537	-0.041310515
50	0xbd840e8e	-0.064480886
51	0x3df5d277	0.120030336
52	0xbcd6b969	-0.026211457
53	0xbd053995	-0.032525618
54	0xbd810a06	-0.0630074
55	0x3b616742	0.0034393822
56	0x3d9ce3bb	0.07660624
57	0xbc0a3c32	-0.008437203
58	0x3e05cac6	0.13065633
59	0x3d93f9f5	0.0722541
60	0xbd10e370	-0.03537315
61	0x3dc66189	0.09686572
62	0xbc3a7ac2	-0.011381807
63	0x3dbac84c	0.09120235
64	0x3e056f77	0.13030802
65	0xbd3a6f36	-0.045516215
66	0xbcd4bb29	-0.025968151
67	0x3c9ac2f3	0.018891787
68	0xbd7944da	-0.060856678
69	0x3d176830	0.036964595
70	0xbc33a07f	-0.010963558
71	0xbda81883	-0.082078
72	0x3d744b09	0.05964187
73	0xbb1ae152	-0.0023632837
74	0x3e095da2	0.13414624
75	0x3aa6aa96	0.0012715633
76	0x3d94357d	0.072367646
77	0x3de26c26	0.11055784
78	0xbc303843	-0.010755601
79	0xbd18c512	-0.037297316
80	0x3dc37942	0.095446125
81	0x3b85c4c6	0.004082295
82	0x3dad91ad	0.08475051
83	0x3d55ccd9	0.05219731
84	0xbccd0ced	-0.025030578
85	0xbd6bc479	-0.057560418
86	0x3caca614	0.021075286
87	0x3d27d62f	0.040975746
88	0xbd6c2d92	-0.057660647
89	0x3dc01873	0.09379663
90	0x3b306573	0.0026915937
91	0x3c1364b8	0.008996181
92	0x3de5a4a5	0.11213044
93	0x3c3866f4	0.011255015
94	0x3decd4a4	0.115639955
95	0x3e0c3b9c	0.13694614
96	0xbd1fd4f9	-0.039021466
97	0x3d9d4c84	0.0768061
98	0x3da9fc43	0.08300068
99	0xbd3bf64b	-0.04588918
100	0x3d689528	0.05678287
101	0x3d86a4b5	0.06574384
102	0x3df96f79	0.12179465
103	0x3d6b5e26	0.057462834
104	0x3d57e6d6	0.052710377
105	0x3dd60a76	0.10451214
106	0xbb8e60cd	-0.0043450356
107	0x3e07417e	0.13208577
108	0xbd1d4d90	-0.038404047
109	0x3d90365d	0.07041619
110	0x3daf3619	0.0855524
111	0x3dc2b2c9	0.09506757
112	0x3da5a7d8	0.08088654
113	0x3ca81b8a	0.020520944
114	0x3ddc9063	0.10769727
115	0xbd40b602	-0.047048576
116	0x3d393181	0.045213226
117	0xbcaac836	-0.020847421
118	0xbc973fb0	-0.018462986
119	0xbc67feea	-0.014159897
120	0xbc815d87	-0.015791668
121	0x3d6f9c14	0.058498457
122	0x3cf2448d	0.029573703
123	0xbd0212fa	-0.03175638
124	0x3ce47350	0.027887017
125	0x3de56921	0.112016924
126	0x3dde1204	0.1084328
127	0x3c9f941c	0.019479804
128	0xbc74dfb8	-0.014945917
129	0x3e05ff5e	0.13085696
130	0xbce05692	-0.02738503
131	0x3df6fe47	0.12060218
132	0xbcbb36d0	-0.022853285
133	0x3e0054da	0.12532368
134	0x3d11e0a8	0.03561464
135	0x3d8bb435	0.06821481
136	0x3d8bd964	0.06828573
137	0x3ced2925	0.028950283
138	0x3e0180f1	0.12646843
139	0x3de8cfa8	0.11367732
140	0x3d96c60b	0.073619924
141	0x3d98179c	0.07426378
142	0x3c1bd602	0.009511473
143	0x3d875b04	0.06609157
144	0x3b150a49	0.0022741726
145	0x3da81823	0.08207729
146	0x3c2d9323	0.010594162
147	0x3db15246	0.086582705
148	0x3d10c0f4	0.035340264
149	0x3df9f2d6	0.122045204
150	0x3df69ebf	0.12041997
151	0x3d65edad	0.05613487
152	0xbc237e5a	-0.009978855
153	0x3ddee650	0.108837724
154	0xbac4e41c	-0.0015021595
155	0xbd5d6682	-0.054052837
156	0x3cdc1bed	0.026868785
157	0x3d7c4a39	0.06159422
158	0x3d997d5e	0.07494615
159	0xbd2ef7f7	-0.042716946
160	0x3de44e4f	0.11147749
161	0x3dc56c3d	0.096397854
162	0xbc8325ff	-0.016009329
163	0x3db11eab	0.086484276
164	0x3d8960cb	0.06707915
165	0xbd110bdc	-0.0354117
166	0xbd31ce65	-0.043409724
167	0x3d857448	0.065163195
168	0xbb5e0c70	-0.0033881925
169	0x3d11ca9c	0.035593614
170	0x3dc3f41e	0.09568046
171	0x3c6670e3	0.014065
172	0xbc13457a	-0.0089887325
173	0x3e0b6c22	0.13615468
174	0x3e02a20a	0.12757125
175	0xbd4e89f5	-0.050424535
176	0xbd5d84e6	-0.05408182
177	0x3dd490ca	0.10379179
178	0x3d1fbf69	0.039000902
179	0x3de346ae	0.110974655
180	0x3d5030ce	0.050827794
181	0xbc006f62	-0.007839056
182	0xbd4ca407	-0.049961116
183	0x3bdcc3db	0.006737215
184	0xbd237121	-0.03990281
185	0x3d195a74	0.03743978
186	0xbd2fdc7c	-0.04293488
187	0xbd1b17db	-0.037864547
188	0x3df6c82a	0.12049897
189	0x3d9f4996	0.07777707
190	0x3dafe523	0.08588626
191	0x3d1b7849	0.03795651
192	0x3de5f647	0.11228614
193	0x3df1ac23	0.118004106
194	0xbc816998	-0.015797421
195	0x3dbc3292	0.09189333
196	0x3dc84c89	0.09780223
197	0x3b7bfb30	0.003844928
198	0x3d4599fa	0.048242547
199	0x3de88791	0.11353982

fc2.weight f4 [200, 200]
0	0xbaf90741	-0.0018999354
1	0x3d448114	0.04797466
2	0x3b234269	0.002491141
3	0xbd0e1c58	-0.034695
4	0xbd4c4cec	-0.049878046
5	0xbceefe1f	-0.029173909
6	0xbcf89288	-0.030343309
7	0xbd302a57	-0.04300913
8	0x3c85ade9	0.016318278
9	0xbc66c01b	-0.014083887
10	0x3ccc7a75	0.024960736
11	0x3a581e61	0.0008244273
12	0xbd13c478	-0.03607604
13	0x3a28eadf	0.000644369
14	0xbd7cc8b2	-0.061714835
15	0x3b17ed04	0.0023182044
16	0xbd15750c	-0.036488578
17	0xbc48216a	-0.012214998
18	0x3d13dc14	0.036098555
19	0xbd4b4bc9	-0.04963282
20	0xbd1a0f1a	-0.03761206
21	0x3d7e26e2	0.0620488
22	0x3d16701b	0.036728006
23	0x3da65baf	0.08122956
24	0x3d0af3d0	0.033923924
25	0x3ccb3e7f	0.024810074
26	0x3cd9f008	0.026603714
27	0x3d8a8cb3	0.067651175
28	0x3d6cc973	0.057809304
29	0x3db24a31	0.08705557
30	0xbd2041c4	-0.03912522
31	0xbd4e8702	-0.050421722
32	0xbcf3b2d4	-0.029748358
33	0x3dbdef4b	0.09274157
34	0xbd98940e	-0.07450114
35	0xbced8d6e	-0.028998103
36	0xbd4c8457	-0.049930897
37	0x3bc98469	0.0061498177
38	0x3d92df81	0.07171536
39	0xbbdd5849	-0.006754909
40	0x3c9d9d3b	0.019240012
41	0xbc77ea9d	-0.01513162
42	0x3de76171	0.11297882
43	0x3d59e5ac	0.053197548
44	0xbd8a83be	-0.06763409
45	0xbd83a8e7	-0.064287
46	0x3cfdaf4a	0.030967373
47	0x3ccf1a82	0.025281195
48	0x3c89ddb1	0.016829344
49	0xb98b546c	-0.00026575045
50	0xba21f8b8	-0.00061787246
51	0x3d543215	0.051805574
52	0xbb9f0dbf	-0.0048539336
53	0x3d250cb1	0.040295307
54	0x3d9b2063	0.07574537
55	0x3d91b0bc	0.071137875
56	0x3d33d25a	0.04390178
57	0xbd28d7cb	-0.04122142
58	0x3dac6b8c	0.084189504
59	0xbd77f526	-0.060536526
60	0xbcd90ca1	-0.02649528
61	0x3d8c40b5	0.068482794
62	0x3d7fdc49	0.06246594
63	0xbcd10aab	-0.025517782
64	0xbc28cf8e	-0.010303391
65	0xbbd45625	-0.006479996
66	0x3d80a2df	0.06281065
67	0x3cad9294	0.021188058
68	0xbce1409a	-0.027496625
69	0x3d44a7fc	0.048011765
70	0x3d5ec023	0.054382455
71	0x3d8f2fbb	0.06991526
72	0x3d3e4a2f	0.046457466
73	0xbcdb52ea	-0.026772935
74	0x3c3b5e7e	0.011436103
75	0x3d842363	0.06452062
76	0x3d467e9a	0.04846058
77	0x3dba3feb	0.09094223
78	0x3bd0e5e1	0.00637506
79	0xbaae3c24	-0.001329307
80	0xbc3f6f73	-0.011684286
81	0x3d605e66	0.054777525
82	0x3d832a9f	0.06404614
83	0xbd12d29d	-0.035845388
84	0x3dac9689	0.0842715
85	0x3d46f291	0.048571173
86	0x3ceeccf3	0.029150462
87	0x3d314a14	0.043283537
88	0x3d11fbd2	0.035640545
89	0x3a205fba	0.000611778
90	0xbbede7e1	-0.007260308
91	0xbcdf5bac	-0.027265392
92	0x3c93401d	0.017974908
93	0x3d88d3c7	0.06681018
94	0x3ccc9dd7	0.024977608
95	0xbc651d4c	-0.013984036
96	0xbc93a26b	-0.018021783
97	0x3d8142c7	0.06311565
98	0xbc884576	-0.016634684
99	0x3d9636a2	0.07334639
100	0x3db50abc	0.08839938
101	0xbd1a3bb4	-0.037654594
102	0xbce4fb3d	-0.027951831
103	0x3ca99cbc	0.02070462
104	0xbd6d3dd6	-0.0579203
105	0xbd57697c	-0.052590832
106	0xbd888936	-0.06666796
107	0x3d3bd3a9	0.04585615
108	0x3db72a1f	0.08943581
109	0x3d0900c1	0.033447985
110	0xbcd9606d	-0.026535237
111	0x3ca075d5	0.019587437
112	0x3c2e91c9	0.010654875
113	0xbb06baf6	-0.0020558215
114	0xbc785deb	-0.015159111
115	0xbd5942ff	-0.053042408
116	0xbd0a48b3	-0.033760738
117	0x3d37a6f1	0.044836942
118	0xbd13aad4	-0.036051586
119	0x3ccb6e05	0.024832735
120	0xbd492a37	-0.049112525
121	0xbcc2707c	-0.023735277
122	0xbc83069b	-0.01599436
123	0xbcf9956d	-0.03046676
124	0xbcd02c8d	-0.025411868
125	0x3d4d6570	0.050145566
126	0x3cc89f4f	0.024490027
127	0xbd3635ce	-0.044484906
128	0x3d7b9dae	0.061429672
129	0xbd2db810	-0.042411864
130	0x3d90e67d	0.07075212
131	0x3da8125a	0.08206625
132	0xbcea9e89	-0.028640049
133	0xbba7e373	-0.0051235496
134	0x3d3fb4ad	0.046803165
135	0xbd061731	-0.03273696
136	0x3da3de24	0.08001354
137	0x3ca78cb1	0.02045283
138	0x3d283dcf	0.04107457
139	0xbcf993e8	-0.030466035
140	0xbd707c37	-0.05871221
141	0x3d90045d	0.07032082
142	0x3da2fcde	0.07958387
143	0xbc4489a9	-0.011995711
144	0x3cc5abba	0.024129737
145	0xbd4d9892	-0.05019433
146	0x3d40d223	0.047075402
147	0xbd0803b4	-0.033206657
148	0x3c8ce0f9	0.01719712
149	0x3c9e17f4	0.019298531
150	0x3b7aae2a	0.0038250783
151	0x3c212c13	0.009837168
152	0xbb9475b0	-0.004530631
153	0x3db50764	0.088393
154	0xbba746a7	-0.005104858
155	0xbd17b063	-0.03703345
156	0xbd07b992	-0.033135958
157	0xbcf995c8	-0.03046693
158	0xbc44fd34	-0.012023259
159	0xbce9a3ee	-0.02852055
160	0x3d9c05e5	0.07618312
161	0x3db5d520	0.08878541
162	0xbc3d2db7	-0.011546544
163	0xbd1031cd	-0.035203744
164	0x3cde3621	0.02712542
165	0x3d618e6a	0.055067457
166	0x3dabd13b	0.08389517
167	0x3d2be394	0.041965082
168	0x3bc80eb3	0.006105268
169	0xbca3c8eb	-0.019993266
170	0xbcb7d4c1	-0.022440316
171	0xbd11bcdf	-0.035580512
172	0x3d885d5a	0.066584304
173	0xbd192a0e	-0.037393622
174	0xbce1787f	-0.027523277
175	0x3d576aab	0.05259196
176	0xbc4a56ca	-0.012349794
177	0x3c603835	0.013685276
178	0x3be37762	0.006941722
179	0x3d73c023	0.059509408
180	0x3b3d34b2	0.002887052
181	0x3d488814	0.0489579
182	0x3c9ee41e	0.019395884
183	0x3da3e758	0.0800311
184	0xbd4488ea	-0.047982134
185	0x3d5cb37c	0.053882107
186	0x3d0edce2	0.03487862
187	0xbd2ac46e	-0.041691236
188	0x3cb6717c	0.02227091
189	0xbcc34cd5	-0.023840347
190	0x3d84d8a5	0.06486634
191	0x3d1e8396	0.03869971
192	0x3d0cb4c1	0.034352068
193	0xbb3fe9d6	-0.0029283664
194	0xbc2668b7	-0.010156802
195	0xbd0f741d	-0.035022844
196	0x3d71c011	0.05902106
197	0x3be8e247	0.0071070525
198	0xbcfaa23b	-0.030594936
199	0xbc92d439	-0.017923461
200	0x3d71661b	0.058935266
201	0x3d9ac33f	0.075567715
202	0xbb5e6347	-0.0033933686
203	0xbcaac5cc	-0.02084627
204	0xbd74aa37	-0.059732642
205	0x3d6fe6f1	0.058569852
206	0x3c3d4f0a	0.011554489
207	0x3d58d54c	0.05293779
208	0x3cbc593d	0.02299177
209	0x3d955cb3	0.072930716
210	0xbd205a0d	-0.03914838
211	0x3d8cdeaa	0.06878407
212	0xbd179435	-0.037006576
213	0xbca6f16c	-0.02037879
214	0xb9af5f6a	-0.0003344969
215	0x3d9e4311	0.07727636
216	0x3d2361e4	0.039888278
217	0xbc688c1a	-0.014193559
218	0xbcf993e1	-0.030466022
219	0xbd086d62	-0.03330744
220	0x3d6d3704	0.057913795
221	0xbce752b7	-0.028237684
222	0xbd8717cb	-0.06596335
223	0xbc17944a	-0.009251663
224	0x3da50b5f	0.080588095
225	0xbda07e14	-0.078365475
226	0x3d9cbacd	0.07652817
227	0x3d5f28d9	0.054482315
228	0x3bb7563c	0.0055949967
229	0x3c83d5f1	0.016093226
230	0x3d2abe5a	0.04168544
231	0x3d8f081b	0.06983968
232	0x3d21a39c	0.03946267
233	0xbc971920	-0.018444598
234	0x3d4ac529	0.049504433
235	0x3c465afd	0.012106654
236	0x3de2410a	0.110475615
237	0x3c4fe44f	0.01268871
238	0x3cda9f74	0.026687361
239	0xbda84b98	-0.08217543
240	0x3b140363	0.0022585026
241	0x3d84228e	0.06451903
242	0x3b95e9fe	0.004575013
243	0xbd9221e3	-0.0713537
244	0x3ca64835	0.020298103
245	0xbb6eae26	-0.0036419719
246	0xbd1aeb81	-0.03782225
247	0x3d6f09b3	0.05835886
248	0x3d464cc9	0.04841307
249	0x3c9a3cb7	0.01882778
250	0xbba6350d	-0.005072242
251	0xbb01d247	-0.0019809173
252	0xbd3ea0fb	-0.04654024
253	0x3ca7572f	0.020427315
254	0xbd60443b	-0.05475257
255	0x3d094fd2	0.03352339

fc2.bias f4 [200]
0	0x3c74dccd	0.014945221
1	0xbd33bca8	-0.04388109
2	0x3d5527c9	0.052039895
3	0x3cd68121	0.02618462
4	0xbcfb7914	-0.030697383
5	0xbb005519	-0.0019581972
6	0xbd2b8f0e	-0.041884474
7	0x3d8d19b7	0.0688967
8	0xbd1ff2e0	-0.039049983
9	0x3d8f5894	0.06999317
10	0x3ce8bcb8	0.0284103
11	0xbd1e8c0b	-0.038707774
12	0x3d03f0f4	0.032212213
13	0x3d433ecc	0.04766731
14	0x3d1ee50c	0.038792655
15	0xbd165a85	-0.03670742
16	0xbd442b9f	-0.047893163
17	0x3b9ea323	0.0048412248
18	0x3db594d6	0.08866279
19	0x3d9a8751	0.07545341
20	0x3d16c55b	0.036809307
21	0xbd1dd7a8	-0.038535744
22	0x3d9ebb00	0.07750511
23	0x3dae787e	0.08519076
24	0x3cdfc137	0.027313812
25	0x3c44fc40	0.012023032
26	0xbd13c58f	-0.03607708
27	0xbd23c88a	-0.03998617
28	0x3d908827	0.07057219
29	0x3cc42272	0.023942206
30	0x3d330792	0.04370839
31	0x3dbe1143	0.09280636
32	0x3d9b7ca3	0.07592132
33	0x3da3cc92	0.07998003
34	0x3ca78d4e	0.020453122
35	0x3b969003	0.0045948043
36	0x3d580445	0.052738447
37	0x3d908de0	0.070583105
38	0xbc9a0220	-0.018799841
39	0xbd05723c	-0.032579646
40	0x3aade3fb	0.0013266796
41	0xbd256b09	-0.04038528
42	0x3c2b3ad9	0.010451042
43	0x3c2587e0	0.010103196
44	0x3d9e9571	0.077433474
45	0x3d77a207	0.060457256
46	0xbce985e3	-0.028506225
47	0x3da71afd	0.081594445
48	0x3da3b8a4	0.07994202
49	0x3d1dd894	0.038536623
50	0xbc7d6419	-0.01546576
51	0x3cf622b4	0.030045845
52	0x3ccf59df	0.025311409
53	0x3c143bd7	0.00904747
54	0x3b05f5a5	0.0020440605
55	0x3d026639	0.03183577
56	0xbb0f5519	-0.002187079
57	0x3d61937a	0.055072285
58	0xbced61ab	-0.028977236
59	0x3d136921	0.03598893
60	0xbcb52058	-0.02211015
61	0xbb8c2c50	-0.0042777434
62	0xbd0c744c	-0.034290597
63	0xba4f30e5	-0.0007903709
64	0x3cd3a374	0.025834776
65	0xb911be92	-0.0001389927
66	0x3dad2716	0.08454721
67	0x3d29e989	0.041482482
68	0x3d7faa7d	0.06241845
69	0x3d1b978a	0.037986316
70	0xbc2e852e	-0.01065187
71	0x3d85dd0d	0.06536303
72	0xbbce418f	-0.0062944363
73	0x3d98c051	0.074585564
74	0x3d0a88b7	0.033821788
75	0x3d4e9c49	0.050442014
76	0x3d7dba8b	0.06194548
77	0x3ba8bf19	0.0051497337
78	0x3d87e508	0.06635481
79	0xbb8f78b6	-0.0043784035
80	0xbcb452b6	-0.022012096
81	0x3d37224d	0.044710446
82	0x3ca6a91e	0.020344313
83	0xbc16ba07	-0.009199626
84	0xbc8aa62b	-0.016924938
85	0x3d9f8fe9	0.077911206
86	0x3dadbea5	0.08483628
87	0xbd38ee5f	-0.045149203
88	0x3bd3465a	0.0064475955
89	0x3d98825e	0.074467406
90	0x3cf274fa	0.029596794
91	0x3da2ca23	0.07948711
92	0x3c6aeebc	0.014339145
93	0xbc201b4b	-0.009772132
94	0x3ceb04d7	0.028688831
95	0x3b4ca59c	0.003122664
96	0xbcbf8b36	-0.02338181
97	0xbcf21bc8	-0.029554263
98	0xbc99849f	-0.018739996
99	0x3a872b56	0.0010312598
100	0x3db1b089	0.086762495
101	0x3d2a30b7	0.041550364
102	0xbcc894c3	-0.024484998
103	0x3cba2968	0.022724822
104	0x3cb8e800	0.022571564
105	0xbc03099f	-0.007997899
106	0x3cc04fb4	0.023475505
107	0x3d43ba4d	0.047785092
108	0x3d27b54f	0.040944394
109	0x3c5e09cb	0.0135521395
110	0xbd3a096b	-0.045419138
111	0xbc883a2a	-0.016629297
112	0x3d798a27	0.060922768
113	0x3d5c4382	0.053775318
114	0x3aec28b1	0.0018017498
115	0xbd3cb119	-0.04606733
116	0xbca7dc28	-0.02049072
117	0x3c2aa2be	0.010414777
118	0x3d942eee	0.07235514
119	0xbbd73eed	-0.0065687806
120	0xbc9c9ac9	-0.019116776
121	0x3d1a7adf	0.037714835
122	0x3daa9d9c	0.08330843
123	0x3d5552c1	0.052080873
124	0x3d50ef94	0.05100973
125	0xbc6a411d	-0.014297751
126	0xbcfc1555	-0.03077189
127	0x3d02d61b	0.031942468
128	0x3b280dc8	0.002564298
129	0x3d8bb79a	0.068221286
130	0xbc2bab05	-0.010477786
131	0xbb016f7e	-0.0019750292
132	0xbc6c6601	-0.0144286165
133	0x3d20e545	0.03928115
134	0xbce47209	-0.027886407
135	0xbd078de5	-0.033094306
136	0x3d603f00	0.05474758
137	0xbd47488c	-0.04865317
138	0xbd0ebab0	-0.034846008
139	0xbd61cd0d	-0.055127192
140	0x3d41e96a	0.04734174
141	0x3c8a7bb0	0.016904682
142	0x3d9c76a8	0.076398194
143	0xbc8f968e	-0.017527845
144	0xbcb1b4f5	-0.021692732
145	0x3d64262d	0.05570047
146	0x3cadc37d	0.02121138
147	0x3ce400f2	0.027832482
148	0x3ab6465d	0.0013906468
149	0x3c1a9218	0.0094342455
150	0xb977cf54	-0.00023632991
151	0xbc830ffc	-0.015998833
152	0x3d776ecb	0.060408395
153	0xbb85194b	-0.004061853
154	0xbcd8a99e	-0.026448067
155	0x3b6ec7a1	0.0036434906
156	0x3d211b37	0.039332595
157	0x3d83e912	0.06440939
158	0x3d69f053	0.057113957
159	0x3d7065cb	0.058690827
160	0x3c3d2385	0.011544113
161	0x3c0abbf6	0.008467665
162	0x3d0aa19b	0.033845525
163	0x3da53da9	0.08068401
164	0x3d2fc92d	0.042916466
165	0x387f2809	6.0834023e-05
166	0x3d60be7d	0.054869164
167	0xbd11909b	-0.035538297
168	0x3ce1ce3c	0.02756416
169	0x3d808dd4	0.062770516
170	0xbc60e899	-0.013727331
171	0x3c2a8423	0.01040748
172	0xbcc14716	-0.023593467
173	0x3b1bee8b	0.0023793306
174	0x3d99227a	0.07477279
175	0x3d73a659	0.059484813
176	0xbcd8e669	-0.026477056
177	0xbd2c38ec	-0.042046472
178	0x3cd7d765	0.026347825
179	0x3d39525c	0.04524456
180	0x3d4d8b36	0.05018159
181	0x3d90ca25	0.07069806
182	0xbbc4664c	-0.00599364
183	0x3cd1dcf5	0.025618056
184	0xb9b3f03d	-0.00034320532
185	0xbd183b2b	-0.037165802
186	0x3d3f3bc6	0.046687864
187	0x3d77b612	0.06047637
188	0x3b984e66	0.0046480177
189	0xbc739e91	-0.014869348
190	0x3c1f9f92	0.009742634
191	0xbbdc5287	-0.006723705
192	0xbd145794	-0.036216334
193	0x3d898521	0.067148454
194	0x3dab4b21	0.08363939
195	0xbc84c448	-0.016206875
196	0xbd11284c	-0.03543882
197	0xbc9cacab	-0.019125303
198	0xbd47affd	-0.04875182
199	0xbc73802d	-0.014862102

fc3.weight f4 [200, 200]
0	0x3b8e3dae	0.004340849
1	0x3d32c14e	0.04364138
2	0x3da6e0e2	0.08148362
3	0x3db9dab6	0.09074919
4	0xbd948954	-0.07252756
5	0x3da7e14a	0.08197267
6	0xbd812eb8	-0.06307739
7	0xbd9a313e	-0.075289235
8	0x3cafc96c	0.02145835
9	0xbda0fede	-0.07861112
10	0x3d796091	0.06088311
11	0x3b3748d0	0.0027966984
12	0xbcdc63a8	-0.026902989
13	0x3cf87b57	0.03033225
14	0x3cf78155	0.030213038
15	0xbd7636ac	-0.060110733
16	0x3d9e82a5	0.07739762
17	0x3c7d3acf	0.015455916
18	0xbda0220d	-0.07818995
19	0xbc878799	-0.01654415
20	0x3d4b0993	0.049569678
21	0x3d1b918f	0.037980612
22	0x3b186ef9	0.0023259504
23	0x3d4c6be5	0.049907584
24	0x3c8305c3	0.015993958
25	0xbd8ed197	-0.0697357
26	0x3ba1853c	0.004929213
27	0xbd298dd3	-0.04139502
28	0x3d189d80	0.03725958
29	0x3d9e20e7	0.077211194
30	0xbd49dd68	-0.049283415
31	0xbc29576c	-0.010335784
32	0xbcbabcc0	-0.022795081
33	0x3caf6746	0.02141155
34	0x3ca180c8	0.019714728
35	0x3d0994f8	0.033589333
36	0x3d895db7	0.06707328
37	0xbc80b8ff	-0.015713213
38	0x3d983e4b	0.074337564
39	0xb88a462e	-6.593425e-05
40	0x3dc34343	0.095343135
41	0x3c16b6e3	0.009198877
42	0x3d6a9ae8	0.057276636
43	0x39e5b496	0.0004381283
44	0x3dc23907	0.09483533
45	0xbd4b862b	-0.0496885
46	0x3d9a1466	0.07523422
47	0xbd371593	-0.04469831
48	0xbcccad8e	-0.024985101
49	0xbbb112e0	-0.0054038614
50	0x3b3cfeaa	0.0028838315
51	0x3da97eee	0.08276163
52	0x3d4227be	0.047401182
53	0x3cd89758	0.026439354
54	0xbd5df06f	-0.054184373
55	0x3ca9b262	0.020714942
56	0x3d38dbcc	0.04513149
57	0x3d27db0c	0.040980384
58	0xbd22fae3	-0.039790045
59	0xbd82f51f	-0.063944094
60	0x3c9618ad	0.018322313
61	0x3dbdcf2b	0.0926803
62	0x3da69d08	0.0813542
63	0xb8aa6486	-8.124956e-05
64	0x3b9593eb	0.0045647523
65	0xbc63acfe	-0.013896225
66	0xbc021aca	-0.007940957
67	0xbd88fbe6	-0.06688671
68	0xbcb3369a	-0.021876622
69	0x3bee8c3d	0.0072799013
70	0x3d3daa9c	0.046305284
71	0x3c57e7db	0.013177837
72	0x3cd8e9c9	0.026478665
73	0x3da9323e	0.08261536
74	0xbd283c49	-0.041073117
75	0x3ba68ae7	0.0050824764
76	0xbd0a6fc8	-0.03379801
77	0x3ae4e821	0.0017464199
78	0xbd8530d5	-0.065034546
79	0x3d5493ff	0.051898953
80	0x3d0b9702	0.03407956
81	0xbd700c10	-0.058605254
82	0x3c9bf9a3	0.019039935
83	0xbcf82d54	-0.030295052
84	0x3d882e50	0.066494584
85	0xbc0e6d58	-0.008693062
86	0x3c85ca75	0.01633189
87	0x3cde0a60	0.027104557
88	0x3d6dc44d	0.058048535
89	0x3d3d7e99	0.04626331
90	0x3db1e7e4	0.08686808
91	0x3d44d47e	0.04805421
92	0x3d28b2be	0.041186087
93	0xbd6ba84b	-0.057533544
94	0xbca77f1b	-0.02044635
95	0xba7311c1	-0.000927236
96	0xbdb71465	-0.08939437
97	0xbd1e83a8	-0.038699776
98	0xbd4b6b99	-0.04966316
99	0xbc476ba6	-0.0121716615
100	0x3c69dfd5	0.014274557
101	0x3d55253e	0.05203747
102	0x3d344b5a	0.044017173
103	0x3d273e61	0.040830974
104	0x3d7e3745	0.062064428
105	0x3d6d0729	0.057868157
106	0xbcb9d798	-0.02268581
107	0xbd7c5f98	-0.061614603
108	0x3da6dcff	0.081476204
109	0xbcaa864a	-0.020815987
110	0xbce76a83	-0.028249031
111	0xbd52a2a8	-0.051424652
112	0x3bf55793	0.0074872463
113	0x3d49ddb3	0.049283694
114	0x3d7a8ab9	0.061167452
115	0x3c96d7dc	0.018413477
116	0x3bb6a929	0.0055743647
117	0x3d0bac52	0.034099884
118	0x3d3ace2c	0.045606777
119	0x3d849d1e	0.0647528
120	0x3c987cc7	0.018614186
121	0x3bba33d7	0.0056824493
122	0x3d30501f	0.04304516
123	0xbd3e3dcf	-0.046445664
124	0xbb8315cc	-0.004000401
125	0x3d983d13	0.07433524
126	0xbcb80ef2	-0.022468064
127	0xbd319a20	-0.043359876
128	0xbbed174e	-0.007235444
129	0xbb428a54	-0.00296845
130	0x3d38a5e3	0.045080077
131	0x3db553c1	0.088538654
132	0x3b5d36a5	0.0033754495
133	0x3ca73ff2	0.020416234
134	0x3d74ee2c	0.05979745
135	0x3c25a8c0	0.010111034
136	0xbca47929	-0.020077305
137	0x3d775310	0.06038195
138	0x3d7c6dad	0.061628032
139	0x3d8ac3de	0.0677564
140	0xbce32c1d	-0.027730996
141	0xbc1629ed	-0.009165269
142	0xbca3f5ec	-0.020014726
143	0xbd5467f4	-0.05185695
144	0x3bb085f8	0.005387064
145	0x3cd58f64	0.02606935
146	0x3cd31f08	0.025771633
147	0xbd7bfbdf	-0.0615195
148	0xbcc1a547	-0.02363838
149	0xbcb95c09	-0.022626894
150	0x3d8c35e6	0.06846218
151	0x3d2a62a4	0.041597977
152	0x3d3e3558	0.04643759
153	0xbdb2d51d	-0.087320544
154	0x3d0f2461	0.034946803
155	0xbd892385	-0.06696228
156	0x3d937c73	0.07201471
157	0xbd1d0f9d	-0.038344968
158	0x3b9e8f0b	0.0048388294
159	0xbda7055d	-0.0815532
160	0xbd01eda8	-0.031720787
161	0x3bffa3d9	0.0078015146
162	0x3ca2fed8	0.01989691
163	0x3cc0dbda	0.023542333
164	0xbcdb9e04	-0.026808746
165	0xbd2fc16d	-0.042909075
166	0x3dadee55	0.08492724
167	0x3cf2d61a	0.029643107
168	0x3d08a3ec	0.033359453
169	0x3d3cf4d6	0.04613193
170	0xbd4ed25c	-0.050493583
171	0xbd240e43	-0.040052664
172	0x3d9173a5	0.071021356
173	0x3a704b2d	0.00091664755
174	0x3ce1ed31	0.027578922
175	0x3d19e64e	0.03757315
176	0x3cc6ca83	0.024266487
177	0x3c9c325a	0.019066978
178	0xbcf84e3f	-0.030310748
179	0x3d9f1782	0.07768156
180	0x3d3f16e6	0.046652697
181	0x3c8d24f5	0.017229537
182	0x3db2b3e7	0.0872572
183	0xbd2e04e8	-0.042485148
184	0x3d5aeb46	0.05344703
185	0xbd6cd529	-0.057820473
186	0x3d8277ed	0.0637053
187	0x3d890a87	0.06691461
188	0xbca2013d	-0.019775981
189	0x3d59c320	0.0531646
190	0xbd10181e	-0.03517925
191	0xbd3cb33a	-0.04606936
192	0xbd3b0c3f	-0.045665976
193	0x3c8a4926	0.016880583
194	0xbb9a11fd	-0.0047018514
195	0xbd65bdff	-0.056089398
196	0xbc8ad4a4	-0.016947098
197	0xbb62e650	-0.003462214
198	0xbc750302	-0.01495433
199	0xbc85adaf	-0.01631817
200	0xbdbb1e25	-0.09136609
201	0x3d2ae7a1	0.041724805
202	0xbcdb65b5	-0.026781896
203	0x3ba7cb28	0.0051206537
204	0xbd12a29a	-0.0357996
205	0xbc1bf8e2	-0.0095197875
206	0xbb44e0e7	-0.0030041279
207	0x3bbccfcd	0.0057620765
208	0x3da1417a	0.07873817
209	0x3da48a45	0.08034185
210	0xbb003e2c	-0.0019568307
211	0x3ba8220f	0.005131013
212	0xbd101872	-0.035179563
213	0xbba1adb1	-0.0049340357
214	0xbd8c7a87	-0.06859308
215	0xbd9edc02	-0.07756807
216	0x3af1c4ec	0.0018445528
217	0x3ca7ed28	0.020498827
218	0xbd0d3119	-0.03447065
219	0x3d1ca890	0.03824669
220	0xbddc5559	-0.10758466
221	0xbcf667ec	-0.03007885
222	0x3da9ca46	0.08290534
223	0x3ce68424	0.028139181
224	0x3d016e29	0.031599198
225	0xbc47c599	-0.012193107
226	0xbd406d4a	-0.046979226
227	0x3d0212ba	0.03175614
228	0x3d6dad27	0.05802646
229	0xbd0afbd7	-0.03393158
230	0x3d689fbc	0.05679296
231	0x3c697e6c	0.014251333
232	0xbc1264b3	-0.008935141
233	0x3cff83c0	0.031190753
234	0xbd9b983b	-0.07597395
235	0x3c80cc5c	0.015722446
236	0x3c188f8f	0.009311571
237	0xbd904584	-0.07044509
238	0xbd36f0b6	-0.044663154
239	0xbd8b8e24	-0.068142205
240	0xbd892367	-0.066962056
241	0xbd342f89	-0.043990646
242	0x3d20cfa2	0.039260514
243	0x3d3a36af	0.045462307
244	0x3c9ecf53	0.01938597
245	0x3da925b7	0.08259147
246	0x3d9d8374	0.07691088
247	0x39d84190	0.00041247578
248	0x3c5efe51	0.013610438
249	0x3db0a3ae	0.086249694
250	0x3bb0b55e	0.0053927144
251	0xbd32e8cf	-0.043679055
252	0x3d30fdc2	0.043210752
253	0x3d1dac3d	0.038494337
254	0xbb90db28	-0.0044206567
255	0xba595195	-0.000829005

fc3.bias f4 [200]
0	0x3d8917a3	0.066939615
1	0x3d2ca150	0.042146027
2	0x3d5dfe99	0.05419788
3	0x3d61322a	0.05497948
4	0x3cb0020d	0.021485353
5	0x3d504841	0.050850157
6	0x3d4d9e0d	0.050199557
7	0xbb1c5fc4	-0.0023860792
8	0xbcea7c6a	-0.028623778
9	0x3d6396cb	0.05556373
10	0x3db04415	0.086067356
11	0xbcb1c37a	-0.021699656
12	0xbd067422	-0.032825597
13	0x3d63a7e5	0.05558004
14	0x3ce0762a	0.027400095
15	0xbcdd30b6	-0.027000766
16	0xbc80aba0	-0.015706837
17	0xbc32c335	-0.010910799
18	0xbc8647e2	-0.016391698
19	0x3d7f0736	0.062262736
20	0x3d27d276	0.040972196
21	0xbc9bf5ad	-0.019038046
22	0x3c7a8e49	0.0152927125
23	0xbd64e064	-0.055878058
24	0xbc4a6b9c	-0.012354758
25	0x3d73c86c	0.05951731
26	0x3d99f748	0.07517868
27	0xbce7e836	-0.028308969
28	0x3d0639d9	0.03277001
29	0xbc80da34	-0.015729047
30	0x3d0419a3	0.03225101
31	0x39e22d53	0.00043139848
32	0x3d6afe20	0.05737126
33	0x3c485580	0.012227416
34	0x3d777ae4	0.060419932
35	0xbd87e029	-0.06634552
36	0x3d869efe	0.06573294
37	0x3ca56258	0.020188496
38	0xbccabac4	-0.02474726
39	0xbd461beb	-0.04836647
40	0x3da78d38	0.08181232
41	0x3cf1b99d	0.029507453
42	0xbcd9f99d	-0.026608283
43	0x3c482bdc	0.012217488
44	0x3a541eda	0.00080917554
45	0xbd3abeb1	-0.045592014
46	0x3cc27e5d	0.023741895
47	0xbcd717c8	-0.026256457
48	0xbb5ee04a	-0.0034008198
49	0x3c663b3e	0.01405221
50	0xbd4c3d77	-0.049863305
51	0xbcbee634	-0.023303129
52	0x3d214a6c	0.039377615
53	0x3d280745	0.041022558
54	0x3d5239bf	0.051324602
55	0x3d5f8dbe	0.054578535
56	0x3d935357	0.0719363
57	0xbcdb0382	-0.026735071
58	0x3d96acd7	0.07357185
59	0xbc6e958f	-0.014562025
60	0xbd041d81	-0.0322547
61	0xbd3e0079	-0.04638717
62	0x3ceb035c	0.028688125
63	0x3bc63634	0.006048942
64	0xbcfb8828	-0.030704573
65	0xb92dfaf8	-0.00016592059
66	0x3c2526c9	0.010080048
67	0x3d17da00	0.037073135
68	0x3c8604b1	0.016359659
69	0x3c09fff2	0.0084228385
70	0x3d99ae31	0.075039275
71	0xbc672ad0	-0.014109328
72	0x3d8debe9	0.06929762
73	0xbd1b95c5	-0.03798463
74	0xbbc26d63	-0.00593345
75	0xbd41effa	-0.047348
76	0x3d458d0a	0.04823021
77	0xbcd8f10d	-0.02648213
78	0xbc8d8fc7	-0.017280472
79	0xbcb6c3f3	-0.022310233
80	0xbd00ae72	-0.031416364
81	0xbd50ee09	-0.051008258
82	0x3d6df945	0.05809905
83	0x3d77aa1e	0.06046497
84	0xbc4ce9cd	-0.012506914
85	0xbc5161b5	-0.012779643
86	0xbc86cb80	-0.016454458
87	0xbc0aa165	-0.008461331
88	0xbcb20d7a	-0.021734942
89	0x3d2ba43a	0.041904666
90	0x3a7b0be3	0.00095766614
91	0xbd2b4322	-0.04181207
92	0x3c66fba2	0.01409808
93	0x3d2c27fb	0.042030316
94	0xbd2f8e47	-0.042860296
95	0xbcaf193a	-0.021374334
96	0x3d09597a	0.033532597
97	0xbd6a0326	-0.05713191
98	0x3d78d0fb	0.060746174
99	0xbd602659	-0.05472407
100	0x3d813612	0.06309141
101	0x3d30731b	0.043078523
102	0xbcd485b2	-0.025942657
103	0xbcb25a0b	-0.021771451
104	0x3d05a017	0.032623377
105	0xbd81ff9d	-0.063475825
106	0xbd393a86	-0.045221828
107	0xbd72ef1b	-0.05931006
108	0xbc739567	-0.014867163
109	0xbd5ef64e	-0.054434113
110	0x3d852819	0.06501789
111	0x3cdcb2e1	0.026940765
112	0x3d6e5fa8	0.058196694
113	0xbc6e547f	-0.014546513
114	0xbd62cc3c	-0.055370554
115	0x3c9a4625	0.018832276
116	0x3cec9f16	0.028884452
117	0x3c7b8b07	0.015352971
118	0x3c648ef0	0.013950095
119	0x3c0c8d40	0.0085785985
120	0xba4f3fed	-0.0007905949
121	0x3a091ddb	0.0005230584
122	0xbc174136	-0.009231856
123	0xbc918546	-0.017763745
124	0x3c2ace20	0.010425121
125	0x3c179950	0.009252861
126	0x3d807cc0	0.06273794
127	0x3d9159f3	0.070972346
128	0x3da379af	0.07982194
129	0x3d2baca6	0.041912697
130	0xbd93b307	-0.07211881
131	0xbd640e2f	-0.05567759
132	0x3d22abd8	0.039714664
133	0x3b54ea3a	0.0032488243
134	0xbd73b403	-0.059497844
135	0xbccaac3a	-0.024740327
136	0xbcaf1ab7	-0.021375043
137	0x3d30f323	0.043200623
138	0xbd54be29	-0.051939163
139	0x3d57026b	0.05249254
140	0x3d77a23c	0.060457453
141	0x3cc183ab	0.023622354
142	0x3d816f9c	0.06320116
143	0x3daa0685	0.08302025
144	0xbc148be7	-0.009066558
145	0x3d712c77	0.058880296
146	0xbd3f2bf0	-0.04667276
147	0x3d0983a9	0.033572827
148	0xbbc27756	-0.005934636
149	0x3ba22efe	0.0049494496
150	0xbd2e6166	-0.042573355
151	0xbcaf2852	-0.02138153
152	0x3c832cef	0.016012637
153	0xbb3c139e	-0.0028698216
154	0xbc909505	-0.017649183
155	0x3cf73b94	0.030179776
156	0xbd05f265	-0.03270187
157	0x3d3d48ed	0.046212126
158	0xbadb4dfc	-0.0016731615
159	0xbd8a364f	-0.0674864
160	0xbcae6089	-0.021286266
161	0xbc8e175d	-0.017345125
162	0x3da53631	0.08066977
163	0xbd519ba9	-0.05117384
164	0x3cbe75d6	0.023249548
165	0xbab79b83	-0.0014008138
166	0x3d01fcdd	0.03173529
167	0x3d980dda	0.07424517
168	0xbc64a84d	-0.013956142
169	0xbcf58f7c	-0.029975645
170	0xbd0c1f08	-0.03420928
171	0x3d0d2584	0.034459606
172	0xbcd24321	-0.025666775
173	0xbd329342	-0.043597467
174	0x3da64186	0.08117966
175	0xbc03dedb	-0.008048738
176	0x3c05810b	0.008148442
177	0xbca1a88e	-0.019733693
178	0xbcdafde0	-0.026732385
179	0xbc926b25	-0.017873356
180	0x3d806e2b	0.06271013
181	0xbcaa85e1	-0.020815792
182	0x3c9f8e71	0.019477101
183	0xbd73ab4d	-0.059489537
184	0xbd0572c7	-0.032580163
185	0xbd5e5e50	-0.054289162
186	0xbcd9d243	-0.026589518
187	0xbcc01304	-0.023446567
188	0x3c8bf855	0.017086187
189	0x3bf3d228	0.007440824
190	0x3aeb30ca	0.0017943617
191	0xbce06857	-0.027393503
192	0x3d8b203a	0.06793256
193	0x3bde951c	0.0067926776
194	0xbd2021ae	-0.03909462
195	0xbd165f1b	-0.036711793
196	0xbb598921	-0.0033193307
197	0x3d829d5a	0.06377669
198	0xbbafdaaf	-0.0053666453
199	0x3d7359d4	0.05941184

fc4.weight f4 [6, 200]
0	0x3d977d3c	0.073969334
1	0x3db89f05	0.090147056
2	0xbdc98d3e	-0.09841393
3	0xbcbc89d8	-0.023014948
4	0x3dd3f153	0.10348763
5	0x3d36c65b	0.04462276
6	0x3d5d2871	0.053993646
7	0x3d04db0b	0.03243546
8	0x3c4b595c	0.012411442
9	0xbd8ecc7d	-0.06972597
10	0xbd199694	-0.037497118
11	0x3af9f2c1	0.0019069539
12	0xbd81f06d	-0.06344686
13	0x3dd3044a	0.103035524
14	0xbc3119af	-0.010809346
15	0x3d63bc2a	0.05559937
16	0xbda03fe6	-0.07824688
17	0x3b917b38	0.0044397376
18	0x3d5f4bce	0.054515652
19	0xbda7a56e	-0.0818585
20	0x3d6babf4	0.057537034
21	0x3d4f8d61	0.05067194
22	0xbd1959b6	-0.03743907
23	0xbc69c99f	-0.014269262
24	0x3c9b3232	0.018944833
25	0xbdd09a4d	-0.101856805
26	0xbbc16e1e	-0.0059030196
27	0x3d33d9cb	0.043908875
28	0xbd3599d1	-0.044336144
29	0xbda707a4	-0.08155754
30	0x3d9c9857	0.07646244
31	0xbd31730f	-0.04332262
32	0x3dc43f25	0.09582356
33	0x3d7e46e2	0.062079318
34	0x3c21e683	0.009881618
35	0x3d2ae6e2	0.041724093
36	0x3dba51cb	0.09097632
37	0xbd34ad8a	-0.044110812
38	0xbde1ed14	-0.11031547
39	0x3dc255ca	0.09489019
40	0x3d491536	0.049092494
41	0xbd9f1012	-0.07766737
42	0xbd313a3a	-0.04326842
43	0xbc5e3998	-0.013563536
44	0xbdb86748	-0.09004074
45	0x3c794617	0.015214465
46	0xbd1bf4c9	-0.038075242
47	0x3dabbc65	0.08385543
48	0xbc9d52dd	-0.019204551
49	0x3dd22970	0.1026181
50	0x3c956207	0.01823522
51	0x3d335eec	0.043791696
52	0xbdce416d	-0.10071073
53	0x3d523f87	0.051330116
54	0xbddd9ba4	-0.10820702
55	0x3d82d21f	0.06387734
56	0xbc8453bd	-0.01615321
57	0x3cc30c4d	0.023809576
58	0xbdbf9566	-0.09354667
59	0x3dc59f4e	0.096495256
60	0xbcaf20e2	-0.021377984
61	0x3d9fca53	0.07802262
62	0xbdf1ceed	-0.11807046
63	0xbbba1c31	-0.00567963
64	0xbdbc148b	-0.09183606
65	0x3d6294b1	0.055317584
66	0x3d82a3d0	0.06378901
67	0x3d956f9f	0.07296681
68	0x3d3fc886	0.046822093
69	0xbd8da8e6	-0.069169804
70	0x3c2d8dd1	0.010592894
71	0xbc998826	-0.018741678
72	0xbd2665b0	-0.04062432
73	0xbddc53f8	-0.10758203
74	0x3da1c93b	0.0789971
75	0xbda35abc	-0.079762906
76	0xbd3c9954	-0.046044663
77	0xbcf79937	-0.030224426
78	0x3b7fd52c	0.0039036972
79	0xbd9f5bcf	-0.07781183
80	0x3c9bcf07	0.019019617
81	0xbd26bdb3	-0.040708255
82	0xbd344696	-0.04401263
83	0xbd239376	-0.03993555
84	0xbd24b1e2	-0.040208705
85	0xbd420fc9	-0.047378335
86	0xbbf233de	-0.007391437
87	0xbd298699	-0.041388128
88	0xbd043577	-0.03227755
89	0x3d0f5604	0.03499414
90	0xbdcc1b0a	-0.09966095
91	0xbd8164a3	-0.06318023
92	0x3c7be262	0.015373798
93	0xbd165941	-0.036706213
94	0x387285d8	5.7821948e-05
95	0xbcad5c93	-0.021162307
96	0x3d7db3dc	0.061939105
97	0x3c02499c	0.00795212
98	0x3caa1a3a	0.020764459
99	0x3c202f9f	0.009776979
100	0x3d378f7c	0.04481457
101	0xbcef282b	-0.029193958
102	0x3d7e8245	0.062135953
103	0x3d64c8a6	0.055855416
104	0x3d68f675	0.056875665
105	0xbdeee028	-0.11663848
106	0x3a1a3ce0	0.0005883705
107	0x3d1fc06c	0.039001867
108	0x3da5e888	0.081009924
109	0xbd7259a1	-0.059167508
110	0xbda09ddd	-0.0784261
111	0xbd8b1a1a	-0.06792088
112	0x3cd909ea	0.026493985
113	0x3da2da1a	0.07951756
114	0xbdb9867b	-0.09058853
115	0xbd2a28d1	-0.04154283
116	0xbdd47b9d	-0.1037514
117	0xbd4f96e9	-0.05068103
118	0x3dd173aa	0.10227139
119	0x3d4521c6	0.048127912
120	0x3cbaff7e	0.022826906
121	0x3dac994f	0.08427679
122	0xbb5cc4b6	-0.0033686585
123	0xbdc48505	-0.09595684
124	0x3ad5dbf2	0.0016316159
125	0xbd8250fc	-0.06363103
126	0xbd5646c7	-0.052313592
127	0x3d7853ac	0.06062667
128	0xbd873963	-0.066027425
129	0xbd8ed8c1	-0.06974936
130	0xbd229fab	-0.039703052
131	0xbdffc8a9	-0.12489445
132	0x3c3b5a63	0.011435124
133	0xbcf47490	-0.029840738
134	0xbb66c85c	-0.0035214638
135	0xbdcc81f6	-0.099857256
136	0x3d55b0cb	0.052170556
137	0x3db5e4f8	0.08881563
138	0x3cb139c6	0.021633994
139	0x3c375199	0.011188888
140	0xbd782ee7	-0.060591605
141	0x3caec4ea	0.02133413
142	0xbddf05dc	-0.108897895
143	0xbda4099e	-0.08009647
144	0x3dda6374	0.106635004
145	0xbcbc6a75	-0.022999981
146	0xbd36177a	-0.044455983
147	0x3d4d4a0d	0.05011945
148	0x3dbc0173	0.09179964
149	0xba1eb93e	-0.0006054825
150	0xbd285c63	-0.04110373
151	0x3d0d6fdf	0.034530517
152	0xbd708279	-0.05871818
153	0xbb17f65f	-0.002318762
154	0xbdba6b84	-0.09102538
155	0xbdb549a2	-0.08851935
156	0xbc78578b	-0.015157591
157	0x3dc04918	0.093889415
158	0xbdda00f9	-0.10644717
159	0xbda5ef21	-0.08102251
160	0x3cfa36a6	0.030543637
161	0xbdb6a048	-0.0891729
162	0x3cf6855b	0.030092886
163	0x3d5dbe0e	0.05413633
164	0x3d5068ff	0.050881382
165	0xbd95e7f2	-0.07319631
166	0x3cac5fd4	0.021041788
167	0xbd1b17f0	-0.037864625
168	0x3d8bb865	0.0682228
169	0x3db8ecff	0.090295784
170	0xbd96ccd2	-0.07363285
171	0xbd10abf8	-0.035320252
172	0xbdd8cd02	-0.10585977
173	0xbd30aca2	-0.043133385
174	0xbd5f63c5	-0.054538507
175	0xbd298a73	-0.0413918
176	0xbc21bd01	-0.009871722
177	0x3d3347eb	0.04376976
178	0xbcab3838	-0.02090083
179	0x3c0b38f9	0.00849747
180	0x3d50fa60	0.051020026
181	0x3d5a59d2	0.053308316
182	0x3da04262	0.078251615
183	0xbcc8dd47	-0.024519576
184	0x3de29ebf	0.11065435
185	0x3caaa664	0.020831294
186	0xbd966488	-0.073433936
187	0x3d51225c	0.05105816
188	0x3d807b24	0.06273487
189	0xbdcbf5b2	-0.09958972
190	0x3d4c74ee	0.0499162
191	0xbdd138e8	-0.10215932
192	0x3d60c473	0.05487485
193	0xbded6fbf	-0.115935795
194	0xbda37a45	-0.079823054
195	0xbd3f794f	-0.04674655
196	0xbbff7070	-0.007795386
197	0x3d9ba344	0.075995
198	0xbd9272db	-0.07150813
199	0xbdabfe7e	-0.0839815
200	0x3c9b1b49	0.018933909
201	0x3c3ace93	0.01140179
202	0xbcfd6424	-0.03093154
203	0xbdb58b6c	-0.08864483
204	0xbcea925f	-0.028634248
205	0xbd3888b8	-0.04505226
206	0xbd297801	-0.04137421
207	0x3cf21ccf	0.029554753
208	0xbd2b714a	-0.041856088
209	0xbdb834ef	-0.08994471
210	0x3a4fb943	0.00079240295
211	0xbaddeb36	-0.001693106
212	0x3c7dcfb7	0.015491418
213	0xbd0ee6e1	-0.034888152
214	0xbdb18b80	-0.08669186
215	0x3c06874b	0.008210967
216	0xbd04b783	-0.032401573
217	0xbd5c587b	-0.05379532
218	0xbdc5cf96	-0.096587345
219	0xbc40ee65	-0.011775588
220	0x39d9cdc9	0.00041542787
221	0x3daf106d	0.08548055
222	0xbd46c861	-0.04853094
223	0xbc85d01c	-0.016334586
224	0xbd76c9ed	-0.060251165
225	0xbbe9f9d6	-0.0071403785
226	0xbd73ef2c	-0.059554264
227	0xbd250387	-0.040286567
228	0x3d0020e9	0.031281386
229	0xbcd60064	-0.026123233
230	0xbbbe6fb8	-0.0058116578
231	0xbd80e654	-0.062939316
232	0x3cde27de	0.02711862
233	0xbdad7139	-0.08468861
234	0xbdc75dd0	-0.0973469
235	0x3d916618	0.07099551
236	0x3cdb8a5d	0.026799375
237	0x3ba2eb66	0.0049719093
238	0x3cd3e683	0.025866752
239	0x3c09edff	0.008418559
240	0xbd906450	-0.07050383
241	0xbd3f2b60	-0.046672225
242	0x3d18bd51	0.03728992
243	0xbb6a57f0	-0.0035757981
244	0x3dbd9ccc	0.09258422
245	0xbd841628	-0.064495385
246	0xbc0f2801	-0.008737565
247	0xbcd2c13f	-0.025726913
248	0x3da55541	0.080729015
249	0x3d6bf959	0.057610843
250	0x3d97dcaf	0.07415139
251	0xbde1820e	-0.11011134
252	0xbddbbc80	-0.10729313
253	0x3d410378	0.04712245
254	0xbd11e290	-0.035616457
255	0x3d84cf7b	0.06484886

fc4.bias f4 [6]
0	0xbc751cdb	-0.014960493
1	0x3cb76fab	0.022392115
2	0xbc8c01f8	-0.017090783
3	0xbd67abc2	-0.056560285
4	0x3bc44cc5	0.005990597
5	0x3c8bdbc5	0.017072568
