checkpoint.pt (torch, 416237 bytes, 8 tensors)

fc1.weight f4 [200, 108]
000000 1b d1 2d 3b 64 8f 23 bd 61 f4 fe 3d 23 c7 ce 3d
       0.0026522342 -0.03993167 0.12448955 0.10096576
000010 d1 cc 84 bc 4a cb 25 3d d5 20 ff 3d 31 89 a0 bd
       -0.016210945 0.040477075 0.12457434 -0.07838667
000020 0b 42 ab bd 4e 27 82 bd 66 6c 00 bd cf 21 00 3e
       -0.08362206 -0.06355153 -0.031353377 0.12512897
000030 2e 0f 1c 3d 56 f5 12 bd 21 00 58 bd 5f 85 63 3c
       0.038100414 -0.0358785 -0.052734498 0.013886779
000040 17 f7 fe 3d 27 ff 69 bb 79 6d 18 3d c3 26 73 bd
       0.124494724 -0.003570506 0.037213776 -0.059363138
000050 bb 36 26 bd 11 25 2c bd 04 59 3e 3d 43 08 17 3d
       -0.04057954 -0.042027537 0.04647161 0.036873113
000060 36 f1 18 3c 65 bd 97 bc 84 d6 84 3d 18 a3 0c 3c
       0.009334853 -0.018522928 0.06486228 0.008583806
000070 04 15 87 bd af f1 59 3d 2f d0 a4 3d 3d 82 88 bd
       -0.06595805 0.053209003 0.0804752 -0.06665466
000080 af 81 c7 bc 0b 94 8b 3d 66 2a 9c bd 8a b3 23 bc
       -0.02435383 0.06815346 -0.07625274 -0.009991536
000090 9a 4b fa bd ea 5f d8 3c 68 c5 09 bc 4b 4b 1c bd
       -0.12221451 0.026412923 -0.008408882 -0.038157742
0000a0 d9 cf aa bd a7 dc 71 b9 6c 2a 88 bd 79 0a 47 bd
       -0.08340425 -0.0002306575 -0.06648716 -0.048593972
0000b0 7d 59 b5 3d a1 98 23 3d 2e 02 a3 bd 1f 4d ac 3c
       0.08854959 0.03994048 -0.079594 0.021032868
0000c0 af 77 8b bd de d6 2a 3c 3b 62 96 bd 21 e2 19 bd
       -0.06809937 0.010427205 -0.07342955 -0.03756917
0000d0 dc e7 a6 3d 0b b4 0d 3d 52 ed 37 3d fc a0 94 3d
       0.081496924 0.03459553 0.04490406 0.07257268
0000e0 b0 f4 e1 3c 5a 0f 09 3d c0 0c 53 3d c9 39 9e 3d
       0.027582496 0.033461906 0.05152583 0.077258654
0000f0 d9 eb 02 3d d7 7e 90 3d f5 f4 ce 3d 2b 74 1c 3d
       0.031963203 0.07055443 0.101053156 0.038196724
000100 70 3e 39 bd b2 d4 10 bd e8 b9 9b bd 18 4a 34 3d
       -0.04522556 -0.035359092 -0.07603818 0.044015974
000110 71 14 0b 3d 08 36 55 bc 29 e0 ae 3b af 5b b4 3d
       0.03395504 -0.01301337 0.0053367806 0.0880655
000120 30 32 81 bc 00 47 be 3b f9 c3 ec 3c 5b f8 c8 3c
       -0.015771002 0.0058068037 0.02890204 0.024532488
000130 50 13 91 bd ef 5b 90 3c fc bb ac 3d 0d e7 b1 3d
       -0.07083762 0.017621962 0.08434293 0.086866476
000140 c2 e7 00 3d c6 a3 3c 3d 6a 63 99 bd a3 2f 84 bc
       0.03147102 0.046054624 -0.07489665 -0.016135996
000150 4a 6b 4d bd 63 7d a5 bd ff 0f 29 3d 3c af 6e 3d
       -0.050151147 -0.08080556 0.04127502 0.058272585
000160 80 1f f6 3c 1a 51 be bd b5 96 00 3d c6 ec 83 bd
       0.030044317 -0.09292813 0.031393725 -0.06441645
000170 9e 6e 9e bc 18 10 2e 3d 03 09 f2 bc ee 53 14 3d
       -0.019339856 0.042495817 -0.029545313 0.036212854
000180 44 75 d7 3d 90 f6 8d bd b9 b4 4c bd c9 57 96 bc
       0.105204135 -0.06931794 -0.049977038 -0.018352406
000190 12 61 90 bc a5 ed b5 bd a0 c4 75 3d 7f 28 2f 3d
       -0.017624412 -0.08883218 0.06000197 0.04276323
0001a0 6a e2 96 3d ed 32 40 3d 42 6f eb bd 1f 72 a4 3c
       0.07367404 0.046923567 -0.1149583 0.020073948
0001b0 ab 76 74 bd aa ae 76 bd 13 e2 11 3c 07 3b a5 bd
       -0.059683483 -0.060225166 0.008903998 -0.08067899
0001c0 4e a8 9b 3d e1 a1 a8 bd f7 e4 31 3d 76 7b 93 3d
       0.07600461 -0.08234001 0.04343125 0.07201283
0001d0 56 69 e9 bc d1 41 91 3d 66 36 a9 bd dc 28 c5 3c
       -0.02849261 0.070926316 -0.08262329 0.024067335
0001e0 df 01 8b bd a4 1f a7 bd 54 e9 19 3d d2 93 de bd
       -0.06787466 -0.08160332 0.037576035 -0.10868038
0001f0 b9 da 4b 3d 5c de 1e 3d 76 a5 82 3d 61 e4 a8 3c
       0.049769137 0.038786277 0.063792154 0.020616712
000200 83 ff c2 3d 77 5d ce 3d c1 38 34 3c 64 86 e5 3d
       0.09521391 0.10076421 0.010999859 0.112072736
000210 dc 62 95 3d b7 0f 80 bd 36 0d 03 3d ce b5 7c bd
       0.072942466 -0.06252997 0.03199502 -0.06169682
000220 b5 a3 13 3d 47 7f e8 bd d4 f6 4a 3c 36 24 13 3d
       0.036044795 -0.11352401 0.01238795 0.035923205
000230 9e 22 14 bd 2c b7 31 3d 13 04 12 3d d1 f8 95 3b
       -0.036165826 0.043387577 0.035648417 0.0045767804
000240 aa f0 cb bd 3f 67 36 bd a2 f3 71 3d 9d 32 0d bc
       -0.099580124 -0.044532057 0.059070237 -0.008618024
000250 b1 97 24 3d 85 b3 63 bd 7b b5 90 3d fb 2a 5e 3d
       0.040183727 -0.055591125 0.07065865 0.054240208
000260 87 fb cf bc ac 5c 94 bd 74 3e de 3c 91 ee e1 3c
       -0.025388492 -0.07244238 0.02712939 0.027579578
000270 0b b5 a5 3d 74 e1 43 3d 74 b7 6d bc b0 2e 38 bc
       0.08091172 0.04782243 -0.014509071 -0.0112416
000280 e2 4b 11 3b 2c 64 8a 3c c6 76 b9 bd 67 b2 bc 3b
       0.0022170474 0.016893469 -0.09055857 0.005758572
000290 9c 9f 65 bd 38 05 a0 bb 4e 82 b4 bd df 2b 07 bd
       -0.05606042 -0.0048834346 -0.08813916 -0.033000823
0002a0 96 f1 2b bd d3 a1 2e 3d 71 ad 38 bc e1 d3 aa 3c
       -0.04197844 0.042634796 -0.01127182 0.020852985
0002b0 34 50 3d bd 80 44 0d bd 16 ee a5 3d 40 0c 91 bd
       -0.046219066 -0.034489155 0.08102052 -0.070824146
0002c0 c8 fb b5 3d 19 4c 1c bd 97 de 8c 3d 65 4b a9 3d
       0.08885914 -0.03815851 0.06878393 0.082663335
0002d0 e8 21 17 3e e9 2e 0d bc 7d b1 c7 bd 04 24 53 bd
       0.14759028 -0.008617141 -0.0975065 -0.05154802
0002e0 e1 80 0a bd 53 84 c4 3c 66 35 49 bd df a7 63 bd
       -0.033814315 0.023988878 -0.04912319 -0.055580016
0002f0 64 37 3a bd 71 65 e1 3c 51 29 1b bd 2a 57 a9 bd
       -0.04546298 0.027514191 -0.0378812 -0.08268578
000300 99 89 92 bd b3 8b 5d 3c 36 cf bf bd 47 a6 52 bb
       -0.07155151 0.013522076 -0.09365694 -0.0032142566
000310 d0 ea 27 3d 77 ca ca 3d 44 25 ca bd 62 0c 82 bd
       0.04099542 0.09901898 -0.09870389 -0.06350018
000320 a6 0a ae bc f1 86 b1 3d fc 72 73 bd dd 97 90 3d
       -0.021245312 0.08668316 -0.05943583 0.070602156
000330 0f 58 39 3d 17 c3 9d 3d 22 a4 21 3d 38 70 43 3d
       0.045249995 0.07703226 0.03946317 0.047714442
000340 b6 cb b2 3d 27 96 37 bd 74 7b cd bd e5 a3 93 3d
       0.08730261 -0.04482093 -0.100333124 0.07208995
000350 ae 47 30 bd 1f 9c e1 bb c0 a6 06 3c 05 2b a6 3d
       -0.04303711 -0.006885066 0.008218467 0.08113674
000360 00 89 8f bd c9 d1 9a 3c af 1a f2 bc 08 05 ae 3c
       -0.070085526 0.018898861 -0.02955374 0.021242633
000370 23 74 66 bd 67 0e 4c bc b5 5d ab bd e2 94 86 3b
       -0.0562631 -0.012454606 -0.083674826 0.0041071037
000380 32 c5 0f bd 74 f3 2f 3d 85 eb 31 3b a1 e7 62 3d
       -0.03510017 0.042956784 0.0027148437 0.05539668
000390 b1 6f bd bd f5 31 b1 bd e8 b7 45 bb 1e fa c1 bc
       -0.09249819 -0.08652107 -0.003016943 -0.023678835
0003a0 0d fb 19 be 76 e5 7d bd 8e 7a 76 bd 36 99 d6 3c
       -0.15037175 -0.06198641 -0.06017547 0.026196104
0003b0 6a 6a cf bd 76 60 dd bb ab 75 a7 3d 94 e0 03 be
       -0.10127719 -0.006755884 0.0817674 -0.12878639
0003c0 2e fe ba bb 46 1d 08 bd ed 82 0b bc ac c6 87 bb
       -0.00570657 -0.033231042 -0.008515102 -0.0041435566
0003d0 8d 31 8e 3c b2 37 23 3d 4e 27 dd bc 9d c8 8f 3d
       0.017357612 0.039848037 -0.026996281 0.07020686
0003e0 8b f5 48 3d f1 d4 9a bd c5 fc ff bd 88 d6 74 3d
       0.049062293 -0.075601466 -0.12499384 0.059774905
0003f0 82 23 48 3d b8 0d 82 3d 13 b1 d1 bd 5d a6 20 bd
       0.048861988 0.06350273 -0.10238852 -0.039221156

fc1.bias f4 [200]
000000 32 10 f8 bc 83 f6 df 3d ae 41 13 bd 7f cd 11 3e
       -0.03028116 0.1093569 -0.03595131 0.14238547
000010 7d 63 ec 3d 22 a0 53 bd d5 59 b0 3c 67 2b d2 bc
       0.115424134 -0.051666386 0.02152721 -0.025655461
000020 b1 bf 71 3d 25 33 01 bd 83 19 ca 3c 0f 89 a0 ba
       0.0590207 -0.031542916 0.024670368 -0.0012247878
000030 cc bf ad 3c 4d ce 12 3c 15 4e d0 3b 01 00 a4 3d
       0.02120962 0.008960319 0.0063569644 0.08007813
000040 3d b1 a7 3c 61 cb b2 3c 8c 94 1e 3d 6e d7 0c 3d
       0.020470256 0.021825494 0.038715884 0.034385137
000050 c3 93 00 bd 1d 26 b8 3a ce 88 91 3b 4a 61 34 3c
       -0.031390917 0.0014049445 0.004441357 0.011009524
000060 93 97 eb 3c 64 8d 1b 3d 57 73 07 3d 34 9e da 3d
       0.0287588 0.037976637 0.03306898 0.10674706
000070 fb bb 4b 3c 72 5b d9 3d b0 cc cc 3c a4 3f 21 3d
       0.012434955 0.10613145 0.024999946 0.039367333
000080 4f 2c d6 3b ec ad 43 bd 2d 65 80 bd 48 3a aa ba
       0.0065360437 -0.047773287 -0.06269298 -0.001298734
000090 9d eb 3a bc e2 e9 da 3d ab e5 0d bd e7 c5 fd bb
       -0.011408714 0.10689141 -0.034642857 -0.007744539
0000a0 7f fd ea 3d 93 c3 4a bd 38 22 af 3d c5 f7 89 bd
       0.11474132 -0.04950292 0.085514486 -0.067367114
0000b0 e5 eb a2 3d 88 aa a1 3d a1 72 96 3d 1c 7c 6d 3d
       0.079551496 0.078938544 0.073460825 0.057979688
0000c0 9e 21 b4 bc b2 26 69 bc 59 6e 01 bd b4 93 7a bc
       -0.021988686 -0.014230417 -0.031599376 -0.015294004
0000d0 27 d1 5b 3d db 9a 10 bb ee 04 68 bc f1 16 46 3d
       0.05366626 -0.0022064957 -0.014161332 0.048361722
0000e0 9f 75 b4 3d a2 28 ef 3d 95 7d 02 3e 5a 86 f0 3c
       0.08811497 0.11677672 0.12743218 0.029360939
0000f0 89 58 a9 3d e7 22 9c 3d 6b 2e 71 3d 72 a9 97 bc
       0.0826884 0.076238446 0.05888216 -0.018513415
000100 93 76 08 3e c2 b9 a9 3d 9f b1 54 bd 2b 65 46 3d
       0.13326482 0.082873836 -0.051927205 0.048436325
000110 2a df 31 bd c5 54 af 3c 38 05 03 3d e9 56 6b bd
       -0.043425716 0.021402726 0.0319874 -0.05745593
000120 28 1f 13 3c c1 30 f4 3d 3e de 96 3b af 20 aa 3d
       0.008979596 0.119233616 0.00460413 0.08307015
000130 9f 58 f2 3d 59 d9 a7 3d ee e6 57 bd 13 1b 96 3d
       0.118333094 0.08195753 -0.052710466 0.07329383
000140 e6 67 af 3d e7 8d ae bc 0b c5 17 bd c2 22 01 bd
       0.08564739 -0.021307899 -0.03705315 -0.03152729
000150 7a 82 b6 bc 9a 92 d4 3c 76 4e 34 bd 05 5c fe 3d
       -0.022279013 0.025948811 -0.04402014 0.12419895
000160 59 4d 6c 3c 3c 67 07 3e e4 76 ea 3c 62 46 4e bd
       0.014422738 0.13222975 0.028621145 -0.05036009
000170 43 2a 57 bd fc 14 9a bd 66 26 33 3d cc 75 05 3c
       -0.05253054 -0.07523534 0.04373779 0.008145761
000180 27 97 4e 3b ac 8f 97 bd db 5c 52 bd 60 da b3 bc
       0.00315232 -0.0740045 -0.051358085 -0.021954715
000190 62 db 6f 3d 9d 80 82 bd 14 d7 e9 bc 52 da 5c 3d
       0.05855883 -0.06372187 -0.02854494 0.053919144
0001a0 4a 2c 52 bd 16 df 88 3d 08 00 f4 3d c0 25 ce bb
       -0.05131177 0.06683175 0.119140685 -0.0062911212
0001b0 f9 44 f7 3d 14 2a 86 bd 30 dc e7 3c d6 52 d1 3d
       0.12073702 -0.065509945 0.028303236 0.10220878
0001c0 7e e9 8b 3d e6 cc 4e bc 7e 85 8c 3d 50 a4 00 3d
       0.068316445 -0.012622094 0.06861399 0.0314067
0001d0 50 e5 88 3c ae 8e 85 3d 7b bb f9 3d b1 43 bf bb
       0.016710907 0.065213546 0.12193962 -0.005836927
0001e0 57 fb 04 3d fe 1d 74 bd fe 46 24 bb a2 9a 83 3c
       0.03246626 -0.059598915 -0.0025066729 0.016064946
0001f0 87 a6 71 3d 46 8b 91 3d 5c 7d 46 bd af 92 e4 3d
       0.058996703 0.071066424 -0.048459396 0.1116079
000200 6a 71 1b 3d 13 84 d5 bc 94 81 63 3c f0 b8 26 bc
       0.037949957 -0.026063954 0.013885874 -0.0101759285
000210 72 af 69 bd d4 7d 97 3c 28 55 aa 3d 2c 53 32 3d
       -0.057052083 0.018492617 0.083170235 0.04353635
000220 60 74 e3 3d cf 9a ef 3d 1b b8 2e bc f1 bb 33 3d
       0.11106181 0.11699449 -0.010664011 0.043880407
000230 6c 15 db 3d aa 56 e6 3c a0 9d ec 3c 28 cb aa 3d
       0.10697445 0.028117497 0.028883755 0.0833953
000240 eb c0 7d 3d e6 23 59 3d a1 6d 1f 3d 9b d7 0a bd
       0.06195156 0.05301275 0.03892291 -0.033897024
000250 80 11 ea 3d ee 51 81 3c ff a0 2b bd 65 0c b9 bc
       0.11429119 0.015786137 -0.041901585 -0.022588918
000260 40 07 b1 3d f8 29 e5 bb ef 67 c2 3d a6 cc 18 bd
       0.08643961 -0.0069935285 0.0949248 -0.037304543
000270 bc d0 23 3d eb 80 25 3d 55 69 6a 3d 50 34 eb 3d
       0.039993986 0.04040615 0.05722936 0.11484587
000280 71 10 56 3d 11 b7 d6 3d f8 da 9a 3d 23 97 5e 3d
       0.052261773 0.10484136 0.07561296 0.054343354
000290 73 6a 68 bd a9 1d 8a bd 56 18 e8 3d a2 29 8c 3d
       -0.056742143 -0.067439385 0.11332767 0.06843878
0002a0 42 85 af 3b 44 e5 53 bd 7f fd 2a 3c 1d e4 69 3d
       0.0053564617 -0.051732317 0.010436415 0.05710231
0002b0 91 dc 36 3b fb 15 8b 3d a8 ec 77 bd be 66 8d bd
       0.0027902464 0.06791302 -0.060528427 -0.06904362
0002c0 c0 d0 c2 3c 1c b9 a9 3c 9b 91 0b 3c 45 cd 0a 3d
       0.02378118 0.02071815 0.008518602 0.033887167
0002d0 2b 66 61 3c 68 e9 ce 3d 8c c7 a9 3d 65 91 45 bd
       0.013757269 0.101031125 0.08290014 -0.048234362
0002e0 46 ec 1f 3b f9 9a 6c bb e1 42 ca 3b 9c 5c a7 ba
       0.0024402305 -0.0036103113 0.0061725234 -0.0012768689
0002f0 f8 d3 8a bc a2 c2 00 ba cb 12 95 bc d9 10 a9 3c
       -0.016946778 -0.0004911815 -0.018197438 0.020637916
000300 fe 9f 69 3d cc a0 d6 3d cb 1a a2 3c e4 4a 49 bd
       0.057037346 0.10479888 0.019788167 -0.049143687
000310 97 f1 e3 3d 3b 7b 7a bd 83 70 c1 3d f6 c9 fc 3d
       0.11130064 -0.061152678 0.09445288 0.123432085

fc2.weight f4 [200, 200]
000000 8c a1 48 3d ba d5 30 3d 14 8e 3b bd 39 6f b0 3d
       0.048982188 0.043172576 -0.045789793 0.08614964
000010 fb 7e ab bc f5 da 73 3d c1 5f 6e bd f2 2f bd bd
       -0.020934572 0.059534986 -0.058196787 -0.092376605
000020 c5 16 5b bd 53 8d c8 3a 4e 5d 8b bd 08 fe 8f 3c
       -0.05348851 0.0015300907 -0.06804906 0.017577186
000030 3b 4e d1 bc 41 84 da bc e8 79 69 3c 06 93 55 3b
       -0.025549999 -0.026674392 0.014250256 0.0032588854
000040 79 e3 cd bb 98 f1 00 bd c8 30 86 bc de 4d c5 bb
       -0.0062832204 -0.0314804 -0.016380683 -0.0060212454
000050 d7 8c 9f 3d c4 7e 1d bb 3b b8 8a 3d b8 9f e8 3c
       0.07790535 -0.0024031857 0.067734204 0.028396472
000060 f9 cf 84 bc e0 64 fd bc 8b 41 22 3d a6 b8 81 3d
       -0.01621245 -0.03093189 0.039613288 0.06334047
000070 aa 6e 51 3c df 16 97 3d 6d a4 90 3c 2f b4 91 3d
       0.012782732 0.07377409 0.01765653 0.071144454
000080 0a 40 7d 3d d9 02 4d 3d 11 fa 8f ba 1a f5 c0 3c
       0.06182865 0.050051544 -0.001098456 0.023554374
000090 01 e1 a4 bc 0a 7b 6d 3c 07 ad 8f 3c e1 cd 73 3c
       -0.020126821 0.014494667 0.01753856 0.014880628
0000a0 c4 42 85 3d aa 93 de 3c 55 b8 88 3d b2 bd fc bc
       0.06506875 0.027170021 0.066757835 -0.030852173
0000b0 b7 1d 9f 3c b2 f7 48 3d 8f d7 a9 3d bb 98 8a bc
       0.019423349 0.049064346 0.08293068 -0.01691853
0000c0 93 39 5f 3d 29 d9 07 bd 53 34 57 bd 86 2c 38 bd
       0.054498266 -0.033166084 -0.052540135 -0.044964336
0000d0 20 dd 04 3d e6 2f b7 bb a3 6e 0f bd 82 d1 88 3d
       0.032437444 -0.0055904267 -0.03501762 0.066805854
0000e0 0d e1 80 bd b0 24 15 bd 6c 65 f7 3c 72 39 fe bc
       -0.06292925 -0.03641194 0.030199729 -0.031033251
0000f0 86 b7 d1 bc 25 a0 6e bd a4 39 b2 3c 32 3f 9f 3c
       -0.025600206 -0.058258194 0.021756 0.019439314
000100 b0 ed b4 3c 64 93 a8 3c 86 29 2a 3c 0b bc 58 bd
       0.022085994 0.020578094 0.0103858765 -0.052913707
000110 e9 89 cb 3c c2 c1 d4 bc 7c 4d d2 bc 2f dc 7f 3c
       0.024846034 -0.025971297 -0.025671713 0.015616461
000120 68 e4 28 bd c7 71 ad 3b 32 19 90 3c ab 11 a3 bd
       -0.04123345 0.0052931043 0.017590139 -0.07962354
000130 99 82 36 3d 37 f3 78 bc 02 fe 21 3d 1b 6a 94 3c
       0.04455814 -0.015194706 0.03954888 0.018117001
000140 98 58 0b 3c f7 27 c5 3c 40 9c 32 bc 01 db 42 bd
       0.008505009 0.024066908 -0.010901511 -0.04757214
000150 92 06 16 bd 4f 29 cb 3d 92 43 96 bc 6b 70 0d 3d
       -0.03662736 0.09919988 -0.018342767 0.03453104
000160 fa 27 b9 bb 09 38 30 bd 43 93 13 3d 9b b6 ab 3d
       -0.0056505175 -0.04302219 0.03602911 0.083844386
000170 4b 12 c5 3c fd 07 8a 3d 36 e1 87 3a b6 28 07 bd
       0.024056574 0.06739805 0.0010366801 -0.03299781
000180 9c 20 44 bd 37 2e 51 bd f1 5e a8 3d 78 b4 8f 3d
       -0.04788266 -0.051069465 0.08221234 0.070168436
000190 ef cf c5 3d bf 85 ca bb f5 af 48 3c e1 60 cf 3c
       0.09658801 -0.0061804946 0.012248983 0.02531475
0001a0 bb a5 a1 3d ea 09 a3 3d 96 b8 8c 3c d5 f7 88 bb
       0.07892939 0.07960875 0.017177861 -0.0041799345
0001b0 66 c7 0c 3d 62 c3 60 3d 20 ab 8f bc 11 b2 5c bd
       0.03436985 0.05487383 -0.017537653 -0.053880755
0001c0 de c5 79 bd fe 56 10 bd 2e 10 66 3c 6b 6c e4 3c
       -0.060979716 -0.035239212 0.0140419435 0.027883729
0001d0 bf 96 bb bc 32 9c 7d bd f0 3d 25 bd 39 15 1c 3d
       -0.02289903 -0.061916538 -0.04034227 0.038106177
0001e0 1d 27 90 bd f0 4f 50 bd f1 ce 04 3d 8f d8 64 3c
       -0.0703871 -0.050857484 0.032423917 0.013967647
0001f0 d4 f5 0f 3d 28 fe 28 bb cc ea ba 3d 5b b2 01 3d
       0.03514655 -0.0025786255 0.09126815 0.031664234
000200 8e a4 91 bd 69 df 89 bd 7d cf d8 bb 54 b9 f6 bc
       -0.071114644 -0.06732065 -0.0066165314 -0.030117668
000210 f5 2b 49 3d fd 09 1b bb 3d 30 b1 bc 48 31 8c 3d
       0.049114186 -0.0023657077 -0.021629447 0.06845337
000220 01 b4 44 bd 12 c2 f8 ba 24 51 77 3d 46 96 e1 3a
       -0.048023228 -0.0018978736 0.060380116 0.0017210923
000230 92 22 ee bc 1b e8 4c bd c2 20 92 3c aa c1 2a bd
       -0.029069219 -0.05002604 0.017837886 -0.0416886
000240 bb cb ae 3d af 8e 29 3d 6f 9e 3b bd bc e5 d0 bc
       0.08534952 0.04139584 -0.04580539 -0.02550017
000250 d4 59 41 bc 24 e0 c8 3d 20 e1 a7 bc 79 41 82 3d
       -0.011801202 0.098083764 -0.02049309 0.06360144
000260 b0 da a7 bd f4 54 da 3d 4e b7 9a 3d 22 33 0a bd
       -0.08196008 0.10660735 0.07554494 -0.03374017
000270 6a bd c8 bc dd 76 bf 3c 09 c1 1d bd 9a 6d 8f 3c
       -0.024504382 0.023372108 -0.03851417 0.017508317
000280 6b 95 a1 3c 4d 4a a8 3d 41 29 34 bd 9d d7 dd 3c
       0.019724568 0.08217297 -0.043984655 0.027080351
000290 f6 02 3c bd 1e 71 6c 3d 06 38 8c 3d 83 1e 10 3d
       -0.04590126 0.057725064 0.06846623 0.03518535
0002a0 6a af 83 bb 12 72 a0 bc 95 0b a1 3d aa cd ea 3c
       -0.0040187137 -0.019585643 0.07863537 0.028662521
0002b0 a8 b7 ed bc 3c 92 8e bd 29 c9 62 3c 0d 3f 9c ba
       -0.029018238 -0.06961486 0.013841906 -0.0011920646
0002c0 4e 2c 2f 3d 8b 7f 05 3d b2 21 ab 3d 48 45 86 3d
       0.04276686 0.032592338 0.08356036 0.06556183
0002d0 59 eb 9a bc e2 f6 2f bd c3 0a a6 3c f7 5d dd 3c
       -0.01891105 -0.042960055 0.020268803 0.027022345
0002e0 84 3d 15 3d 23 11 de bb 5f 5e 21 3d dc 87 a9 bd
       0.03643562 -0.006776945 0.03939664 -0.08277866
0002f0 7d d9 84 3d 25 da fd 3c 63 47 09 bd cb 29 cb 3c
       0.06486795 0.030987808 -0.033515345 0.024800202
000300 ce bb 00 3c 88 f1 11 bc c5 25 4f bd 59 72 c7 bc
       0.007857276 -0.008907683 -0.05057313 -0.024346517
000310 e0 89 2a 3d 14 5a 18 3d b7 17 3c 3c ec b0 95 3c
       0.041635394 0.03719528 0.011480263 0.01827284
000320 5b 87 27 3d 10 34 44 bd a6 3a 05 bd 8a ac f0 bc
       0.04090057 -0.047901213 -0.032526635 -0.029379148
000330 be 5f 83 bc 1e 67 a1 3c f3 72 fe 3b 12 ea bc 3c
       -0.016036864 0.01970249 0.007765168 0.023060832
000340 7c d7 86 bd ba 14 b4 3d 3c da 2a 3c fc 5e 0c 3d
       -0.06584069 0.08793016 0.010428008 0.03427027
000350 24 46 87 3d f6 c3 a2 bc 7f 06 7d 3d 4d e4 87 bd
       0.06605175 -0.019868832 0.061773773 -0.06635342
000360 0d ed 80 3d a8 af e4 bb 62 98 af 3c 9c b7 7d 3d
       0.06295214 -0.0069789477 0.021434966 0.06194268
000370 11 2c 46 3d d2 35 dd bc 7e cc ec bc 85 66 aa 3d
       0.04838187 -0.027003203 -0.028906103 0.08320335
000380 b5 35 d3 3c 68 08 99 bd 2e 4d 0a 3d 81 a1 84 3d
       0.025782445 -0.074723065 0.03376501 0.06476117
000390 71 02 96 3d 6a ec 8e 3c f5 e0 65 3c 51 6c 3b 3c
       0.073246844 0.017446715 0.014030685 0.011439399
0003a0 00 94 06 bd 6c 0d 4f 3d 20 18 f5 3b d3 a7 94 3d
       -0.032855988 0.05054991 0.0074796826 0.072585724
0003b0 92 f1 56 3d 12 a3 d1 3c d1 62 8a 3d e6 92 90 bc
       0.052476473 0.025590453 0.06757129 -0.017648172
0003c0 32 48 d9 3d cb dc cf 3c b3 d3 c5 bc 94 d8 bb 3d
       0.10609473 0.025373837 -0.024148798 0.091721684
0003d0 08 ed 8b 3b 9d b7 92 3b 25 21 2f bd e4 29 b2 3c
       0.0042701997 0.004477455 -0.04275622 0.02174849
0003e0 b2 0d 8d bd f8 7a 5d bc 97 8a 8c 3d 54 28 b4 3c
       -0.06887378 -0.013518088 0.068623714 0.021991886
0003f0 7a a6 10 3c 34 33 a7 bc 1c 79 29 bd ac f0 43 3d
       0.008828754 -0.020410158 -0.041375265 0.047836944

fc2.bias f4 [200]
000000 20 d7 b2 3d 9e b9 1e 3d 3e 2d 2f bd be c6 d0 3c
       0.08732438 0.038751237 -0.042767756 0.025485393
000010 a4 ff ce bc c3 c8 36 bd 99 d6 e5 3c da 8b 5f 3c
       -0.025268383 -0.044625055 0.02805643 0.013644183
000020 f9 ed 91 3c 0d 9c 4b 3d ca da 21 bd b4 b0 72 3d
       0.01781367 0.04970937 -0.039515294 0.05925055
000030 1a 6a 8e bc d4 92 9e 3d ac 01 e5 3c 8c 4d 24 bc
       -0.017384578 0.07742849 0.027954899 -0.010028254
000040 9d e9 7d 3d 8a 2e ee bc 75 5c 55 3d ca 1e 45 3c
       0.06199037 -0.029074926 0.052090127 0.0120312665
000050 e4 5d 88 bd 28 a4 b9 3c 87 7d 63 bd 90 a9 0e 3d
       -0.06658533 0.022661284 -0.055539634 0.034829676
000060 b0 ef 89 3d 79 a8 8f 3d 0e ff 28 bc c4 06 8a bc
       0.0673517 0.070145555 -0.010314716 -0.01684893
000070 82 68 80 3c 76 74 7f 3d e8 eb 8a bc 0a 46 09 bc
       0.015674833 0.062366925 -0.016958192 -0.008378515
000080 ac 45 95 3d 12 a3 45 3c 4d e4 80 bc f2 05 7f 3c
       0.072886795 0.012062805 -0.015733862 0.015565382
000090 72 bd cc bc 84 48 99 3d 9d 89 eb 3c 53 df 7a 3d
       -0.024992678 0.074845344 0.028752143 0.061248135
0000a0 10 65 a3 3c 78 0c b6 3d da 10 6f 3d dd 8a 0b bd
       0.019945651 0.08889097 0.05836568 -0.034067977
0000b0 da 66 4c 3d d3 ec ff bc d0 81 c0 bc 02 a7 dc 3c
       0.049902774 -0.031240856 -0.0234994 0.026935104
0000c0 df c7 85 3d 7a fe bc 3d bd 6e 91 3d 0a c1 bc bc
       0.06532263 0.09228225 0.071012 -0.023041267
0000d0 ea 44 62 3c 26 04 95 3d 02 67 29 bd ba e5 2a 3d
       0.013810376 0.07276182 -0.041358 0.04172299
0000e0 7d 48 3b bc a2 cf 70 bc 8e 3b bf 3d 79 41 5d 3d
       -0.011430857 -0.014697941 0.09337531 0.054017518
0000f0 fc e0 88 bc ca 4e da bc 85 53 63 3d 61 85 c2 3d
       -0.016708843 -0.026648898 0.055499572 0.09498096
000100 17 1f 99 3d b2 47 38 3c 88 c3 a9 bb 90 bc 92 3d
       0.07476633 0.011247562 -0.00518078 0.07164872
000110 98 ee 32 3c 5c 38 c9 bc e7 11 da bc 3c f2 eb 3c
       0.010921143 -0.024563007 -0.026619865 0.02880203
000120 91 43 8f bb c9 8a b1 bc 4e 27 15 bd 33 b7 2b bd
       -0.004372068 -0.021672623 -0.036414437 -0.04192276
000130 7b d6 a7 3b 22 f8 35 bc 2c 4b 7a ba c3 50 13 bc
       0.0051220036 -0.011106523 -0.00095479446 -0.008991423
000140 20 f3 43 3c e2 ef 45 bd 23 31 61 3d 3b 63 8c 3d
       0.011959821 -0.048324473 0.0549785 0.06854864
000150 86 2b 0a 3c 60 fb 6c 3d b1 82 66 3d 45 c2 a3 3d
       0.008433228 0.057856917 0.05627698 0.07996038
000160 fd 97 11 bd cb 07 da 3c aa 91 d3 3c 7e ab ad 3c
       -0.035545338 0.026615044 0.025826294 0.021199938
000170 03 7f 3e 3b 2a 1a 6e 3c 6c 83 e8 bc cd 7a de bc
       0.0029067404 0.014532605 -0.02838298 -0.027158165
000180 34 aa 53 3d 4e ce 21 3d 74 0d 06 bd 2c 49 01 3d
       0.05167599 0.039503388 -0.032727674 0.031563923
000190 76 fb 08 bc ea 98 12 3d aa 35 7a bc 73 9d 82 3d
       -0.008360734 0.03579036 -0.015271584 0.06377687
0001a0 d1 d6 2a bd 63 53 86 3d 60 9f 01 bd 8f 34 1d 3d
       -0.04170877 0.065588735 -0.031646132 0.038380202
0001b0 68 2d 25 3d 9a 88 93 3d 20 8e 83 bc 4b 5c 6f 3d
       0.040326506 0.07203789 -0.016058981 0.058437627
0001c0 57 65 45 bd 42 03 88 3d 30 fe b0 bb c3 b0 11 3b
       -0.04819235 0.066412464 -0.0054013953 0.0022230602
0001d0 37 23 b5 3d 40 1c 5e 3d ad a2 9a 3d 89 7b 1f bc
       0.08844607 0.05422616 0.07550559 -0.009734043
0001e0 4a e6 40 bd fe 58 4b bc 3f 12 42 3d 97 c7 45 3d
       -0.04709462 -0.012411354 0.047380682 0.048286047
0001f0 18 ef b5 3c c0 84 7e 3d f3 47 0b 3d 77 8d 11 bd
       0.022208735 0.06213832 0.034004163 -0.035535302
000200 20 c4 0c 3d 58 79 01 3d 45 1f 43 bd 03 7a 41 3c
       0.034366727 0.031609863 -0.047637243 0.011808875
000210 0b 28 01 bd e3 66 8b 3d 72 9f 0f bd e3 9a 0e 3d
       -0.03153233 0.068067335 -0.03506417 0.03481568
000220 11 c5 59 bd ef b5 a9 bb f4 e2 47 bc 64 13 f3 bc
       -0.053166453 -0.005179159 -0.012200106 -0.029672332
000230 46 4f 1f bc a2 9a bd 3d b9 96 3e 3d 28 9c 19 39
       -0.00972349 0.092580095 0.04653046 0.0001464939
000240 52 51 7a 3d 0a 78 77 3c 3b af 08 bd 01 05 f0 bc
       0.06111271 0.015104303 -0.033370238 -0.029299261
000250 07 12 d4 3c a5 b3 58 3c ad 6e a8 3d 77 0e 33 3c
       0.025887502 0.013226424 0.08224235 0.010928742
000260 30 17 df bc 3c e1 9f bc ce 2f d6 bc 71 85 0c 3d
       -0.027232736 -0.01951658 -0.026145842 0.034306947
000270 bd 25 a6 3d 3a 22 2a bd aa 07 4e 3d e4 a0 a8 3d
       0.08112667 -0.041536547 0.050300278 0.082338125
000280 47 f1 ad bc 37 8c 21 3b 49 a2 e1 3c 27 19 9d 3d
       -0.021233214 0.0024650225 0.027543204 0.07670813
000290 52 e8 3c 3d f6 2d 15 bd bd db 53 3d 35 b4 f4 3c
       0.046119995 -0.036420785 0.05172323 0.029871086
0002a0 bd 9b 00 3d 26 5c 2b 3d a1 54 38 3d cd 02 5a 3d
       0.031398524 0.041835926 0.045002583 0.053225327
0002b0 33 72 05 3d 07 2f c8 ba 0b 7f a4 bb 79 b0 50 bd
       0.032579612 -0.0015272804 -0.0050200275 -0.050949547
0002c0 f2 a5 5d 3d df 23 0e bd 9a 4b 31 bb 16 8a a9 3b
       0.054113336 -0.034702178 -0.0027053119 0.005173932
0002d0 64 92 83 3a a7 00 12 bc 4e 76 e5 3c fe 29 0f 3d
       0.0010038135 -0.008911288 0.028010514 0.034952156
0002e0 01 3c 05 3d 5c b6 4b bd d1 b8 58 3d 0e 9f be 3c
       0.032527927 -0.04973446 0.05291063 0.023269203
0002f0 70 02 a3 3d ae ad 6d bb ff 10 78 3c 7b 71 9d 3d
       0.07959449 -0.0036266851 0.015140771 0.0768766
000300 25 88 15 bd 0b 61 1d bc 4e 0a 5f 3d 95 55 81 3c
       -0.03650679 -0.009605656 0.054453187 0.015787879
000310 26 66 53 3d 73 1d e2 bc 9c ce 9a 3d f1 91 a0 3c
       0.05161109 -0.027601933 0.07558939 0.01960084

fc3.weight f4 [200, 200]
000000 f0 ee 27 3d 35 70 b8 3c 6b 9a 53 3d b4 6a e8 bc
       0.040999353 0.022514442 0.051660936 -0.028371193
000010 44 38 ad 3d 98 9e 92 3d b4 ce 9b 3c 93 fe 9a 3c
       0.084579974 0.071591556 0.019019462 0.018920219
000020 34 d6 7c bd 27 b5 53 3b ef c2 8c 3d 56 6c 7a 3d
       -0.061727718 0.003230402 0.06873118 0.061138473
000030 ff 3d 21 bd c1 35 d5 3b 95 e2 54 bd 68 de 47 bd
       -0.039365765 0.006506652 -0.051973898 -0.048796088
000040 b2 7c 72 bd 35 ef 8e 3d df d7 e3 3c 32 7a 86 ba
       -0.05920095 0.06979219 0.027812896 -0.0010259806
000050 72 23 a4 bc da 22 03 bd 0a d7 91 3d a8 03 a4 3c
       -0.020036433 -0.03201566 0.071210936 0.020021275
000060 24 6c 21 3d 62 34 a1 3d ff f5 48 3c df d4 c7 3c
       0.03940977 0.07871319 0.012265681 0.024393497
000070 05 5e 22 bd 71 f7 6f 3c ff 3c 36 bc 0d 53 87 bd
       -0.039640445 0.014646397 -0.011122941 -0.066076376
000080 c5 34 39 bd 3c 56 33 bc 43 6c a6 bb 4a 3a 54 3c
       -0.04521634 -0.010945853 -0.005078824 0.01295335
000090 4c a5 14 3d a5 f7 71 3c 2c 52 8a 3b 67 11 8f bc
       0.036290452 0.014768516 0.0042212214 -0.017464353
0000a0 12 0e 5e bd eb a0 3b bd 7d d6 75 3d dc 44 0e bd
       -0.054212637 -0.04580776 0.060019005 -0.03473364
0000b0 b1 26 31 3d cc 6d 94 3c e0 05 a3 bb 15 0a 30 3c
       0.04324979 0.018118761 -0.0049750656 0.010744591
0000c0 56 17 c8 3c fe 3a 3b bd 5c 72 8c bc 8d e7 11 3d
       0.02442519 -0.045710556 -0.017144375 0.035621215
0000d0 29 ce 53 3d 6b de 1d bd af fd 1c bd 10 40 90 3d
       0.05171028 -0.038542192 -0.03832787 0.07043469
0000e0 6e f9 a0 3d 47 83 3a 3d f0 7f 92 bc dd 13 a5 3c
       0.07860075 0.045535352 -0.017883271 0.020151073
0000f0 82 ed 03 bc 78 8f 5d 3d bb 45 95 bd 19 26 0d 3d
       -0.008052232 0.0540919 -0.07288691 0.03446016
000100 98 b0 47 bd db b2 80 3d b3 81 c6 3d 99 4f 14 3d
       -0.048752397 0.06284114 0.09692707 0.036208723
000110 76 57 e3 3c 39 0b a3 bd 9e 2b b7 3d 6a 72 36 3d
       0.027751666 -0.07961125 0.08943866 0.044542708
000120 ec 51 9e 3d 27 51 24 bd 91 41 e5 bc a5 82 fd ba
       0.07730469 -0.040116455 -0.027985366 -0.0019341303
000130 02 b4 67 3d 5a 3b b0 3d 42 28 5b bc 9e a2 03 3d
       0.056568153 0.086050704 -0.013376297 0.032137506
000140 ed bc 65 bd b1 26 49 3c b8 92 91 3d f3 ed 90 3c
       -0.056088377 0.012277291 0.071080625 0.017691588
000150 24 51 6e 3d 13 ab bb 3d b2 15 89 bc a9 ed 50 3d
       0.05818285 0.09163489 -0.016733978 0.0510079
000160 3b c4 3e 3d 8a 8d 01 bd 5b 23 f5 bc b4 04 5f bd
       0.04657386 -0.031629123 -0.029924085 -0.054447845
000170 bf 17 57 3d 2a 3a a1 3d a7 64 76 bd 05 42 58 bd
       0.05251288 0.07872422 -0.060154583 -0.052797336
000180 d8 27 5d 3c 81 a0 91 3d e5 17 88 3d da 50 2d 3c
       0.013498269 0.07110692 0.066451825 0.010578359
000190 15 c6 d5 3c c5 8b 87 3d c8 67 14 3d 88 36 26 bb
       0.02609543 0.06618456 0.036231786 -0.0025362093
0001a0 f2 68 91 bd 9a 63 4c bd 78 06 ab 3d 48 b0 4c bc
       -0.07100095 -0.049899675 0.08350843 -0.012493201
0001b0 1b 11 12 bc bf ec 2f bd a9 97 93 3d 70 c6 c0 bd
       -0.008915211 -0.042950388 0.07206661 -0.09412849
0001c0 2e a6 35 3d 53 9a 88 bb e1 43 33 3d dd b2 b7 bc
       0.044347934 -0.0041687875 0.043765906 -0.022424156
0001d0 a4 57 e0 3c 7c 02 75 bc b8 4f c9 3d cc cb 86 3d
       0.02738554 -0.014954206 0.09829658 0.0658184
0001e0 c7 f9 a8 3b a3 f1 df 3d e7 72 8b bd 0b a5 68 bd
       0.005156729 0.109347604 -0.06809025 -0.056798022
0001f0 ce 53 b8 3d c5 cb f5 3d a7 50 6c bc 39 4f 00 bd
       0.090003595 0.120017566 -0.014423526 -0.031325553
000200 36 f0 d4 bc 3a be d3 ba 97 9f ed bc 9b 50 5c bc
       -0.025993448 -0.0016154714 -0.029006762 -0.013446952
000210 7f 53 03 bb 3e 57 97 3d e5 80 86 bd cd 4a 97 bc
       -0.0020038781 0.07389687 -0.065675534 -0.018468285
000220 e4 16 84 3d 30 ab fc 3c c4 c3 fc bc 21 ea e7 bc
       0.064496785 0.030843347 -0.030855067 -0.028309884
000230 9c 1c 9d bc b2 97 9a 3b b1 71 88 3d c5 e9 26 3d
       -0.019178681 0.0047177905 0.0666231 0.040750284
000240 aa 5f 70 3c df e3 bc bc 53 7c 22 3c b4 46 8e 3c
       0.014671246 -0.023057876 0.0099173365 0.017367698
000250 41 a1 97 3c ad 50 7d 3c 45 95 cb 3d 48 7a ff bc
       0.018509509 0.015461129 0.0994058 -0.031186238
000260 e3 fb b6 bc 07 ec 39 3d ec 70 07 3a 79 c1 34 3c
       -0.022336906 0.04539111 0.0005166668 0.011032456
000270 24 ce a0 bc 48 13 88 bd c2 63 44 bd ee 1b 12 3d
       -0.019629546 -0.066443026 -0.0479467 0.035671167
000280 f1 e5 a2 3d 42 4a ec 3c d8 65 bf bb b4 88 65 3c
       0.07954014 0.028844003 -0.005840998 0.014009643
000290 f3 24 44 bd 80 8c 91 3c dd 9f 04 bd 39 b4 94 3d
       -0.0478868 0.017767191 -0.03237902 0.07260937
0002a0 19 9d 02 bc f8 17 dc bc 9b 4f a9 3d 03 dc 7c 3d
       -0.007972025 -0.026866898 0.08267137 0.061733257
0002b0 ce 32 ab bb 11 7b 66 bc 28 90 a3 3c ef 12 9b bd
       -0.0052245623 -0.014067427 0.0199662 -0.07571971
0002c0 f8 07 ab 3d 3b a3 1c 3d 86 e3 89 bd f7 39 01 3c
       0.08351129 0.038241606 -0.0673285 0.007887355
0002d0 27 22 98 3d 1c db 92 3d 45 9a 65 bd 20 42 29 bd
       0.07428389 0.07170698 -0.056055326 -0.041322827
0002e0 8f 41 71 bc 0b 74 c8 3d 83 23 a9 3d b3 60 43 bb
       -0.014725103 0.097877584 0.082587264 -0.0029812276
0002f0 fe 66 39 bd 62 64 24 3d 24 30 c8 3d 3b 34 b2 bc
       -0.045264237 0.040134795 0.09774807 -0.021753421
000300 7c 1c 72 3d c6 e5 0d 3d 45 22 9b 3d 78 73 60 bb
       0.059109196 0.034642957 0.07574896 -0.0034248512
000310 7b d8 a1 3c 57 56 87 3d 9b 62 24 bb 09 b9 32 bd
       0.019756546 0.06608265 -0.0025083188 -0.043633495
000320 9d 5b 24 3b 7f c3 22 bc 94 f8 2f bd 04 6f dc bc
       0.002507902 -0.009934305 -0.042961672 -0.026908405
000330 cf 87 55 3d 18 a6 3f 3d f0 df fd 3c 31 77 95 bd
       0.05213147 0.04678926 0.03099057 -0.072981246
000340 26 4b 11 bd f1 22 82 3d fd 19 5e bc ad 3d 20 3c
       -0.035472058 0.06354321 -0.013556001 0.00978033
000350 ec 0f e9 bb 3e 9e 0a 3d 96 fd 94 3d 80 f3 cc bc
       -0.0071124937 0.033842318 0.0727493 -0.025018454
000360 19 75 60 bb ff 7c 42 3d 98 ad 65 3d 66 09 a1 bd
       -0.0034249483 0.047482487 0.056073755 -0.07863121
000370 ae aa ce 3c e8 87 78 bd 4b 60 6b 3d 38 69 cb 3c
       0.02522787 -0.060676485 0.05746488 0.024830446
000380 88 b7 60 3d dc bf bf 3d 52 63 f4 3c 9c 1b d0 3d
       0.05486253 0.09362766 0.029832516 0.10161516
000390 fd 45 4b bb 5d d4 5e 3d 34 b3 29 3d 50 21 d6 3c
       -0.0031017058 0.054401744 0.041430667 0.026138932
0003a0 45 cd 74 3d 64 6c 8c 3b 2d cb 11 bb a3 0a 88 bd
       0.059766073 0.004285382 -0.0022246346 -0.06642654
0003b0 64 9b b5 bc c7 1a 9a bd 97 66 1d bd e1 ba 0f bc
       -0.022168823 -0.075246386 -0.038427915 -0.008772583
0003c0 28 f2 8f bd 59 40 98 bb de 68 54 ba 78 07 29 bd
       -0.070286095 -0.0046463427 -0.00081027846 -0.04126689
0003d0 01 15 c5 3c 2d 7d 0c 3d bc 58 14 3d db e2 c5 bd
       0.024057867 0.034299064 0.036217436 -0.0966241
0003e0 28 0b 4c bc d3 3c 0b bd b7 65 61 3c e8 9e 63 3d
       -0.012453832 -0.033993553 0.013757161 0.055571467
0003f0 dd 2e 82 3c b1 51 b4 3c e4 1f b5 bc 90 60 9f 3d
       0.015891487 0.02201161 -0.022109933 0.0778209

fc3.bias f4 [200]
000000 d5 39 61 bd b1 cb 10 ba 4c 5d d1 bc fa 24 4d 3d
       -0.054986794 -0.00055235164 -0.025557183 0.05008409
000010 62 74 5d bd 02 df 72 3d 50 bd 9c 3d d9 b7 5a 3c
       -0.05406607 0.059294708 0.07653296 0.013349497
000020 6b 6a 8e 3d 05 c1 1e 3c ca 36 77 3d 54 17 81 3d
       0.06953891 0.009689574 0.060354985 0.063032776
000030 bb f8 05 3d 2c a1 ca 3c 05 7f 38 3c f4 b3 25 3c
       0.03270791 0.024735056 0.011260753 0.010113705
000040 09 8f b3 3c 38 b4 24 bc 10 d8 4f 3d 12 c8 42 bc
       0.02191879 -0.010052733 0.050743163 -0.011888521
000050 d2 bb 19 3d a2 b6 d0 bc 11 f1 76 3d 3a 24 2e bd
       0.037532635 -0.025477711 0.060288493 -0.042515017
000060 aa 20 c0 bc 06 39 14 bd 74 6b 33 bb aa ec b9 bc
       -0.023453075 -0.036187194 -0.002737728 -0.022695858
000070 22 a5 3a 3d 72 47 1f 3d 49 80 9e 3d de 9f 2b 3d
       0.04556764 0.038886495 0.07739312 0.041900508
000080 c3 fe 3f 3d 23 cb 2e bc ab 79 06 bd d6 3a 8e 3d
       0.04687382 -0.010668549 -0.032830875 0.06944816
000090 81 d1 a6 3d 7c 22 1a 3d f1 10 1c 3d 38 ca 1c bd
       0.081454284 0.037630543 0.038102094 -0.03827879
0000a0 21 1f 69 3d 6b 9b 9f 3c a2 73 56 bc 8d ec fe 3c
       0.056914452 0.019483289 -0.013089092 0.031118656
0000b0 b7 c0 90 3c 6f 4c a0 bc 0d 82 c9 3c e0 dd 3a 3c
       0.017670019 -0.019567696 0.024598146 0.011405438
0000c0 d5 4f 93 3d c9 62 85 bc 31 f0 99 3d 5e 14 45 bd
       0.07192961 -0.016282456 0.07516516 -0.048115127
0000d0 c1 9a 72 3d 6e 33 0e 3c df 83 80 bd 94 82 97 3c
       0.059229616 0.008679254 -0.062751524 0.018494882
0000e0 1c ee 42 bd 44 cd 9f bc 82 ae 8b 3c a4 45 8a 3d
       -0.04759036 -0.019507058 0.017050985 0.06751564
0000f0 4c 20 be bc 39 d8 5b bd c3 68 a7 3a 08 4c 06 bd
       -0.02320876 -0.053673003 0.001277231 -0.032787353
000100 d1 c4 09 bd 51 74 ec 3b de 0c 60 ba 37 3f 99 bc
       -0.033634964 0.0072160144 -0.0008546839 -0.018706901
000110 b5 ef 85 3d 0e c5 1d 3d 70 c0 53 bd 70 4d 47 bc
       0.06539861 0.038518004 -0.051697195 -0.012164459
000120 9a 11 68 3b 1c b4 81 bc dc fd 59 bd 71 de af bc
       0.0035410882 -0.015832953 -0.053220615 -0.021468373
000130 1a 39 4f 3a 1f dc 9d 3d 48 f3 33 bd 90 17 02 3d
       0.0007904932 0.077080004 -0.043933183 0.031760752
000140 b7 14 3b 3d 66 92 6a 3d a7 95 0b 3c 7f 32 0b 3d
       0.045674052 0.057268523 0.008519567 0.033983704
000150 a8 da 7f 3d 93 96 89 3c 49 45 96 3d 20 f4 d2 3b
       0.062464386 0.016795432 0.07337434 0.0064377934
000160 d6 75 16 3d 82 b0 13 3c 66 3f 92 bb bd e8 39 bd
       0.03673347 0.009014251 -0.004463124 -0.045387972
000170 4c 3d 89 3d 62 60 28 3d fc 6e a0 3d 82 a2 74 3d
       0.067011446 0.041107543 0.078336686 0.059725292
000180 12 c7 aa 3b 47 4c d3 bc 49 41 17 3d 52 82 4d 3c
       0.0052117193 -0.025793208 0.036927495 0.012543278
000190 81 01 7d bd 6a 99 88 3c 81 b8 43 3d 1f 1c 0a 3d
       -0.061769012 0.016674716 0.04778338 0.033718225
0001a0 ef e6 24 3d 65 81 dc 3c 86 59 f9 bc 6a 18 ac 3c
       0.040259298 0.026917169 -0.030438196 0.021007735
0001b0 e5 b3 b6 bb 1b 3d 48 3d 6a b7 89 3d 6b 60 fc 3b
       -0.0055756443 0.0488864 0.067244366 0.0077019236
0001c0 26 f9 3a bd 55 2e 35 3d 60 c5 1b bd be 47 00 bc
       -0.045647763 0.04423364 -0.03803003 -0.007829605
0001d0 23 24 93 bc 45 f7 47 3c 69 08 2e bd e3 96 a1 3d
       -0.017961567 0.01220495 -0.04248849 0.078901075
0001e0 b9 6e 1b 3c d9 46 63 bd c1 aa 81 3c 1d fd bd bc
       0.009486848 -0.055487487 0.015828492 -0.023191983
0001f0 52 8b 77 3d d2 c2 c9 3c d7 eb 03 bd 03 b3 01 bd
       0.0604356 0.02462903 -0.032207336 -0.03166486
000200 82 5d 2a 3c 39 cb 60 3d 29 1c 22 bc 27 55 98 3c
       0.010398271 0.05488131 -0.009894409 0.018595291
000210 fb ae 42 bd ec b0 15 3d 5a d1 68 bd 4b 43 56 bd
       -0.047530156 0.03654568 -0.05684028 -0.05231027
000220 ca 15 6a 3a 2e 8c 54 bc 70 5b 73 3d 6d 5d 0e 3d
       0.00089296384 -0.012972875 0.059413373 0.034757067
000230 13 9e 0a 3c b6 80 1e 3d 13 92 08 bd bb 9d 5a bd
       0.008460539 0.038696967 -0.033342432 -0.05337308
000240 e8 c1 80 bd 72 ec 8a 3d 0a 01 84 3d 36 7b 3d 3d
       -0.06286985 0.067833796 0.06445511 0.04626008
000250 91 18 00 3c 50 22 91 3c 96 09 96 3d bd 6b 89 3d
       0.007818357 0.017716557 0.07326047 0.067100026
000260 a1 28 4c 3d 66 a5 50 bc 0e b1 53 bb 32 2f 13 3c
       0.049843434 -0.012734747 -0.0032301578 0.00898342
000270 b3 8b 4d 3d 83 cd 86 3d d3 32 82 3c 30 cc 53 3c
       0.050182056 0.06582167 0.015893376 0.0129271
000280 4c b1 7e 3d f9 7e e0 bc 1a 75 db bb 50 db 27 3d
       0.062180802 -0.027404295 -0.006697309 0.040980637
000290 40 8c 5a 3d ce 99 01 bc b7 4b 80 3d a2 8a 2e bb
       0.05335641 -0.007910205 0.062644415 -0.0026632925
0002a0 44 f6 20 3d 26 ac 25 bd e1 2e c5 3b 57 0b 17 bd
       0.039297357 -0.040447377 0.0060175513 -0.03687605
0002b0 89 1a ca bc 3d 6c d1 bc ab c6 09 bd 2a 22 f2 bc
       -0.024670856 -0.025564307 -0.03363673 -0.029557306
0002c0 4a b6 26 3d f4 b0 d0 bc 0b 70 03 bc 74 0b c4 3c
       0.04070119 -0.025475003 -0.008022319 0.023931243
0002d0 14 07 8a 3c 7e b9 71 bd b4 9b 61 bd e4 3f dc 3b
       0.016849078 -0.05901479 -0.05508013 0.0067214835
0002e0 3e c0 89 3d 68 00 7f bd d1 63 14 bc 23 e3 7a 3d
       0.067261204 -0.062256247 -0.009057001 0.06125177
0002f0 55 71 d8 3b 8d 39 96 3d c8 26 a6 3d 89 de 8d 3d
       0.006605307 0.07335196 0.08112866 0.06927211
000300 bb 02 5a 3d 4f ce 8c 3d 3d 5b 01 3d 50 65 5a 3d
       0.05322526 0.06875288 0.031581152 0.053319275
000310 84 a8 44 bd fd fa 79 bc 7c 5e de 3a a0 fa f6 3b
       -0.04801227 -0.015257594 0.0016965414 0.007537201

fc4.weight f4 [6, 200]
000000 cf 27 71 3d 55 3e c5 bb 2a e7 ca 3c f5 8b 9b 3d
       0.058875855 -0.0060193934 0.02476843 0.07595054
000010 72 57 ea bc 17 9b 89 bd cb 15 a3 bd 55 e0 da bd
       -0.02860615 -0.06719034 -0.07963141 -0.10687319
000020 de 4f 7e 3d 26 90 14 bd d0 62 a7 bd d3 cb 5c 3c
       0.062087886 -0.036270283 -0.08173144 0.01347633
000030 ca c1 83 3c da 0b 55 3b ba 1b ec 3b b8 5a a3 bd
       0.016083617 0.0032508285 0.0072054537 -0.079762876
000040 bb e4 41 3b 32 d3 b1 3d df c4 6a 3d 22 d4 6b bd
       0.0029585797 0.086828604 0.057316657 -0.057575352
000050 36 a2 23 bc d2 bb 1c 3c 01 fb 6b bc 24 41 4e bd
       -0.009987405 0.009566264 -0.014403106 -0.05035509
000060 49 8e 82 bd 16 14 6b bd 51 b7 98 bd 1f 7c fc bc
       -0.06374795 -0.057392202 -0.0745684 -0.030820904
000070 47 1d d9 3c a5 12 71 bd 49 af d4 bd 88 d1 51 3d
       0.026503218 -0.05885567 -0.103849955 0.051225215
000080 5d 61 3f 3c a3 3f ec 3c c2 41 af 3c 75 93 9f 3d
       0.011680928 0.028838938 0.02139366 0.07791797
000090 12 46 2e bd af 8b 8b bd 8f 2b af bd a5 ef 91 3d
       -0.042547293 -0.06813752 -0.0855323 0.07125787
0000a0 06 83 96 3d 4b 0f b8 3d f5 75 93 3d 63 db 25 bd
       0.073492095 0.08987292 0.07200233 -0.040492427
0000b0 f1 d9 3c bd cc f4 36 bd ea 2d 5e bc 2e 26 b7 3d
       -0.046106283 -0.04466705 -0.013560751 0.08942829
0000c0 57 5f 76 3d 96 37 e9 bd 76 2c 81 3d 8e 0e 3d 3d
       0.060149517 -0.11387555 0.063073084 0.04615646
0000d0 fd aa 21 bc b4 21 90 bd 09 bf 47 bd fa b6 fe 3c
       -0.009867427 -0.07037678 -0.04876617 0.03109311
0000e0 10 41 9a bd 1c 9b 6a bd c2 ee ba bd 62 c6 94 3c
       -0.07531941 -0.05727683 -0.09127571 0.018161003
0000f0 97 50 a6 bd c9 ae e4 bd 79 5e 8d bd 98 14 f1 3c
       -0.0812084 -0.1116615 -0.06902785 0.029428765
000100 56 e4 fd bd a0 87 1a 3d 58 7d 1b bc f2 c7 60 bd
       -0.12397067 0.037727 -0.0094903335 -0.054878183
000110 27 f8 ad bd 8b 94 92 bd a4 56 d7 bd 5a 6a 87 3d
       -0.08494597 -0.071572386 -0.10514572 0.06612082
000120 d9 c5 02 bd 85 10 88 bd 17 26 78 3c f9 36 80 3c
       -0.031926963 -0.06643776 0.0151458 0.015651213
000130 fa 7f 45 3d 7a 32 7b bd 2c 6c 01 3c b1 65 3d 3d
       0.04821775 -0.061327435 0.007899325 0.04623956
000140 ce 81 09 3d 85 52 87 bd 9d b9 ac 3c 87 b9 b4 bd
       0.033571057 -0.06607536 0.021084601 -0.08824449
000150 97 32 d8 bd 33 17 96 3d 12 15 8c bc 41 68 4d bc
       -0.10556524 0.07328644 -0.01709989 -0.012537063
000160 0c 44 7e 3d c6 75 17 bd b8 a4 b2 3c a2 68 c4 bd
       0.062076613 -0.036977552 0.02180706 -0.095902696
000170 20 4d a9 3c 93 86 18 3d a4 ca bb bd 75 bc 82 bc
       0.020666659 0.037237715 -0.0916951 -0.015959004
000180 e2 4f 37 3d f6 d3 3d bd ef 38 06 3d 15 de b0 3d
       0.044753917 -0.04634472 0.03276914 0.08636109
000190 e9 87 87 bd 6f e6 b2 3d d4 5f 6c 3d 0e 49 74 bd
       -0.0661772 0.08735358 0.057708576 -0.059639983
0001a0 d0 8e bc bc 37 51 2f bd 30 ce 6c 3d 4e 18 84 3d
       -0.023017317 -0.042802062 0.057813823 0.06449948
0001b0 89 e4 5d bd cd 72 a4 bd 55 be b5 bd ea 50 5e 3d
       -0.054173026 -0.08029709 -0.088741936 0.054276384
0001c0 89 84 21 bd 7b e5 bb bc fc 88 9a bd 09 6d 79 3d
       -0.039433036 -0.022936573 -0.07545659 0.060895
0001d0 d2 c8 a7 3c 13 97 e4 bd 2b 64 4e 3d 87 a2 75 bd
       0.0204815 -0.111616276 0.050388496 -0.05996945
0001e0 dc a8 8d bc d7 22 cd 3d 85 5e 0c bd 91 b3 e6 3c
       -0.017292432 0.10016411 -0.03426983 0.028161796
0001f0 e7 cc 00 bd 7c 17 00 bd fa a4 38 3d a7 26 a1 3d
       -0.03144541 -0.031272396 0.04507921 0.078687005
000200 67 ca 9a 3d a7 9e 97 3d 9c 4a 07 3d db 81 a8 bd
       0.075581364 0.074033074 0.033030137 -0.08227893
000210 75 60 d7 3c f1 72 02 be 81 88 81 3c 4f 73 d5 bc
       0.026291111 -0.12739159 0.01581216 -0.02605596
000220 44 b2 59 3d e4 5d 52 3d fd 71 56 3d 95 75 75 bd
       0.053148523 0.051359072 0.0523548 -0.059926588
000230 83 a0 1b 3d b6 36 e4 bd 80 1d 9d 3d 69 33 8a 3d
       0.037994873 -0.11143248 0.07671642 0.06748087
000240 8e e1 89 bd 1b 0a 98 3b df b0 86 3d d9 78 35 3c
       -0.06732474 0.0046398765 0.06576704 0.011076176
000250 b1 df bc 3d e9 6d 43 3d b3 aa bf bd d7 08 e0 3a
       0.09222353 0.04771224 -0.0935873 0.0017092478
000260 a4 5b 2f 3c a1 48 6c bd 96 12 fc bc 46 46 8c bc
       0.010703001 -0.05768645 -0.030770581 -0.017123353
000270 54 0b ee bc 8e 60 3c 3d df 65 c9 bd b6 a2 05 bd
       -0.029058136 0.04599052 -0.098338835 -0.032625876
000280 7e 4a b3 bd 6d 3d b6 bd c6 9b e2 bc 0b 76 8e 3d
       -0.08754443 -0.08898435 -0.02766217 0.06956109
000290 61 3d 79 bd 9d bd 8d 3d 7a 6e 86 bd d8 5c 65 3d
       -0.06084955 0.069209315 -0.065640405 0.055996746
0002a0 b6 a3 72 bd df 72 c1 bd d5 f0 e5 bd 2b 05 b6 bd
       -0.05923816 -0.09445738 -0.11227576 -0.088877045
0002b0 62 e9 2b bc 94 cf c7 bc dc 6c be 3d 42 57 b0 3d
       -0.0104926545 -0.024390973 0.09298107 0.08610393
0002c0 f1 df ed 3d 0a 7e 50 3d cd cc 42 bd da e7 2e 3d
       0.11614979 0.05090145 -0.047558594 0.04270158
0002d0 f8 de 48 3d fe 52 39 3d b1 e9 d0 3d 2d a1 9a 3b
       0.049040765 0.045245163 0.10200823 0.0047189207
0002e0 91 76 2b 3c 83 93 6c bd 51 24 6e 3b f5 a1 66 3d
       0.01046528 -0.057757866 0.0036337564 0.056306798
0002f0 24 79 e3 3b 75 3b a4 bd 27 72 ba bd 41 ed d3 bd
       0.0069419313 -0.08019153 -0.09103804 -0.10347987
000300 59 93 af 3d 24 41 8f 3d 81 99 4b 3d c8 f5 8c 3c
       0.08573026 0.069948465 0.04970694 0.017207041
000310 dd 0d 26 3d cc 26 28 3d 1f 10 83 bc f6 c7 f9 bd
       0.040540565 0.041052625 -0.015998898 -0.12196343
000320 43 55 00 3d ee ea 08 bd 6a 96 3c bc 9e b9 79 bb
       0.031331312 -0.03342717 -0.011510471 -0.0038105021
000330 11 37 e6 bd 99 e0 58 bc c6 fb 3c 3d 97 dc 15 3d
       -0.11240972 -0.013237142 0.046138547 0.036587324
000340 c6 fd 1e 3d 5e 82 49 bd f0 19 c7 3c cd f9 b1 bd
       0.038816236 -0.049196593 0.02430436 -0.08690224
000350 fb 71 37 bd c2 61 b9 3d 2f 22 4a 3d 7a 1e 95 3c
       -0.044786435 0.09051849 0.049349006 0.018203009
000360 55 53 91 bd 24 dc d2 bd 0a 3b 81 bd a4 aa 23 3d
       -0.070959724 -0.10295895 -0.06310089 0.039957657
000370 46 43 7a 3a cf 17 95 bd d8 d3 64 bd 6d 4a 95 3c
       0.00095467677 -0.07279932 -0.055866092 0.018223966
000380 d0 4c f1 3c e3 98 81 bd 8f 17 9b bd a8 42 9c bd
       0.029455572 -0.06327989 -0.07572853 -0.07629901
000390 01 86 ae bc 71 81 73 3d 2a 7f 3b 3c f7 9e 91 bd
       -0.021304132 0.059449617 0.0114438925 -0.07110398
0003a0 43 b3 99 3c d3 34 03 be da c6 4c 3d c0 6b c4 3c
       0.018762236 -0.1281312 0.049994327 0.02397716
0003b0 76 16 4f 3c 49 f2 4a 3d bf d7 46 bc 4b c2 3f 3d
       0.012639632 0.049547467 -0.012136399 0.04681615
0003c0 ab 11 d8 3c b9 10 9f 3d d1 68 23 3c 3d 53 ae bd
       0.026375612 0.077668615 0.009973721 -0.0851197
0003d0 84 6a 37 3d 2e 2f 9a bd 81 1c b6 bc 26 38 e1 3c
       0.044779316 -0.0752853 -0.022230389 0.027492594
0003e0 b1 68 6a 3d 88 3c 01 bd 29 64 81 bd a6 6c 2c 3d
       0.057228748 -0.031551868 -0.06317932 0.042095803
0003f0 26 e3 0d 3d f2 c8 06 bd 99 17 98 bd 51 3c c7 bd
       0.034640454 -0.03290648 -0.07426376 -0.09728301

fc4.bias f4 [6]
000000 45 eb 55 3c d2 5d 81 3b 80 9e 96 bd ac 50 b8 bc
       0.013056581 0.003947952 -0.0735445 -0.022499405
000010 66 7f 3b bd bd 46 82 3d
       -0.045775793 0.063611485
