tmp_file/checkpoint.pt (torch, 50349 bytes, 8 tensors)

fc1.weight f4 [64, 49]
-0.08710111 -0.018047063 -0.047882926 -0.12540023 -0.18726009 0.08832903 -0.07818206 -0.05903719
0.069784716 -0.15358703 -0.049539093 0.037877753 -0.06157222 -0.08069547 0.014364605 -0.03604201
0.1337663 -0.017484227 0.09863564 0.08018351 -0.038170166 -0.13457887 0.0007545819 0.08829164
-0.031697318 -0.264096 -0.014474404 -0.11062052 -0.11919239 -0.010560927 -0.0931247 0.18330903
-0.029617785 -0.050642505 0.021893267 -0.47451925 -0.20059672 0.15745941 0.09644304 0.007615649
0.082099475 0.030425789 -0.013853694 0.095688246 0.053004112 0.1303049 0.11118273 -0.09502739
0.055074558 -0.055899788 0.07059209 0.033709496 0.019943869 -0.029226188 -0.027275067 0.416963
0.08694555 0.042947464 -0.081843264 -0.015999917 0.03174841 -0.21254699 -0.0097265 -0.039494514
0.06976161 -0.06719324 0.037886184 -0.13581829 0.014641735 -0.073420554 -0.030375047 0.107608885
0.045132082 -0.11387529 0.050288655 -0.097170405 0.03719228 0.042950936 -0.103333846 -0.092335775
-0.10056394 0.008215814 0.021723572 -0.06514287 0.008850111 0.020468079 -0.007392659 0.10110832
-0.074805334 -0.12228969 -0.05032641 -0.04367877 0.16837591 -0.060631596 -0.12003115 -0.08847395
-0.05576699 -0.08602925 0.03273056 -0.0963672 -0.05996316 -0.16134769 -0.1556794 -0.1268098
-0.18801649 0.052437905 -0.07962923 0.10254202 0.07024853 0.08895949 0.29402742 -0.18399031
-0.046983488 0.120456144 -0.1311031 -0.09474696 0.046294745 -0.17810327 -0.056896847 -0.11482896
-0.033854127 -0.00049470353 -0.13724293 -0.2097543 -0.07513611 0.1491741 -0.0040184553 -0.047317237
-0.020250048 0.08304262 -0.0013277957 0.046502862 0.07561726 0.21359663 -0.044736832 -0.10616136
-0.124290794 -0.01176027 0.08182774 -0.017728906 0.020456789 0.09802589 -0.0046942714 -0.1100098
0.032522917 -0.06324884 0.019955432 -0.19446427 -0.124918535 -0.009772402 0.11891975 0.07040889
0.21703921 0.17853136 0.19170462 -0.09985176 0.054692876 0.14696194 -0.017691206 -0.28602588
0.030017488 0.12488952 0.045084987 0.088153385 0.025884347 -0.10693966 0.109138355 0.013779815
0.016207041 -0.020650398 -0.07700694 -0.04463019 -0.09206408 0.20458123 0.13889638 -0.09051962
-0.029196458 0.13056028 -0.033733454 0.08910252 0.17697285 0.025854673 0.16588078 -0.15531453
0.13153052 -0.10132041 -0.054010108 0.037082925 -0.03315966 0.06374713 0.052194417 -0.049550615
0.12671894 -0.028807897 -0.084805764 0.110243954 -0.032165524 0.15245788 0.0867654 0.10941459
0.20035559 0.23855738 -0.3306478 0.18309285 0.11906619 -0.05612272 0.04583396 0.08535152
-0.067805395 -0.0071419883 0.14506927 0.009556576 0.122860365 0.021363769 -0.14486033 -0.110181436
0.09139803 -0.029718336 -0.0063863266 0.0043885973 0.026873615 -0.17608075 -0.04792766 0.022801114
0.027157962 0.081165016 -0.051655926 0.16263615 0.11755021 -0.11376435 0.056687787 -0.19784667
0.019016253 0.11921299 -0.049553756 -0.039795604 -0.0020800205 0.12966534 -0.04360373 0.09744334
0.14206968 -0.030853936 0.06633752 0.029661227 -0.05112131 0.08255093 0.12856317 0.08652339
-0.101661764 -0.1845349 0.059121124 0.023824632 0.0807454 0.180857 0.19035015 -0.10553669
00000000: 1162 b2bd 6fd7 93bc e320 44bd eb68 00be
00000010: 1cc1 3fbe dae5 b43d ea1d a0bd fbd0 71bd
00000020: 4aeb 8e3d eb45 1dbe 81e9 4abd b425 1b3d
00000030: 2733 7cbd ab43 a5bd 8559 6b3c c9a0 13bd
00000040: 08fa 083e 153b 8fbc 7c01 ca3d 4137 a43d
00000050: 5258 1cbd 0bcf 09be 22cf 453a 3fd2 b43d
00000060: 0cd5 01bd 9737 87be 0d26 6dbc 038d e2bd
00000070: 241b f4bd bd07 2dbc 2ab8 bebd 5db5 3b3e
00000080: ffa0 f2bc 846e 4fbd 8259 b33c 30f4 f2be
00000090: 3a69 4dbe 0a3d 213e ee83 c53d b28c f93b
000000a0: c523 a83d 813f f93c 9bfa 62bc 33f8 c33d
000000b0: d71a 593d a66e 053e c5b3 e33d b89d c2bd
000000c0: dc95 613d 2df7 64bd 9692 903d f812 0a3d
000000d0: 5361 a33c c26b efbc f66f dfbc 2d7c d53e
000000e0: 8210 b23d aee9 2f3d 719d a7bd 4212 83bc
000000f0: 9f0a 023d eba5 59be e65b 1fbc 00c5 21bd
00000100: 2ddf 8e3d 9c9c 89bd 8b2e 1b3d f313 0bbe
00000110: e3e3 6f3c 845d 96bd 17d5 f8bc 0c62 dc3d
00000120: 6bdc 383d 7337 e9bd 7afb 4d3d 4701 c7bd
00000130: ef56 183d 52ed 2f3d b2a0 d3bd 8a1a bdbd
00000140: 78f4 cdbd 9f9b 063c a2f5 b13c a069 85bd
00000150: 0e00 113c acac a73c 1e3e f2bb e111 cf3d
00000160: 8a33 99bd 0473 fabd 1123 4ebd 83e8 32bd
00000170: bc6a 2c3e d658 78bd e4d2 f5bd d531 b5bd
00000180: ed6b 64bd 1a30 b0bd 7b10 063d 2b5c c5bd
00000190: ee9b 75bd 5438 25be 6c6a 1fbe 6eda 01be
000001a0: 6587 40be 21c9 563d a614 a3bd 8d01 d23d
000001b0: 76de 8f3d 6530 b63d c38a 963e f567 3cbe
000001c0: c271 40bd b6b1 f63d e43f 06be b20a c2bd
000001d0: 8f9f 3d3d b460 36be ab0c 69bd 722b ebbd
000001e0: a0aa 0abd feae 01ba 6989 0cbe d5c9 56be
000001f0: f6e0 99bd 18c1 183e 3fad 83bb b8cf 41bd
00000200: 6ee3 a5bc 4012 aa3d 6e09 aeba c979 3e3d
00000210: 39dd 9a3d 13b9 5a3e f83d 37bd 216b d9bd
00000220: 2c8c febd 26ae 40bc 4d95 a73d 363c 91bc
00000230: ff94 a73c ccc1 c83d 67d2 99bb d14c e1bd
00000240: c036 053d 9c88 81bd 9379 a33c a421 47be
00000250: 4ad5 ffbd 6d1c 20bc 338c f33d 8932 903d
00000260: 873f 5e3e edd0 363e 374e 443e 147f ccbd
00000270: a305 603d 317d 163e 26ed 90bc fc71 92be
00000280: 3ce7 f53c 14c6 ff3d 09ab 383d c389 b43d
00000290: 690b d43c 2e03 dbbd ee83 df3d bcc4 613c
000002a0: a1c4 843c 062b a9bc d1b5 9dbd 25ce 36bd
000002b0: 188c bcbd be7d 513e da3a 0e3e 5a62 b9bd
000002c0: 692d efbc 98b1 053e 172c 0abd 627b b63d
000002d0: 5f38 353e 2ecd d33c a7dc 293e c60a 1fbe
000002e0: f0af 063e 1381 cfbd b439 5dbd 44e4 173d
000002f0: 6cd2 07bd db8d 823d d0c9 553d 96f5 4abd
00000300: 9cc2 013e 8afe ebbc a5ae adbd 95c7 e13d
00000310: ffbf 03bd eb1d 1c3e 0fb2 b13d c214 e03d
00000320: 042a 4d3e 6348 743e ab4a a9be b17c 3b3e
00000330: fad8 f33d f0e0 65bd 64bc 3b3d c7cc ae3d
00000340: 8edd 8abd 5707 eabb 0a8d 143e 2f93 1c3c
00000350: 379e fb3d 1203 af3c 4456 14be cea6 e1bd
00000360: e42e bb3d de73 f3bc 6444 d1bb 39ce 8f3b
00000370: 0e26 dc3c 834e 34be cb4f 44bd 67c9 ba3c
00000380: 607a de3c d839 a63d 2a95 53bd 178a 263e
00000390: 2abe f03d 49fd e8bd 7431 683d 5198 4abe
000003a0: f9c7 9b3c f125 f43d e1f8 4abd b700 23bd
000003b0: f450 08bb fec6 043e d399 32bd 6090 c73d
000003c0: b77a 113e 65c1 fcbc f7db 873d 1afc f23c
000003d0: 9464 51bd 7610 a93d 10a6 033e 2d33 b13d
000003e0: 0b34 d0bd b8f6 3cbe fe28 723d e02b c33c
000003f0: d85d a53d 9432 393e 26eb 423e 9f23 d8bd

fc1.bias f4 [64]
0.10954316 0.11220365 0.044518508 0.10670283 -0.009134405 0.0003851084 0.060559254 0.2772799
0.010347574 0.005482912 -0.024449078 0.23819688 -0.025412215 0.08194561 0.20427224 0.02057614
0.01147461 -0.025345106 0.32397556 -0.013850274 0.19515853 -0.024168195 0.055665597 0.034962434
0.04661596 0.1191844 -0.039730262 0.026092539 0.22331706 0.2514833 0.1915684 0.0972264
0.11905669 0.14479667 0.00052370684 -0.016272381 0.18494637 0.07787478 0.09213955 -0.034932617
0.0066297166 0.09621511 0.23518 0.10946861 0.11448928 0.19422624 0.046043083 0.20758778
0.1326096 0.089515224 0.13518463 0.11524676 -0.0031731657 0.2652366 0.2453515 0.21215649
0.0476107 0.17373843 -0.10538463 -0.053852238 0.056612555 0.2205755 0.081102334 0.12440055
00000000: 2a58 e03d 07cb e53d 0a59 363d 0387 da3d
00000010: 79a8 15bc 60e8 c939 fb0c 783d a2f7 8d3e
00000020: df88 293c 00aa b33b 6f49 c8bc e2e9 733e
00000030: 472d d0bc 1ad3 a73d be2c 513e 4b8f a83c
00000040: 0100 3c3c 8aa0 cfbc 20e0 a53e 42ec 62bc
00000050: a3d7 473e 61fc c5bc 9c01 643d c534 0f3d
00000060: 60f0 3e3d f316 f43d 33bc 22bd 05c0 d53c
00000070: 3aad 643e 6bc2 803e 822a 443e a31e c73d
00000080: fed3 f33d 9445 143e 5f49 093a a84d 85bc
00000090: 9562 3d3e d07c 9f3d a9b3 bc3d 8115 0fbd
000000a0: 183e d93b 6d0c c53d 07d3 703e 1431 e03d
000000b0: 5b79 ea3d 3ee3 463e ac97 3c3d e491 543e
000000c0: d0ca 073e c253 b73d d76d 0a3e 7e06 ec3d
000000d0: e3f4 4fbb 17cd 873e 6c3d 7b3e 8d3f 593e
000000e0: 7003 433d 7de8 313e e6d3 d7bd 2a94 5cbd
000000f0: 91e2 673d 8bde 613e fb18 a63d b7c5 fe3d

fc2.weight f4 [64, 64]
-0.16431355 0.014406697 0.035298124 0.0111073 -0.106164366 -0.0075159203 0.089116946 0.15844584
-0.079698116 0.17645133 -0.019785492 0.14967835 0.0050743115 0.07050403 -0.081598096 0.046440173
-0.13573986 0.09540871 0.053742804 0.23692116 0.20896839 -0.10648526 -0.050517235 0.055405643
0.14427738 0.028218308 -0.09440305 0.09382205 -0.167374 0.18650463 0.20619482 0.18747942
0.16549651 0.2539176 -0.044681475 0.012218487 -0.12516582 0.078049526 0.095317714 0.07675199
0.16853736 -0.074612975 0.100676455 -0.011416416 -0.009906991 0.10992543 0.10503886 0.009872505
-0.043908775 0.13542725 0.071666874 0.09577513 0.068133555 0.0016029271 -0.14299786 0.023897516
0.15623735 0.07716104 0.029791748 0.07909262 0.078677416 0.1317092 0.050601687 -0.07751549
0.054244228 0.011278022 0.10388816 0.09642485 0.1603846 -0.008796209 0.004862982 -0.18232177
0.11655642 0.0064344034 -0.03417307 -0.060742773 -0.060076676 0.0914929 0.16984518 0.011730496
0.06295083 -0.13099633 0.09338081 0.099836335 -0.04232586 -0.0033579185 0.028281057 0.0009953667
0.17636359 -0.05243421 -0.12066181 0.067708164 0.14056396 -0.08868555 -0.009671152 0.19005194
-0.041773096 -0.034186084 -0.006337036 -0.15627299 0.05804944 0.14650308 0.046894535 0.01137154
-0.031157777 0.0939024 -0.08926618 0.19595286 -0.011536935 0.056392852 0.023437053 0.032938678
-0.091174476 -0.061053388 -0.037367962 0.022280166 -0.022195838 0.12566958 0.17904939 0.16571517
0.090095 0.05674964 -0.1191579 0.0015847997 -0.06605045 0.20204566 -0.010633956 0.064196154
-0.057060804 -0.18271853 0.1376202 0.074957974 -0.07782882 0.09461991 -0.21986513 0.24520111
0.055206206 -0.045270074 -0.19093834 0.24319182 0.041160185 -0.069921225 0.050157286 -0.03295011
-0.2672704 0.0011580879 0.18652093 -0.016648958 -0.07496083 -0.07909863 0.23703445 0.25793532
-0.021681424 -0.035958298 -0.007922338 0.091243096 -0.1611177 0.2405312 0.028210768 -0.014433431
-0.01685946 0.12807512 -0.049042128 -0.011674246 -0.013969026 -0.16309135 0.047121767 0.041663274
-0.09145532 -0.112077184 0.117437616 0.01870059 0.0083232485 -0.06167668 0.13901296 -0.18252967
-0.06745323 -0.041167796 0.17060761 0.26670992 0.08222423 -0.085791856 -0.038665675 -0.09050222
0.08337019 -0.055897303 0.033945505 0.20485058 -0.07261373 -0.126924 0.1570823 -0.038571037
0.072634876 0.2155488 0.120372444 -0.07248096 0.030605596 -0.06395536 -0.09238228 0.1709451
0.14923377 -0.04858098 0.025299944 0.07851821 0.07626915 0.12743601 -0.052183695 0.12820826
0.0134816915 0.07205076 0.1662801 -0.0051497035 -0.054610197 0.09500973 0.12258086 -0.01531901
0.12524997 0.1405593 0.05238617 0.098008946 0.13551064 0.1819248 0.13992877 0.0588797
0.024270827 0.13022327 0.066401005 -0.038475476 0.028317744 0.12457781 -0.06076628 -0.01341942
0.026825015 -0.09070799 0.17016886 0.19078577 0.18838763 0.05829985 0.10037717 0.1609192
0.121360645 -0.004358167 0.1688557 0.08364723 0.055619504 -0.019157585 0.008412238 0.005820064
-0.014582872 0.16220818 0.022775186 0.09278443 -0.025939364 0.21076746 0.044712283 -0.04303557
00000000: d041 28be 110a 6c3c c494 103d 65fb 353c
00000010: b46c d9bd 1c48 f6bb f282 b63d a03f 223e
00000020: c438 a3bd a8af 343e 2f15 a2bc 4845 193e
00000030: 6946 a63b 6b64 903d e71c a7bd 0d38 3e3d
00000040: 64ff 0abe a465 c33d 6a21 5c3d 769b 723e
00000050: cffb 553e f214 dabd 29eb 4ebd 07f1 623d
00000060: 73bd 133e 152a e73c 6356 c1bd c625 c03d
00000070: 1764 2bbe 12fb 3e3e bc24 533e 9bfa 3f3e
00000080: eb77 293e 7d01 823e ec03 37bd 0d30 483c
00000090: 782b 00be 6ed8 9f3d ef35 c33d 2630 9d3d
000000a0: 0f95 2c3e b0ce 98bd 752f ce3d eb0b 3bbc
000000b0: ef50 22bc 9520 e13d 9d1e d73d 4ac0 213c
000000c0: b0d9 33bd 71ad 0a3e 15c6 923d c025 c43d
000000d0: 9b89 8b3d 4f19 d23a 086e 12be b9c4 c33c
000000e0: affc 1f3e 9b06 9e3d d30d f43c 50fb a13d
000000f0: a021 a13d c7de 063e b743 4f3d 71c0 9ebd
00000100: 322f 5e3d 74c7 383c 51c3 d43d 647a c53d
00000110: dc3b 243e f91d 10bc a659 9f3b 8fb2 3abe
00000120: 22b5 ee3d b0d7 d23b 10f9 0bbd 6acd 78bd
00000130: f612 76bd a160 bb3d e5eb 2d3e 4431 403c
00000140: 5dec 803d e723 06be 703e bf3d fe76 cc3d
00000150: e25d 2dbd 8610 5cbb adad e73c f776 823a
00000160: a898 343e 41c5 56bd 8a1d f7bd 94aa 8a3d
00000170: 00f0 0f3e c5a0 b5bd c073 1ebc fa9c 423e
00000180: 441a 2bbd b506 0cbd e9a6 cfbb 0706 20be
00000190: 40c5 6d3d e704 163e 7c14 403d b24f 3a3c
000001a0: 983e ffbc e74f c03d 30d1 b6bd dea7 483e
000001b0: 6a05 3dbc 31fc 663d 10ff bf3c b5ea 063d
000001c0: afb9 babd 1e13 7abd 260f 19bd e584 b63c
000001d0: 0cd4 b5bc 87af 003e b958 373e 3db1 293e
000001e0: ba83 b83d 4f72 683d 0f09 f4bd 0eb9 cf3a
000001f0: 7545 87bd 0fe5 4e3e 0b3a 2ebc 4679 833d
00000200: 97b8 69bd 911a 3bbe 4fec 0c3e 9183 993d
00000210: b764 9fbd 15c8 c13d 5324 61be 0016 7b3e
00000220: e71f 623d 1d6d 39bd 5785 43be 4707 793e
00000230: 9597 283d dc32 8fbd ba71 4d3d b2f6 06bd
00000240: aad7 88be fbca 973a 58ff 3e3e 6563 88bc
00000250: 1085 99bd 76fe a1bd 29b9 723e 1910 843e
00000260: 3e9d b1bc 0249 13bd b2cc 01bc a9dd ba3d
00000270: 0afc 24be d04d 763e 451a e73c 337a 6cbc
00000280: da1c 8abc 2026 033e 66e0 48bd 5645 3fbc
00000290: 57de 64bc 6b01 27be c102 413d 1ca7 2a3d
000002a0: ed4c bbbd b988 e5bd 2283 f03d fb31 993c
000002b0: 3c5e 083c b0a0 7cbd 6a59 0e3e 0fe9 3abe
000002c0: eb24 8abd 909f 28bd c3b3 2e3e 348e 883e
000002d0: 2d65 a83d a4b3 afbd e65f 1ebd 3a59 b9bd
000002e0: fdbd aa3d 92f4 64bd 710a 0b3d 5ac4 513e
000002f0: 82b6 94bd 5df8 01be 2fda 203e aafc 1dbd
00000300: 98c1 943d d3b8 5c3e d485 f63d e670 94bd
00000310: 96b8 fa3c 07fb 82bd ec32 bdbd 3b0c 2f3e
00000320: bdd0 183e dafc 46bd d441 cf3c 28ce a03d
00000330: 0033 9c3d 967e 023e 92be 55bd 0749 033e
00000340: 50e2 5c3c 598f 933d 5545 2a3e d8be a8bb
00000350: f1ae 5fbd 7694 c23d ad0b fb3d 96fc 7abc
00000360: 8741 003e c7ee 0f3e e192 563d eab8 c83d
00000370: 4dc3 0a3e 7f4a 3a3e 7d49 0f3e d72b 713d
00000380: 9dd3 c63c 4059 053e 40fd 873d 7698 1dbd
00000390: 9dfa e73c a722 ff3d 10e6 78bd 21dd 5bbc
000003a0: 22c0 db3c 1cc5 b9bd bf40 2e3e 585d 433e
000003b0: b0e8 403e d3cb 6e3d 8c92 cd3d 01c8 243e
000003c0: ee8b f83d f4ce 8ebb 82e8 2c3e 3d4f ab3d
000003d0: 47d1 633d 5ef0 9cbc 7cd3 093c 3cb6 be3b
000003e0: 00ed 6ebc e719 263e 0793 ba3c c305 be3d
000003f0: ca7e d4bc 6dd3 573e 3a24 373d 1146 30bd

fc2.bias f4 [64]
0.16163161 0.062479384 0.15959686 -0.005003598 -0.0002855068 0.03852208 0.013828429 0.013619736
0.09777274 0.17043798 0.13942337 -0.03620804 0.15739492 0.08110756 0.12601951 0.09578727
0.204819 -0.10053052 0.098408185 -0.017659126 -0.03712933 0.17216158 0.04617621 0.19886628
0.055306267 0.1126363 0.1488933 0.05462977 0.1525299 0.009624569 -0.0068695345 -0.01012018
-0.09296263 -0.00097011524 0.123595014 0.104194246 0.11542779 0.041325364 0.026487967 0.118020646
0.07450862 0.064935885 0.13967068 0.10336223 0.19551411 -0.11766753 0.0671068 0.0899003
0.1968736 0.0086506335 -0.068406545 0.11598225 0.15598953 0.015603008 0.18417136 -0.09289089
0.07513355 0.23826025 0.19268607 0.096381925 0.05035279 0.11233063 0.155496 0.15964957
00000000: c282 253e 62ea 7f3d 5c6d 233e 39f5 a3bb
00000010: 13b0 95b9 54c9 1d3d a390 623c 5025 5f3c
00000020: 133d c83d 4b87 2e3e 00c5 0e3e e24e 14bd
00000030: 222c 213e b81b a63d 420b 013e 1e2c c43d
00000040: 12bc 513e f2e2 cdbd 3b8a c93d dfa9 90bc
00000050: ed14 18bd 204b 303e 4423 3d3d 9aa3 4b3e
00000060: d388 623d dcad e63d 7c77 183e 77c3 5f3d
00000070: cc30 1c3e 5eb0 1d3c d519 e1bb 1dcf 25bc
00000080: 3163 bebd 554f 7eba 621f fd3d cb63 d53d
00000090: 6865 ec3d c944 293d 4bfd d83c cfb4 f13d
000000a0: fa97 983d 1bfd 843d d505 0f3e 94af d33d
000000b0: da34 483e adfb f0bd 4a6f 893d a61d b83d
000000c0: 3c99 493e 63bb 0d3c bb18 8cbd 1a88 ed3d
000000d0: b8bb 1f3e c2a3 7f3c 6b97 3c3e 943d bebd
000000e0: 9edf 993d 7ffa 733e 7f4f 453e e363 c53d
000000f0: ba3e 4e3d 9a0d e63d 583a 1f3e 2d7b 233e

fc3.weight f4 [64, 64]
0.044811476 0.029047754 -0.1461571 0.15415168 -0.022596909 -0.1515537 0.10478551 -0.22450781
-0.14108394 -0.33162314 0.12285491 0.029447887 0.13659734 0.0015331218 -0.059408285 0.13060614
-0.09184456 -0.061126392 0.07915336 0.11880627 0.19321835 -0.021166045 -0.19188628 0.12737319
0.0945815 0.21713895 0.09221362 -0.1272869 -0.035226263 -0.07539649 0.020651953 -0.019169498
-0.052039295 0.0046074176 -0.09732814 -0.07958954 0.04865142 -0.12719229 0.019310977 0.09912776
0.16256775 -0.08846425 0.025236933 -0.2037068 0.22503795 -0.022648577 -0.03179803 -0.12036007
0.060628064 0.05896895 0.15129685 -0.013637218 0.030168923 -0.20679139 -0.121610455 -0.023904478
0.07670774 0.09174375 -0.17853771 0.040800113 0.015042074 -0.040919565 0.10474753 -0.011206545
0.12165793 0.082263045 -0.0963994 -0.030284666 -0.09274065 -0.020171914 -0.042709224 -0.14257142
-0.03524079 -0.14327334 -0.003821743 0.055802613 0.16662647 0.11687071 -0.10822368 0.14936046
-0.13412993 -0.1251327 0.1875562 0.13990028 0.23675457 0.08660002 -0.20657338 -0.08352013
0.1562986 0.23152432 -0.048148282 -0.024902945 -0.03518383 0.07832502 0.063972 -0.03329967
0.12374297 -0.15292592 -0.038177125 -0.03360018 0.15750508 -0.20796883 -0.03626038 0.073946655
0.15904757 -0.040901467 0.21435924 -0.14888328 0.17556137 0.018833479 0.07016961 0.05893929
0.16144873 -0.028295174 0.16858293 -0.0421353 -0.0067134807 -0.09022877 -0.14678356 0.0958399
-0.108282804 0.14296125 -0.11174251 -0.041216873 -0.021074934 -0.20522714 0.14305101 -0.03527114
-0.03010065 0.022480514 -0.004699089 0.16006905 -0.0145211425 0.04428071 0.16175973 -0.33517635
-0.10553788 -0.079977944 0.0057740854 0.15597466 0.17106341 0.053895697 -0.20139743 0.047673553
-0.13609143 0.032779496 0.11923748 0.19533904 0.10120501 0.03700269 -0.19402489 0.19680722
0.2094772 0.31378922 0.07211053 0.07991048 -0.09781814 0.036453895 -0.08964055 -0.10798521
0.026442342 -0.040294923 0.13301815 0.031120444 0.11096904 -0.11450538 -0.10025525 0.071773686
0.102006435 -0.1599805 0.26653376 -0.06110751 0.039951313 -0.08628771 -0.17668885 -0.06819963
0.16620202 0.09118061 0.05877616 0.12252478 0.06723927 0.07455649 -0.044356067 0.012806242
-0.096723035 0.091082186 -0.038932882 -0.14154446 0.050980408 -0.036228172 -0.07598924 0.04238983
0.1337756 -0.09731254 0.19452098 0.008531322 0.19330065 -0.040358264 -0.06022697 -0.18660863
-0.04794007 -0.10955326 -0.018979857 0.24887827 0.15989754 -0.03430522 0.060469765 -0.06085362
0.060158744 0.06656737 0.13884945 0.25808698 0.006400266 0.18646239 -0.19739003 -0.15133435
-0.018891567 0.07202369 -0.044016 -0.20779069 -0.05016339 0.09668665 -0.1082328 0.032027908
0.12106313 -0.08498219 -0.025590738 -0.11163239 -0.034165952 -0.05061246 0.09646284 -0.13227044
0.17239025 0.115976445 -0.014253497 0.09983855 -0.14182363 0.11849581 0.124142446 -0.18282828
-0.0917604 0.2041737 0.22197631 0.14774145 0.056213994 -0.052234054 -0.09580788 0.040285513
0.17500442 0.13619585 0.03580942 0.0077681323 0.09549223 -0.027083654 0.021344138 -0.10330964
00000000: 3d8c 373d 8ef5 ed3c 35aa 15be f0d9 1d3e
00000010: 271d b9bc e530 1bbe c999 d63d 60e5 65be
00000020: 4f78 10be 82ca a9be 5b9b fb3d b23c f13c
00000030: 2ce0 0b3e 08f3 c83a 1a56 73bd 9ebd 053e
00000040: 0019 bcbd ab5f 7abd 281b a23d b450 f33d
00000050: 08db 453e 6a64 adbc d67d 44be 1e6e 023e
00000060: f2b3 c13d ac59 5e3e 7fda bc3d 7f57 02be
00000070: 6a49 10bd 7a69 9abd 492e a93c 5a09 9dbc
00000080: 2827 55bd d2f9 963b fa53 c7bd d7ff a2bd
00000090: b646 473d b23e 02be 0e32 9e3c 7f03 cb3d
000000a0: 2978 263e bf2c b5bd afbd ce3c 8498 50be
000000b0: 5970 663e 8289 b9bc a73e 02bd 577f f6bd
000000c0: 2255 783d 6d89 713d 90ed 1a3e a36e 5fbc
000000d0: d124 f73c 1fc1 53be e70e f9bd 53d3 c3bc
000000e0: f318 9d3d 26e4 bb3d 97d2 36be 051e 273d
000000f0: 0873 763c 469b 27bd df85 d63d a89b 37bc
00000100: cb27 f93d 8779 a83d 0c6d c5bd 8c17 f8bc
00000110: cfee bdbd 923f a5bc deef 2ebd 3efe 11be
00000120: a658 10bd 3fb6 12be 3576 7abb 4891 643d
00000130: 21a0 2a3e e959 ef3d 60a4 ddbd f3f1 183e
00000140: 5b59 09be c922 00be bc0e 403e 0542 0f3e
00000150: ca6f 723e 5a5b b13d f987 53be 9a0c abbd
00000160: bd0c 203e b614 6d3e 2237 45bd 4301 ccbc
00000170: eb1c 10bd de68 a03d c003 833d 3c65 08bd
00000180: f46c fd3d 9d98 1cbe 9e5f 1cbd 58a0 09bd
00000190: 0349 213e c8f5 54be c485 14bd 5871 973d
000001a0: 5edd 223e 4c88 27bd fd80 5b3e dc74 18be
000001b0: 5cc6 333e ab48 9a3c 16b5 8f3d 536a 713d
000001c0: d152 253e 48cb e7bc 01a1 2c3e 1096 2cbd
000001d0: c2fc dbbb ddc9 b8bd 6e4e 16be b647 c43d
000001e0: 60c3 ddbd 6f64 123e 42d9 e4bd 06d3 28bd
000001f0: 57a5 acbc 1027 52be f77b 123e 7978 10bd
00000200: a395 f6bc 0e29 b83c d1fa 99bb 24e9 233e
00000210: 16ea 6dbc b15f 353d 58a4 253e 3c9c abbe
00000220: 3e24 d8bd 7acb a3bd 8a34 bd3b d2b7 1f3e
00000230: 3f2b 2f3e bcc1 5c3d 213b 4ebe 5845 433d
00000240: 8d5b 0bbe cb43 063d c832 f43d f506 483e
00000250: 9344 cf3d 2290 173d 76ae 46be d587 493e
00000260: 3181 563e fba8 a03e b0ae 933d 1ba8 a33d
00000270: e154 c8bd ae50 153d 7795 b7bd 5a27 ddbd
00000280: 9c9d d83c 4a0c 25bd e935 083e 4df0 fe3c
00000290: bc43 e33d cc81 eabd a052 cdbd 15fe 923d
000002a0: c0e8 d03d eed1 23be 1d77 883e de4b 7abd
000002b0: fda3 233d 9cb7 b0bd eced 34be 3fac 8bbd
000002c0: dd30 2a3e e6bc ba3d 45bf 703d 46ee fa3d
000002d0: beb4 893d 13b1 983d b5ae 35bd 46d1 513c
000002e0: ba16 c6bd 4c89 ba3d 1678 1fbd 08f1 10be
000002f0: d5d0 503d fe63 14bd 3fa0 9bbd f5a0 2d3d
00000300: 79fc 083e cc4b c7bd 8230 473e f5c6 0b3c
00000310: 9bf0 453e b54e 25bd 8eb0 76bd 5516 3fbe
00000320: cf5c 44bd 765d e0bd a57b 9bbc f2d9 7e3e
00000330: 2ebc 233e a183 0cbd 25af 773d a541 79bd
00000340: 0469 763d 7954 883d 8d2e 0e3e fa23 843e
00000350: 53b9 d13b ffef 3e3e 9d20 4abe 64f7 1abe
00000360: 7dc2 9abc 2881 933d 1f4a 34bd 15c7 54be
00000370: 2078 4dbd a603 c63d 29a9 ddbd b22f 033d
00000380: f2ef f73d 240b aebd aba3 d1bc 869f e4bd
00000390: 99f1 0bbd 034f 4fbd 4f8e c53d e771 07be
000003a0: 1287 303e 0f85 ed3d 8087 69bc 2778 cc3d
000003b0: 373a 11be eead f23d 653e fe3d 5637 3bbe
000003c0: e0ec bbbd e912 513e c24d 633e 8949 173e
000003d0: a540 663d 60f3 55bd ec36 c4bd 6c02 253d
000003e0: 5c34 333e ed76 0b3e e6ac 123d d18b fe3b
000003f0: 6e91 c33d 8ade ddbc e7d9 ae3c 0194 d3bd

fc3.bias f4 [64]
0.13307676 0.11184485 0.15694194 -0.09680272 -0.12411739 0.18612665 0.007836687 0.14803253
0.021507362 0.09729533 0.19761057 -0.100499734 0.05843372 0.06937616 0.06517045 -0.20327853
-0.041091353 0.00083447096 0.063375056 -0.15683225 0.1333567 0.026756383 0.13355647 0.18893842
-0.025321255 -0.0023154966 -0.028498247 -0.021031631 -0.038138174 -0.01720162 -0.043207284 0.07570426
-0.017546726 0.12455736 -0.091000326 0.1321915 0.08139084 0.07400267 0.069663286 0.0023060679
-0.008745547 0.01702652 0.052707765 0.07289776 0.042184826 -0.03043136 0.12947571 0.056046724
-0.05574354 -0.11265987 0.06974254 0.05026404 -0.10658302 0.036024965 0.070164606 0.12015029
0.061677348 0.030758131 0.070845924 0.030063124 0.13474749 0.002301719 -0.06015375 0.1986523
00000000: 4645 083e ea0e e53d 63b5 203e 8140 c6bd
00000010: 4231 febd fc97 3e3e 7365 003c d795 173e
00000020: 3530 b03c c642 c73d 6d5a 4a3e ced2 cdbd
00000030: 3258 6f3d 1715 8e3d 1678 853d 3f28 50be
00000040: 684f 28bd 66c0 5a3a c8ca 813d a298 20be
00000050: a98e 083e 3430 db3c 07c3 083e 1379 413e
00000060: 856e cfbc 96bf 17bb 2875 e9bc 874a acbc
00000070: c636 1cbd 69ea 8cbc 1ffa 30bd d60a 9b3d
00000080: 27be 8fbc ee17 ff3d 615e babd 355d 073e
00000090: 3eb0 a63d b68e 973d a0ab 8e3d 6621 173b
000000a0: 7c49 0fbc 337b 8b3c 19e4 573d 6c4b 953d
000000b0: ffc9 2c3d 304b f9bc 4895 043e 4091 653d
000000c0: 5753 64bd 38ba e6bd 2dd5 8e3d aae1 4d3d
000000d0: 3348 dabd ea8e 133d 76b2 8f3d 5b11 f63d
000000e0: 63a1 7c3d 7af8 fb3c ab17 913d f146 f63c
000000f0: 3ffb 093e 70d8 163b c763 76bd 826b 4b3e

fc4.weight f4 [6, 64]
0.14035788 0.19048344 0.083087124 0.052586142 0.11250107 0.049551267 0.020774124 0.10748072
-0.111175485 -0.25627252 -0.27952078 0.065296575 -0.00022061612 -0.123587616 -0.104199596 0.078104325
0.1232808 -0.090266585 0.1538214 0.14779736 0.07790577 0.08174593 0.09054975 -0.00991256
-0.20426197 -0.17698398 0.13648018 -0.0036696487 0.04597758 0.0370047 0.14760152 -0.056935154
0.05092784 -0.031557344 -0.08085158 0.14129546 0.071233794 -0.061104152 -0.25918123 0.054428548
0.068925574 -0.1524587 -0.069744445 -0.051176526 -0.147937 -0.10445988 -0.15812775 -0.036455154
-0.10499388 0.054811593 0.07650848 -0.017332887 0.1162955 -0.14913079 0.12825617 -0.1844524
0.070790455 0.061014373 -0.081478246 0.10163679 -0.17791554 -0.12415804 0.17192832 -0.16654809
-0.30109456 -0.19913977 -0.33955863 -0.039086208 -0.105866514 -0.23750238 0.04792683 -0.2218745
0.053414043 0.24701391 -0.28782064 0.12211114 0.07842859 -0.1574588 -0.16376549 0.1193742
-0.10002159 0.023918368 0.02773544 0.07034147 -0.15227519 -0.10449134 -0.1513788 -0.3424774
0.04568757 -0.21821855 0.06969996 0.08968932 0.14086248 -0.08963049 -0.07602656 0.12259923
0.077754535 0.0147735765 -0.08666736 -0.37750232 0.015135715 -0.19684069 -0.31617823 0.017510725
0.045208942 0.04725458 0.10242038 -0.39861572 -0.092754796 -0.29061136 -0.012405138 -0.1515177
0.028904814 0.020127606 0.046405185 0.15140092 0.03409164 0.20847315 -0.00021097423 -0.017730307
0.08396685 -0.051062167 -0.31604144 -0.16454378 0.14615537 -0.014045782 0.07575358 0.07456617
-0.14494722 -0.09806427 -0.07436164 -0.11071862 -0.027276296 0.115955666 -0.16754206 -0.12724535
0.03776753 0.0013420624 -0.08149261 -0.03984266 0.09396576 -0.019431366 0.21545796 -0.093050376
0.10139907 -0.19385222 -0.14960803 -0.17920075 -0.03888983 0.16665001 0.16480169 -0.111257456
-0.08185748 0.07693857 -0.08848461 -0.1788372 0.15326458 -0.17822193 -0.22101417 -0.20837447
0.16237518 -0.15301557 0.024720116 -0.05257397 0.1321462 -0.13825022 0.10862031 0.107650734
-0.08083658 0.15807833 -0.032243345 0.02257373 -0.14072639 -0.18551703 -0.17403434 -0.14495258
-0.16245727 -0.13901097 -0.031978358 -0.17749634 -0.16838485 -0.020442158 0.14014976 0.0060040653
0.12031409 -0.15252481 0.10715987 0.11088418 -0.09458846 0.050115068 -0.15342604 0.108491875
0.066478476 0.1029556 0.21842228 -0.2597097 -0.059090223 0.20505181 -0.280339 0.20969914
-0.2567495 -0.20629647 0.057638884 -0.25924262 0.0800683 -0.16875176 0.11026777 -0.036926173
-0.1994693 0.17361952 -0.15021692 -0.2399381 -0.12215058 -0.013090106 0.08621404 0.2305971
0.050616432 0.24594165 -0.3150106 -0.25865507 -0.26468506 -0.19567358 0.09188767 -0.14503467
-0.112775035 0.17574714 0.066867545 0.15330952 0.1424037 -0.11701744 0.09009441 -0.2781954
-0.3248077 -0.090212755 -0.2236479 0.01113201 -0.3848243 0.3145662 -0.13245538 -0.13754217
-0.028754752 -0.15984222 0.018953053 0.20762363 -0.25318265 -0.08686094 -0.121289566 -0.30147216
-0.3274847 -0.27871594 -0.22107019 0.19581224 -0.23396812 0.074547835 0.15016711 0.12983571
00000000: fab9 0f3e 170e 433e 9529 aa3d 9164 573d
00000010: f666 e63d 45f6 4a3d 7f2e aa3c da1e dc3d
00000020: f9af e3bd 2736 83be 591d 8fbe 36ba 853d
00000030: 3055 67b9 811b fdbd 9966 d5bd 29f5 9f3d
00000040: a57a fc3d b0dd b8bd 5b83 1d3e 3158 173e
00000050: 0f8d 9f3d 696a a73d 2672 b93d 4a68 22bc
00000060: 0d2a 51be 4a3b 35be 76c1 0b3e 7d7e 70bb
00000070: fd52 3c3d 3e92 173d da24 173e d634 69bd
00000080: b699 503d 4642 01bd 8395 a5bd c2af 103e
00000090: 06e3 913d 5948 7abd 67b3 84be 78f0 5e3d
000000a0: da28 8d3d 221e 1cbe 2dd6 8ebd 7a9e 51bd
000000b0: cc7c 17be 10ef d5bd 3eec 21be 0052 15bd
000000c0: 0807 d7bd 1f82 603d 7ab0 9c3d b3fd 8dbc
000000d0: 562c ee3d beb5 18be 9655 033e 17e1 3cbe
000000e0: 96fa 903d 35ea 793d 11de a6bd f326 d03d
000000f0: 7e2f 36be 9246 febd fa0d 303e 958b 2abe
00000100: 1129 9abe 4ceb 4bbe a1da adbe dc18 20bd
00000110: 8bd0 d8bd d333 73be ec4e 443d 1233 63be
00000120: afc8 5a3d 37f1 7c3e 3a5d 93be 6815 fa3d
00000130: 2b9f a03d e13c 21be 24b2 27be 767a f43d
00000140: 1fd8 ccbd 74f0 c33c 6f35 e33c 300f 903d
00000150: 07ee 1bbe 8eff d5bd 0b03 1bbe 3359 afbe
00000160: e422 3b3d af74 5fbe dabe 8e3d 09af b73d
00000170: 413e 103e 3190 b7bd d0b3 9bbd 4e15 fb3d
00000180: c53d 9f3d df0c 723c a87e b1bd fc47 c1be
00000190: cafb 773c 9b90 49be 1de2 a1be a772 8f3c
000001a0: 032d 393d 058e 413d c7c1 d13d 5c17 ccbe
000001b0: 3af6 bdbd 03cb 94be ec3e 4bbc 7527 1bbe
000001c0: cac9 ec3c a6e2 a43c 5d13 3e3d d808 1b3e
000001d0: ada3 0b3d fc79 553e f738 5db9 263f 91bc
000001e0: d0f6 ab3d 9026 51bd 2fd0 a1be 2a7e 28be
000001f0: c1a9 153e 4820 66bc b124 9b3d 26b6 983d
00000200: 0b6d 14be ecd5 c8bd ea4a 98bd 72c0 e2bd
00000210: 8a72 dfbc 2a7a ed3d 2590 2bbe 9b4c 02be
00000220: 20b2 1a3d 24e8 af3a 99e5 a6bd 0f32 23bd
00000230: 1f71 c03d 872e 9fbc 03a1 5c3e 3291 bebd
00000240: 51aa cf3d 3281 46be d932 19be 6780 37be
00000250: f14a 1fbd 4da6 2a3e c6c1 283e f3da e3bd
00000260: e5a4 a7bd f891 9d3d 6b37 b5bd 1921 37be
00000270: 64f1 1c3e cf7f 36be 8a51 62be 1e60 55be
00000280: ae45 263e 1db0 1cbe d781 ca3c ce57 57bd
00000290: 5551 073e 7791 0dbe 5374 de3d fd77 dc3d
000002a0: a68d a5bd 49df 213e 9911 04bd 8bec b83c
000002b0: 941a 10be 2df8 3dbe 0f36 32be 736e 14be
000002c0: 335b 26be e458 0ebe bdfb 02bd 9ac1 35be
000002d0: 146d 2cbe 5076 a7bc 6b83 0f3e c0bd c43b
000002e0: 3c67 f63d 772f 1cbe a276 db3d 3f17 e33d
000002f0: 98b7 c1bd 7545 4d3d b71b 1dbe fd30 de3d
00000300: de25 883d 63da d23d 17aa 5f3e abf8 84be
00000310: 9708 72bd 1af9 513e 9888 8fbe 5fbb 563e
00000320: ac74 83be 623f 53be c016 6c3d 73bb 84be
00000330: d9fa a33d 43cd 2cbe 12d4 e13d e63f 17bd
00000340: ae41 4cbe 51c9 313e 77d2 19be 55b2 75be
00000350: 152a fabd e277 56bc fd90 b03d a521 6c3e
00000360: 2d53 4f3d 21d8 7b3e 1249 a1be 706e 84be
00000370: cd84 87be a85e 48be 9a2f bc3d f883 14be
00000380: 99f6 e6bd 0ff7 333e daf1 883d 2cfd 1c3e
00000390: 47d2 113e d7a6 efbd 6b83 b83d a16f 8ebe
000003a0: 324d a6be 77c1 b8bd f503 65be 0963 363c
000003b0: b107 c5be d20e a13e 62a2 07be dbd7 0cbe
000003c0: 168f ebbc aead 23be 6f43 9b3c 4a9b 543e
000003d0: 28a1 81be 26e4 b1bd aa66 f8bd 8f5a 9abe
000003e0: 13ac a7be dbb3 8ebe 3960 62be 0183 483e
000003f0: 5795 6fbe 89ac 983d 68c5 193e a7f3 043e

fc4.bias f4 [6]
-0.046541266 -0.09646414 0.0303296 0.07000425 0.1706161 0.056692287
00000000: 0ea2 3ebd fe8e c5bd c875 f83c 635e 8f3d
00000010: fdb5 2e3e 2c36 683d
